onnx_models/ad_quantized_int8.onnx (onnx, 319316 bytes, 66 tensors)

encoder.0.1.weight f4 [128]
00000000: 4918 7d3f bf7e 833f a9f3 843f 689a 6b3f
00000010: bd74 853f 4814 863f 6d14 6d3f 877a 843f
00000020: c26f 6f3f aee1 643f 74fb 643f fdde 833f
00000030: 60ca 883f a0b1 813f 326c 783f aa50 a73f
00000040: 639f 653f 49f7 5b3f d60b 633f d368 913f
00000050: 8b60 703f 1f8c 733f e322 953f b197 673f
00000060: cbb0 853f d2cf 583f 192f 843f ee61 823f
00000070: 535e 733f e05c 833f 3b0a 793f 8888 4c3f
00000080: b153 6d3f 44c4 6e3f 1b17 4a3f 0b2e 923f
00000090: c6d1 6c3f 3040 733f 4444 8d3f b62a 543f
000000a0: 2c15 7b3f 5ded 803f b1f0 7e3f bf06 883f
000000b0: d936 553f 0940 6f3f f1ba 703f 5783 823f
000000c0: 4437 713f de3c 853f 02f7 543f 7b40 583f
000000d0: 80d2 823f 0300 8e3f 2ada 853f 408d 7f3f
000000e0: b2e9 973f 8bea 813f 7005 8a3f 3576 653f
000000f0: 5126 853f 7064 6e3f 7c7c 5e3f 1427 693f
00000100: b3fe 8c3f bfb6 9e3f a8db 6b3f 59e9 8d3f
00000110: efc5 5f3f ac0b 3c3f 3836 513f bc0a 643f
00000120: 144f 803f efdc 993f 2557 843f f847 563f
00000130: 6411 7a3f 8a5d 793f 3ce3 773f ae93 653f
00000140: 36e7 893f a2a2 873f 4754 7c3f 6ad5 5d3f
00000150: 73a0 823f 4f4b 7c3f a67b 653f 6127 733f
00000160: 82ab 5e3f 707d 603f df07 503f ecc0 813f
00000170: da4d 783f 20c8 813f a73a 763f 8a0f 863f
00000180: 071d 8e3f fd07 5e3f d2cb 773f b18e 713f
00000190: a249 7b3f 0802 843f a58b 603f 5af1 7c3f
000001a0: a74d 833f 0bf0 753f dac5 563f 0a0d 883f
000001b0: 748f 5a3f 4826 573f 31b6 853f 00bc 693f
000001c0: 5925 963f 7222 813f c369 853f 18f0 8c3f
000001d0: 2646 703f 606e 803f 282c 8a3f 71b4 633f
000001e0: 5055 803f fed3 e13f a9d9 703f 291c 943f
000001f0: 1e20 893f 2816 613f a62f 4e3f 4469 8e3f
0.9886518 1.0273055 1.0386859 0.9203248 1.0426251 1.0474939 0.9260929 1.0349892
0.93529904 0.8940686 0.89446187 1.0302426 1.068676 1.0132332 0.9704009 1.3071492
0.8969633 0.859242 0.88689935 1.1360115 0.9389731 0.9513568 1.1651272 0.9046584
1.0444578 0.8469211 1.0326873 1.0186136 0.950658 1.0262718 0.97281235 0.7989583
0.9270583 0.9326823 0.78941506 1.1420301 0.9250759 0.9501982 1.1036458 0.8287767
0.9807918 1.0072438 0.99586016 1.0627059 0.83286816 0.93457085 0.9403525 1.0196332
0.94224954 1.04092 0.83189404 0.8447339 1.022049 1.1093754 1.0457203 0.99824905
1.1868193 1.0149702 1.0782909 0.89633495 1.0402318 0.93122005 0.869087 0.91075253
1.1015228 1.239952 0.92132044 1.1086837 0.874114 0.7345531 0.81723356 0.8907888
1.0024133 1.2020549 1.0339094 0.83703566 0.97682786 0.97408354 0.9683111 0.89678466
1.0773685 1.0596507 0.985661 0.8665377 1.0205215 0.9855241 0.896418 0.9498196
0.8698045 0.876914 0.8126201 1.0137 0.9699379 1.0139198 0.96183246 1.0473492
1.1102608 0.8673094 0.9679538 0.94358355 0.9815923 1.031312 0.8771308 0.98805773
1.0258073 0.960694 0.8389565 1.0628979 0.8537514 0.8404279 1.0446225 0.9130249
1.1730148 1.0088637 1.0422901 1.1010771 0.9385704 1.0033684 1.0794725 0.88947207
1.0026035 1.764282 0.94082123 1.1571094 1.0712926 0.8792443 0.80541456 1.1125875

encoder.0.1.bias f4 [128]
00000000: 22c5 383e a0d0 4a3c 4bac 02bd 8849 78bd
00000010: f813 333e cba9 4a3c 2c9c cc3e 6c30 45bd
00000020: 57a7 c5be be9f 8c3d bd78 aabc 2e0c e83d
00000030: c778 023e 1066 4c3e 81b4 d43e ed16 c2bd
00000040: 44f7 963e 9b03 b73e 4522 90bd 366c 553d
00000050: 2a31 4bbf 2fa4 3d3f afb8 19be 37c3 bebe
00000060: d6c0 f03e f4b0 203f e9a5 5bbe 2b36 31be
00000070: 7b1e 4cbe 6a9a f03d 9203 5dbd a1fa 893d
00000080: dfe2 463e 44c1 c6bd 791e 95be 3fa6 8d3c
00000090: 4bb5 93bd a093 ba3e 476d 633e 85d3 5e3e
000000a0: 3671 38be 8c57 b1bd b795 f6be 7c9b 89be
000000b0: a508 9cbe 4165 9c3d dc00 76be 9c83 83be
000000c0: 7f86 3ebe 24b2 95be c4b0 a2bc 6ee5 93be
000000d0: 29fa e4bd 848b 42bd e086 853e a003 8c3e
000000e0: 5ec3 a2bd 14a4 57be 9fc7 83be 46aa bbbd
000000f0: d3af 933e ef3d 8abe f53c e13c 2282 bcbe
00000100: d105 9dbe 4351 10bf fbc2 73be 3dbf 2a3e
00000110: 667d 09be 2953 41be bc3c 8dbe 5bd6 063e
00000120: 1368 13bf c04f 703d 9267 96be 04b9 74bd
00000130: 4871 59bc b58e 1cbe 0e40 003e 2659 b8bb
00000140: 77b2 413e 85dd fcba ed9c f3bd 8f04 4abe
00000150: 978d 21be a6ba a8be 9d0d 6c3d a0f0 f2be
00000160: 0ecb 693d d4be 0abe 8f43 933e 5988 8fbe
00000170: 80ac e3bd 3ec8 433e 51db 0c3e 9d24 b43e
00000180: 33ba be3c ed0a f63c 94bd 23be 0bed 28be
00000190: 2325 d4be 9192 e53d a434 7dbe 959d 983d
000001a0: 1fae 5cbe a6dd 51bd 0b19 a73b 84d2 e4bd
000001b0: 5379 023d 251f adbd 1a48 6bbc c004 c03e
000001c0: 725b 6bbd 8bec 34bd 5dbe 6dbe 0172 62be
000001d0: d775 a3be ac8c a13c a441 90be c430 113e
000001e0: cbc4 b53d d554 373e 7cc9 f1be 8fb5 ed3e
000001f0: 318b ad3d a70a 25bf d711 32bd 1b6d 833e
0.1804395 0.012378842 -0.031902593 -0.060617 0.17488086 0.012369583 0.399629 -0.04814188
-0.38604233 0.06866406 -0.020809526 0.11330448 0.12741385 0.19960809 0.41543964 -0.09477029
0.29485524 0.35744938 -0.070377864 0.05210515 -0.79371893 0.7407865 -0.15011857 -0.37258312
0.47022122 0.6277001 -0.21450008 -0.1730582 -0.19933502 0.11748202 -0.053958483 0.06737257
0.19422482 -0.09704831 -0.2912481 0.017291186 -0.07212313 0.36440754 0.22209655 0.21760376
-0.18011937 -0.08659276 -0.48161098 -0.26876438 -0.30475345 0.076365 -0.24023765 -0.25686347
-0.18605994 -0.29237473 -0.019859679 -0.28885978 -0.11180527 -0.047496334 0.26079464 0.27346516
-0.079474196 -0.21058685 -0.25738236 -0.091633365 0.2884508 -0.27000377 0.027494887 -0.36818033
-0.306685 -0.56373996 -0.23804848 0.16674514 -0.13426742 -0.1887938 -0.275854 0.13167708
-0.5758068 0.058669806 -0.29375893 -0.059746757 -0.013271637 -0.15288813 0.12524435 -0.0056258617
0.18915735 -0.0019292092 -0.118951656 -0.19728301 -0.15776668 -0.329549 0.05763017 -0.47449207
0.057078414 -0.13549358 0.2876248 -0.28033713 -0.11116886 0.19119355 0.13755538 0.35184184
0.023282146 0.030034507 -0.15990287 -0.16496675 -0.41434583 0.11209596 -0.24727112 0.074519314
-0.21550797 -0.05123677 0.005099421 -0.11172965 0.031853985 -0.08453206 -0.014360452 0.37503624
-0.057460256 -0.044170897 -0.23217149 -0.22113802 -0.31925842 0.019720398 -0.2817508 0.14178759
0.08875426 0.17903455 -0.47224033 0.4642758 0.08473814 -0.6446938 -0.043474045 0.25669178

encoder.0.1.running_mean f4 [128]
00000000: 737a 30c2 b512 8041 3c51 d4c1 150d 5bc0
00000010: 7e25 0640 1572 5141 873a e041 f8d3 f640
00000020: cede 86c0 64f8 aa40 40a0 c141 d143 3ac1
00000030: 4043 3741 c5e5 57c1 c704 a941 539a bd40
00000040: 63de 4240 857e 08c1 5e39 ecbf 596c 24c2
00000050: 2ccd 77c1 cbca 7240 6dff 4d40 b1be 41c1
00000060: c0cd 3641 e9b9 a53f 4e5f eec1 6ee7 96c1
00000070: 25b2 8540 eabe 7041 86c3 223f 5ec9 5f41
00000080: 2d2e 2ebe ebba 8fbe 059b a640 9459 60c0
00000090: b1e1 8f3e e1a3 f23e 86d3 2a40 0404 ba41
000000a0: 3df0 dcc1 10f7 17c2 dd4e 30c0 e03e d3c0
000000b0: 86ea 4440 569f b441 b824 15c1 062b 01c1
000000c0: c8b8 0bc1 1f01 c8bf 4125 b9c0 31af 6541
000000d0: c7ec 2540 c7ce 6740 bc21 7e41 9c3e 6c41
000000e0: 1c91 9cbf a611 d4bf 8cb5 1441 72d5 d93f
000000f0: a98f 5f41 dc32 00c1 8a16 9fc0 d649 91c1
00000100: 5d5b 3f3f ecdd 7dc0 1ae5 f2bf a464 5a41
00000110: efc8 1d3f e6b0 cfc0 c021 b2c0 e255 c041
00000120: fbef 61c0 4fbb 8cc1 a11a 17c0 fe98 e0c0
00000130: 2a2a c740 69fc 7441 474a fa40 934a 8a41
00000140: fb9c 4742 4946 0841 f8af 42c0 66f5 06c1
00000150: 104f 7b40 553c c1be ea80 9d41 61c8 edc0
00000160: d532 50c1 4045 c140 888f 2941 475c a8c1
00000170: 8ba5 98c0 3963 06c0 9c02 b9bf c1ab 27c0
00000180: 4583 e2c1 8e4c 0d41 5fa3 3641 74e4 8ec1
00000190: c07e 4a41 b95e 3ec1 bb38 dbc0 1c17 c041
000001a0: 240c c5c1 a0e1 83c1 3991 00c2 47a8 06c1
000001b0: 7a45 1541 4572 a9c1 d2fc 9840 d06f 0a41
000001c0: 2ab3 debe 0c74 c73f 17da 85c0 454e 9ac1
000001d0: 60ca 67c1 e673 4c41 2aea 8a41 f8c9 8641
000001e0: de87 00c1 2cfe 99be 3e34 17c1 bdff fe40
000001f0: 838e 0542 c8d2 48c0 fd4e 4541 1af6 16c1
-44.11958 16.009134 -26.539665 -3.4226735 2.0960383 13.090352 28.028578 7.713375
-4.214698 5.342821 24.203247 -11.641557 11.453918 -13.493596 21.127333 5.9250884
3.0448234 -8.530889 -1.8455007 -41.10581 -15.487591 3.7936275 3.218715 -12.1090555
11.425232 1.294736 -29.796535 -18.863003 4.177996 15.04661 0.63579595 13.986662
-0.17009802 -0.28072295 5.2064233 -3.5054674 0.28101876 0.47390655 2.6691604 23.25196
-27.617304 -37.991272 -2.7548134 -6.601425 3.0768142 22.5778 -9.321465 -8.073004
-8.732613 -1.5625342 -5.7857976 14.355271 2.5925767 3.6219957 15.883236 14.7652855
-1.2231784 -1.6567886 9.294323 1.7018263 13.972573 -8.012417 -4.9715014 -18.161053
0.74748784 -3.96667 -1.8976166 13.64957 0.61634725 -6.490344 -5.56662 24.041935
-3.5302722 -17.59146 -2.3610003 -7.018676 6.223897 15.311624 7.821567 17.286413
49.9033 8.517159 -3.0419903 -8.434912 3.9267006 -0.37741342 19.687946 -7.4307103
-13.01241 6.0397034 10.597542 -21.045057 -4.770208 -2.099806 -1.4453921 -2.619858
-28.314096 8.83119 11.4148855 -17.86155 12.655945 -11.898126 -6.850675 24.011284
-24.630928 -16.485168 -32.14182 -8.416083 9.329462 -21.180796 4.780862 8.652298
-0.43496066 1.558229 -4.1828723 -19.288218 -14.486908 12.7782955 17.364338 16.848618
-8.033171 -0.3007673 -9.450254 7.968718 33.38917 -3.137865 12.331784 -9.435083

encoder.0.1.running_var f4 [128]
00000000: 721d fe41 9c8d 1a41 fdc9 5742 33c7 b140
00000010: 95f7 4741 e4a0 1e41 d73b 9441 2faf 0841
00000020: 017a 9c40 ede2 f940 da28 fc41 90ac 6941
00000030: de04 2941 1f8e 2c41 4dfc c442 02f1 5741
00000040: 0c63 2441 7b3b 3841 436b 0b41 1004 e141
00000050: e511 2641 9d3b 1941 aca9 4c41 e97b 1d41
00000060: 4720 4741 d4ad 4941 fb58 5242 6839 2e41
00000070: c79e 7841 48e0 4b42 945f 7841 eb30 2b41
00000080: 13cc 6d42 368d d740 465c ca40 bce8 1f41
00000090: 8314 ee40 39aa 0441 9a81 5c41 bdeb d641
000000a0: 552d 4d42 e238 2642 fe27 1b41 d238 8740
000000b0: b9f3 cd40 e60f fd41 cdd7 2c41 5c83 5e41
000000c0: 4da8 f140 72b8 2d41 3db7 2e41 1f68 4d41
000000d0: 39fb 6242 0ae4 3041 4589 6c42 68e0 8241
000000e0: 8b53 1041 956e f940 9d79 0041 0cc6 0441
000000f0: 55c5 4a41 5676 b940 a2a9 2a41 3317 3741
00000100: 9717 5641 1e4a b240 f476 df40 d9db 5442
00000110: 6902 d040 d982 3d41 cde8 b140 4e27 3442
00000120: 7981 ea40 fb10 2141 774b 4c41 873f 4b41
00000130: b29c 2941 cfd4 f840 1c10 1441 d2ec 9142
00000140: 80fe 3342 41d5 2941 4c29 8941 6b6b 1342
00000150: b07a 1641 cef5 a340 bc8c 5141 d4fb 0641
00000160: d8a4 4341 b4ea 1741 f25b 9141 9ede 2042
00000170: ed94 dd40 608f 1841 6028 2741 e6ae 8241
00000180: d3ec 2742 a820 5041 5502 4f41 dcb7 0e42
00000190: 4bf8 ae41 52d2 2842 e937 8441 557b 9f41
000001a0: 1b3f 7a42 96b2 3f42 8387 ba41 9ba8 6d41
000001b0: d0bc ea40 f04c 7641 ae80 1b41 484b 7541
000001c0: 41f9 3e41 f409 7d41 f1f5 0e41 a7dd 5241
000001d0: a0c7 2541 8a9e 3f42 e5e3 2941 f3dc a741
000001e0: a2ef 1841 a032 7041 7aae 1941 9007 fa41
000001f0: e737 6e42 211f c840 23f6 5841 a812 5741
31.764378 9.659573 53.947254 5.5555663 12.497945 9.91428 18.529219 8.542769
4.889893 7.808951 31.519947 14.6046295 10.563688 10.784698 98.492775 13.49634
10.274181 11.514522 8.713687 28.126984 10.379369 9.577054 12.791424 9.8427515
12.44538 12.6049385 52.586895 10.889015 15.538764 50.969025 15.5233345 10.699443
59.44929 6.7359877 6.323764 9.99432 7.440004 8.291558 13.781641 26.865107
51.29427 41.55555 9.697264 4.225686 6.4360013 31.632763 10.802686 13.90707
7.5517945 10.857531 10.919736 12.83792 56.745335 11.055674 59.134052 16.359573
9.020396 7.794749 8.029691 8.298351 12.673177 5.7956953 10.666414 11.443164
13.380759 5.5715475 6.9832706 53.214695 6.500294 11.844445 5.559668 45.038383
7.328305 10.066646 12.768424 12.70301 10.600756 7.7759776 9.253933 72.96254
44.998535 10.614564 17.145164 36.8549 9.404953 5.1237555 13.096859 8.436481
12.227745 9.494801 18.169895 40.2174 6.9244294 9.535004 10.447357 16.3354
41.981274 13.007973 12.938069 35.67955 21.871237 42.20539 16.5273 19.93522
62.561626 47.9244 23.316168 14.853663 7.3355484 15.393784 9.718916 15.330879
11.935853 15.81493 8.935044 13.179114 10.361237 47.904823 10.618138 20.982885
9.558504 15.01236 9.605097 31.253693 59.554592 6.2538 13.560092 13.442055

encoder.1.1.weight f4 [128]
00000000: 9759 683f 065f 713f 5dad 5e3f 4219 6d3f
00000010: 6fe1 613f 9a4c 7c3f d795 603f abde 833f
00000020: 28d0 8b3f 39a0 7f3f 1b22 4b3f 0ba3 793f
00000030: e305 783f 8579 7b3f 74b9 543f 466a 5c3f
00000040: 6efd 813f 86a7 413f 3f82 733f f3e5 503f
00000050: 7aa2 763f fa31 793f 25c5 6d3f 068f 7c3f
00000060: 836b 8a3f f4b4 863f 05a9 6c3f bf9d 523f
00000070: 7461 783f 2c8d 6c3f 8002 633f 7e81 643f
00000080: 95b8 513f 02c2 443f bdf2 883f a488 833f
00000090: 8fc4 8c3f ebf3 873f 0da8 633f b301 6a3f
000000a0: 8a0e 663f 04d6 563f a40d 7b3f 060b 463f
000000b0: ed3f 543f 5865 7b3f 7a91 363f 2b57 8d3f
000000c0: c4e2 5c3f 5439 633f 3471 5d3f 2b40 843f
000000d0: 260e 5c3f df66 6c3f a4c3 743f 9604 753f
000000e0: 1fb3 6e3f f83d 823f 198e 7a3f e9a1 623f
000000f0: 51ea 6c3f d4bd 5b3f 6cb3 933f 53c2 7c3f
00000100: 0b3c 7e3f 3c6e 4d3f a94f 803f 5fa8 703f
00000110: 71c5 933f bcc1 6b3f d9e6 533f d81f 513f
00000120: 0021 4c3f 9ef8 743f ed01 993f 6605 843f
00000130: 385b 5a3f 703f 593f fb85 713f a5ac 6c3f
00000140: 393d 693f 1d36 6a3f 1a74 6f3f f8a4 6d3f
00000150: bd31 b33f 3b96 6d3f b984 513f eae9 403f
00000160: f11f ac3f 35e1 133f 0b9b 793f 6275 5f3f
00000170: 42d5 573f 5df9 6e3f 8bc0 653f a9bc 543f
00000180: 2f06 7b3f 8b69 6c3f d63c 5a3f f8c2 593f
00000190: c4fc 883f d244 553f 3fd6 993f 7b8d 733f
000001a0: bc76 553f b7b1 753f 00d2 763f 1fc9 703f
000001b0: dd87 5c3f 29b2 523f 9f53 873f a851 8d3f
000001c0: 0c2a 8f3f 99ed 3d3f b10d 8e3f ba7f 813f
000001d0: 5c4e 5d3f 7f9f 5d3f 7ebe 5a3f c108 663f
000001e0: 0b8d 5d3f 542d 5a3f 689d 813f 9c38 833f
000001f0: a8f8 563f 9796 8d3f f7e4 653f 0dc1 7e3f
0.90761703 0.9428562 0.8698328 0.92616665 0.8823461 0.98554385 0.8772864 1.0302328
1.0922899 0.99853855 0.79348916 0.9751441 0.9688398 0.982323 0.8309548 0.8609966
1.0155466 0.75646245 0.95120615 0.81600875 0.9634167 0.97341883 0.92878944 0.98655736
1.081406 1.0523973 0.92445403 0.8227195 0.970237 0.9240291 0.8867569 0.8926009
0.81922275 0.7685853 1.0699078 1.0276074 1.0997485 1.0621313 0.889283 0.9140884
0.89865935 0.8392031 0.9806769 0.7736057 0.82910043 0.98201513 0.7131573 1.1042227
0.86283517 0.8875935 0.8650086 1.0332083 0.8595909 0.9234447 0.95611024 0.9571012
0.9324207 1.0175161 0.97873074 0.88528305 0.9254504 0.8583653 1.153913 0.98734015
0.9931037 0.8024633 1.002431 0.94006914 1.1544629 0.9209249 0.8277412 0.81689215
0.79737854 0.9569186 1.1953713 1.0314147 0.8529544 0.8486242 0.9434506 0.92450935
0.91109043 0.9148882 0.9353653 0.9282985 1.3999554 0.9280736 0.81843144 0.75356925
1.3447248 0.57765514 0.975022 0.87288487 0.8430978 0.9334925 0.8974692 0.8310037
0.9805631 0.92348546 0.8524908 0.85063124 1.0702138 0.83308136 1.2018508 0.9513776
0.833843 0.95974296 0.96414185 0.94056886 0.8614481 0.823031 1.0572394 1.1040545
1.1184707 0.7419067 1.1097928 1.0117104 0.8644769 0.86571497 0.8544692 0.8985711
0.8654334 0.85225415 1.0126162 1.0251651 0.8397317 1.1061581 0.898025 0.9951332

encoder.1.1.bias f4 [128]
00000000: 6d8c 153e 4f09 9b3d a2a4 babe 8d1e f33e
00000010: 4d9d b5be 8e5b 093d 630b 803e 67dd 7c3d
00000020: 10b7 7dbe 3b6b 993c ed21 833e ca06 febd
00000030: 30b4 3cbf e742 0b3e ef80 ee3b 74c3 38be
00000040: 0e61 7b3e 5774 073e 506d 923d 8d5e cbbe
00000050: 79d7 ccbb bd3a 0ebd 4b03 67be b137 35be
00000060: 63c2 f63d 24cf dabe c1d3 063f 2075 2d3e
00000070: 4a30 ef3d 22fc b23b ba36 c4be 541b 13bd
00000080: 173b 40bf e0da 00bf 97fa 1bbf 2a5d 503e
00000090: 2de5 74be 96d6 b53e 9832 323e ca71 773d
000000a0: cc2e 01bf d4bf 7ebe e614 fa3b 51ba e03d
000000b0: 472d 38be cd9a c5be a3fb 87be 6c26 a73d
000000c0: b790 06bf ed17 56be 6705 f3bd 8999 c83d
000000d0: 5a7b 42be 6e9a fabc a9b9 53bf bcf3 7ebc
000000e0: 20ca a7bd c758 21bd e33f 933d ab10 923b
000000f0: 6453 babe 2ca4 97be 416c d03d 7738 683d
00000100: d807 8a3e 3b7b d7be 6f27 77bf 2c39 24bf
00000110: 700f 66be a339 1dbf 94b5 78be a2a6 b93e
00000120: 2446 20be dd87 abbe 4bae 4e3d ad2d a9bd
00000130: d3da 87be da29 31bf a058 8ebf 0e31 adbc
00000140: cff1 943e fd69 d6bd 1409 2abf b579 fe3d
00000150: fc69 18be f397 553f aaa4 78bc 2100 96be
00000160: abfb 5bbd 289e f53e ae09 553c e2de ee3c
00000170: f7cb 32be 2c87 06bd e4a2 d4bd f139 d1be
00000180: 7b86 4abf d678 8fbe 6518 0c3f 195a 353e
00000190: 4b30 d2bc 962d cfbe 5300 8fbd ebe9 18be
000001a0: b56a 9e3e 286a 49be a80f af3d 0d70 4cbe
000001b0: 0a41 7a3e 9a5f c9be a486 b83d e120 1abf
000001c0: ab40 b8be 4a12 603e bd66 303e b022 18be
000001d0: 40d7 063e aad9 82be dae8 8d3e 6d72 c1be
000001e0: 8c7b 68bf 5be9 d5be 1997 6abf 24f9 c03e
000001f0: 5412 653e d873 683e c418 973c 72b6 97bd
0.1460435 0.07570135 -0.3645373 0.47484246 -0.35471573 0.03353458 0.25008687 0.061734583
-0.24776864 0.01872789 0.2561182 -0.12403639 -0.73712444 0.1359974 0.0072785537 -0.1804331
0.24548742 0.13227974 0.07149756 -0.39720574 -0.0062512723 -0.034723986 -0.2255985 -0.17697026
0.12048795 -0.4273616 0.5266686 0.16939211 0.11679132 0.0054621855 -0.38323003 -0.035914734
-0.75090164 -0.50333977 -0.60929245 0.2034804 -0.23915549 0.3551528 0.17402112 0.060411252
-0.5046203 -0.24877864 0.007631886 0.10973037 -0.17986022 -0.38594666 -0.2655917 0.08161625
-0.5256457 -0.20907564 -0.11866265 0.097949095 -0.18992367 -0.030591216 -0.8270517 -0.0155610405
-0.08192849 -0.039391305 0.0718992 0.0044575534 -0.36391747 -0.2961744 0.10176898 0.056694474
0.2695911 -0.42086205 -0.96544546 -0.6414974 -0.22466826 -0.6141607 -0.24288017 0.36259943
-0.15651757 -0.33502093 0.050459187 -0.08260665 -0.26534137 -0.69204485 -1.1120796 -0.021141555
0.29090735 -0.104694344 -0.664201 0.124255575 -0.1488418 0.8343498 -0.015175978 -0.29296973
-0.053706806 0.47972226 0.013002796 0.029159013 -0.17460619 -0.032843754 -0.103826314 -0.40864518
-0.7911145 -0.28021878 0.54724723 0.17710151 -0.025657794 -0.40464467 -0.06982484 -0.14932983
0.30940786 -0.19669402 0.08547908 -0.19964619 0.24438873 -0.3933075 0.09010056 -0.6020642
-0.35986838 0.21881977 0.17226692 -0.14856982 0.13168049 -0.2555669 0.27716714 -0.37782612
-0.9081352 -0.417796 -0.91636807 0.3769008 0.22370273 0.22700441 0.018444426 -0.074078456

encoder.1.1.running_mean f4 [128]
00000000: db9c 0b3d ce1a b7bf dc62 06bf dec3 34bf
00000010: 59bd 4240 7b1e 12bf a939 403f 763c 91bd
00000020: bc91 ddbe 41fc d1be 0c3e a13f a4ed df3f
00000030: 819d 8ebf da64 15bf 2634 b2bf a19c 813e
00000040: 4eb3 85bf 8fc6 fbbe 8a5e a1bf e9ea 16bf
00000050: a73f c7bf 7f39 cebf e019 5b3f 0e00 fdbf
00000060: 9570 393e 2a23 04be c20f 04bf bb7c e5be
00000070: e3a3 4bc0 cf11 cdbf 5ea7 193d db60 2ac0
00000080: 0468 2f3e 9dd2 5dbe a635 0c3f cc5d 3e3f
00000090: cbaa f5bf 3b43 79bf 14b8 4abf ea96 aa3f
000000a0: 3df2 923f 2984 7d3f c834 d7bf 6b61 9d3f
000000b0: 4b9f 8abf c8c6 85bf 9b25 1c40 1f2e f4be
000000c0: 842d 2bbf 2b1d a9bf 00cb dc3b 3ed6 9d3f
000000d0: a9e3 ce3f 5361 97bd f4cb ea3f a6a4 ad3b
000000e0: 8c6f 1cbf 2300 80be 6cf4 023c 16f8 23be
000000f0: 1d09 4cbf f7e8 14bf a5f8 4bbf 877f 97be
00000100: c449 52bf 5525 6b3f ee33 8c3f 1b62 0f3e
00000110: 4e81 a83f 8619 08c0 f738 7dbf 37e4 9bbf
00000120: 1149 a7bf f7ef be3f 0f56 98bf 1c14 33bf
00000130: 1c25 0a40 85ac ab3e 7c74 c7be f6b7 94bf
00000140: 7374 85be 14c7 563f 20cf 39bf e00a 3b3e
00000150: 0a4e b6bf c9f4 443d e86e 763f d20e fc3f
00000160: 08ee 96bf 9bb7 39be 52e3 e33e 4f86 93bf
00000170: 744b 0fc0 0cc3 843f fa18 e6bf 75e7 3ec0
00000180: af5b 923e 4bd3 1fbe d35f 523f 20fc 18c0
00000190: 01bf 2ec0 be4d 29bf 23fa 913e a053 823f
000001a0: b7d8 71c0 5d87 8e3e 2fea b0bf 9b1a ce3f
000001b0: 004d db3f ef2c 293f 9f4f 723f 08b9 803f
000001c0: 6626 9abf 3bdf 4cbf 4071 0ec0 243e 07c0
000001d0: 034b 16bf f0a7 913f 01f8 a93f 2d0d 8abf
000001e0: d17a 0b40 bc7c b1bf 72f6 14c0 b1b2 31c0
000001f0: 7de8 a1bf 9e0c 4cbd 4c3b 9bbe f4e8 49bf
0.034085136 -1.4305055 -0.524946 -0.7061137 3.0428069 -0.5707776 0.7508798 -0.0709161
-0.4327525 -0.41012767 1.259706 1.7494397 -1.1141816 -0.5835701 -1.3922164 0.2531481
-1.0445344 -0.49174926 -1.2606976 -0.58952194 -1.55663 -1.6111296 0.8558636 -1.9765642
0.18109353 -0.12904039 -0.51586545 -0.44821724 -3.1818779 -1.602106 0.03751313 -2.6621616
0.17129523 -0.21662374 0.5476936 0.7436187 -1.9192747 -0.9736821 -0.7918713 1.3327305
1.1480175 0.99029785 -1.6812983 1.2295355 -1.0829862 -1.0451288 2.4397953 -0.47691438
-0.66866326 -1.3212026 0.0067380667 1.2331007 1.6163226 -0.0739161 1.8343492 0.0052991686
-0.6110771 -0.25000104 0.007992845 -0.16012606 -0.79701406 -0.58167976 -0.79676276 -0.29589483
-0.8214381 0.9185384 1.0953348 0.14002268 1.3164461 -2.1265578 -0.98915046 -1.2179021
-1.3069173 1.4916981 -1.1901263 -0.6995256 2.158515 0.3353006 -0.38956058 -1.161864
-0.26065406 0.8389752 -0.7258167 0.18265867 -1.4242566 0.048085008 0.9626298 1.9692023
-1.1791391 -0.18136446 0.4450937 -1.1525363 -2.2389803 1.0372024 -1.7976372 -2.982877
0.28585574 -0.15607946 0.82177466 -2.3903885 -2.730408 -0.6613425 0.28511152 1.018177
-3.7788522 0.2783765 -1.3821467 1.6101869 1.7132874 0.6608419 0.9465274 1.0056467
-1.2042968 -0.8002812 -2.2256622 -2.1131678 -0.5870821 1.1379375 1.327881 -1.0785271
2.179371 -1.3866191 -2.3275418 -2.7765315 -1.2649075 -0.04981672 -0.30318677 -0.78871083

encoder.1.1.running_var f4 [128]
00000000: ed9d bb40 60e5 1340 02ed ad40 ec0a 0640
00000010: 4eb2 1a40 b3ad 7840 24f4 ce3f f650 bb40
00000020: 99af 5440 d462 2640 0ada 0d40 7e9f 3940
00000030: ff9f ef3f fb0a d840 e125 fd3f 2d69 1d40
00000040: d4c4 8440 4d64 6a3f 7f47 7e40 916e a840
00000050: 029b 1b40 f524 4340 2345 6d40 6d0e 2840
00000060: 2c56 9840 0698 a240 3106 7040 fc92 cc3f
00000070: 5b61 6e40 0461 3141 860d 2a40 7b53 2440
00000080: daab a13f 5987 5a40 5aec 8e40 0f51 0541
00000090: 2139 3340 da85 9340 d4f5 1f40 9149 a33f
000000a0: 5269 4640 bf56 2240 323f 8940 52c4 e93f
000000b0: 19e8 8b40 cc5a 0b40 1e68 7d40 c156 4f40
000000c0: 194f 2040 3297 d940 8d04 d13f 08e6 eb40
000000d0: 2070 913f 534e af3f 5cbc de3f eec8 8540
000000e0: e7a6 1c40 38a7 1040 296a bc40 894e 8a40
000000f0: 5754 5240 03e8 1b40 23d6 ba40 5e18 2440
00000100: 0102 5740 26bc 4f40 b041 fd3f af61 0540
00000110: 6ccc 6140 d254 4c40 3d6e ab40 aeaa c440
00000120: 68b2 7340 2cb9 3a40 d1f9 8f40 de66 f73f
00000130: c3b4 5240 24b7 1e40 3e3f 7f3f a295 df40
00000140: d9f5 1440 27d1 1340 5c8b 0640 479e 3e40
00000150: c4eb 9d40 86f9 1140 c017 0340 fb63 6c40
00000160: bf9d ae40 93d1 ad3f 7910 6c40 abc3 2e40
00000170: e935 5041 86a0 0f40 5e12 6240 f202 8b40
00000180: c961 e33f fb0c 4540 7352 3f40 925e 5940
00000190: e54d 3340 6e6c 6240 d286 8a40 02ff 0941
000001a0: 2486 4c41 98de 3441 e0dc 3640 d8ac 8c40
000001b0: ceac 1940 9664 2f40 43d8 fe40 4f18 8140
000001c0: f415 7440 02bd 5840 c9c5 7d40 481c a840
000001d0: abad 0240 80f1 7240 d97a b43f 2b6d 5840
000001e0: 194f fd3f 6c13 db3f a18f f93f 31b7 5240
000001f0: 598b c53f 93b2 c540 013f 9840 e807 d43f
5.863028 2.310875 5.4351816 2.0944166 2.4171329 3.8856018 1.6168256 5.853633
3.3232176 2.599782 2.216433 2.9003596 1.8720702 6.7513404 1.9777185 2.4595444
4.149027 0.91559297 3.9731138 5.263497 2.431336 3.0491307 3.7073448 2.6258805
4.760519 5.0810575 3.750378 1.5982356 3.724692 11.086185 2.6570754 2.5675952
1.263057 3.414511 4.4663515 8.33229 2.8003619 4.6100893 2.4993792 1.2756826
3.1001782 2.5365446 4.2889643 1.8263037 4.372082 2.1774168 3.9594798 3.23967
2.5048277 6.7997065 1.6329514 7.37183 1.1362343 1.3695778 1.7401233 4.1807775
2.447687 2.2602062 5.887959 4.322087 3.2863977 2.4360359 5.8386397 2.5639873
3.3594973 3.2458587 1.9785671 2.0840871 3.528102 3.192677 5.357207 6.145835
3.807764 2.917552 4.499245 1.9328268 3.2922828 2.479928 0.99705875 6.9870157
2.3275054 2.3096406 2.1022558 2.9784105 4.93503 2.2808547 2.0483246 3.6936023
5.456756 1.3579582 3.6885054 2.7306926 13.013162 2.2441726 3.532371 4.3441095
1.7764217 3.0789173 2.9894073 3.396397 2.8016293 3.537868 4.3289576 8.624758
12.782749 11.304344 2.8572311 4.396099 2.4011722 2.7405143 7.963899 4.0342174
3.81384 3.3865361 3.9651968 5.2534523 2.0418499 3.79599 1.409999 3.381663
1.9789764 1.7115302 1.9496957 3.292431 1.543315 6.1780486 4.757691 1.6564913

encoder.2.1.weight f4 [128]
00000000: 921a 613f 4d80 503f 8c67 793f 38d2 613f
00000010: 8ed9 703f 4ca5 773f d1a0 603f 90d4 3d3f
00000020: a88d 353f ce79 5c3f dae3 633f 94fc 553f
00000030: 1dcf 5e3f 188f 273f e553 703f f733 5c3f
00000040: 0c80 563f 8419 7d3f 5e35 553f b80d 773f
00000050: f1d5 3c3f 7b96 633f affb 4a3f 91af 4b3f
00000060: 4a3e 4b3f f33c 693f 0eec 6a3f 7ab8 6a3f
00000070: df76 663f 3e60 513f 2741 5e3f 4f9b 4c3f
00000080: 1680 3e3f b02c 773f 2e7f 7c3f d426 5f3f
00000090: 916a 513f 63ca 7b3f 9515 713f 7983 653f
000000a0: 315e 313f a8cb 7c3f ea26 553f f4af 683f
000000b0: f2e4 4c3f 4684 743f f80d 763f 8611 753f
000000c0: 1caa 703f bc58 5b3f aad3 4c3f 029e 4f3f
000000d0: c6cd 513f 3dd5 4f3f 23f9 593f 7657 573f
000000e0: 2611 643f 4626 753f 4441 803f 2b24 693f
000000f0: 555e 5e3f 985b 633f 7dc1 323f ab98 603f
00000100: e8a8 723f d33e 7d3f de62 7b3f 06ab 6f3f
00000110: 5774 553f ea85 653f f567 6c3f a7b1 593f
00000120: 73f4 733f 7226 2c3f 9f0a 423f a95a 683f
00000130: 03f2 813f c24a 873f 85af 473f 26bd 4e3f
00000140: 0f55 663f 037e 4f3f 7ac3 723f 3e54 273f
00000150: 01fd 943f 43e3 3e3f a221 6b3f 9230 5e3f
00000160: 636a 783f 32fa 723f 7572 483f 94dd 5f3f
00000170: 7042 673f bae9 673f c49a 483f ee24 5b3f
00000180: ffdb 553f 6019 5f3f 27c4 773f 2955 3b3f
00000190: caa7 573f 9547 683f 7d6c 653f 1780 823f
000001a0: a7f5 6e3f d3f4 663f 14a6 693f a3d7 3a3f
000001b0: ec4d 643f 6afc 633f cccf 503f 3b53 5d3f
000001c0: 8474 583f ffb4 833f 84fe 8d3f 627a 593f
000001d0: f735 503f a5b9 803f 2ef4 6e3f ae68 613f
000001e0: 1370 5e3f 3e0e 603f 1f9a 4d3f 26a2 833f
000001f0: 4a40 703f 2ad1 783f ed23 4a3f 4de0 573f
0.8793117 0.8144577 0.97423625 0.88211393 0.9408196 0.967366 0.87745386 0.7415247
0.70919275 0.8612336 0.8901955 0.8358853 0.8703478 0.6545272 0.9387801 0.8601679
0.83789134 0.9886706 0.83284557 0.9650531 0.7376395 0.8890149 0.7929029 0.7956477
0.7939192 0.91108626 0.9176644 0.9168774 0.9002513 0.8178748 0.86818165 0.7992448
0.74414194 0.9655256 0.9863156 0.8716862 0.8180323 0.9835569 0.94173557 0.89653736
0.6928435 0.98748255 0.83262503 0.90893483 0.8003684 0.95514333 0.96115065 0.95729864
0.94009566 0.8568227 0.80010474 0.81100476 0.8195461 0.8118475 0.8514578 0.8411783
0.89088666 0.95761526 1.0019917 0.9107081 0.8686269 0.88811636 0.6982649 0.8773295
0.9478898 0.9892399 0.98197734 0.93620336 0.83380646 0.8965746 0.92346126 0.850367
0.95294875 0.6724616 0.75797457 0.90763336 1.0151981 1.0569689 0.78002197 0.8075737
0.8997354 0.81051654 0.94829524 0.6536292 1.1639711 0.74565524 0.91848195 0.8679286
0.97037333 0.9491302 0.7829965 0.87447476 0.9033575 0.90591013 0.78361154 0.85603225
0.8353881 0.87148094 0.9678368 0.7317682 0.842404 0.90734226 0.89618665 1.019534
0.93343586 0.9021732 0.9126904 0.72985286 0.891814 0.8905703 0.8156707 0.86455125
0.8455279 1.0289611 1.1093297 0.84952366 0.81332344 1.0056654 0.9334134 0.88050354
0.8688976 0.8752173 0.80313295 1.0283859 0.938481 0.9719416 0.7896107 0.8432663

encoder.2.1.bias f4 [128]
00000000: 79e4 ddbe 60f7 0dbf 6db3 ddbd 6be7 6c3e
00000010: 5914 e23c 98dd 503e 079e 31be e972 28be
00000020: 4ef5 dd3e 08b3 9fbd 7d5e c2be 6fe4 afbc
00000030: 4558 993e de95 94be 81c0 523c 44e0 9abe
00000040: 6d12 51be b5db bf3b f4d7 61be 46ee 4d3e
00000050: 6f3e b23e 375b 90be 8986 0bbe dc5e edbd
00000060: 81d9 dabe 2820 12bf 9861 55bf 36f2 7fbe
00000070: 055b 1fbd ffa5 923e 790e 14bf 6c17 96be
00000080: 6cd8 2cbf f8fa ac3e a1ae b53e 8152 5abf
00000090: 85f7 303d 639c 2d3c 02d9 29be d3e1 303e
000000a0: 191b 8a3e 536c ab3e 5037 7cbc 59dd c13e
000000b0: 71e0 9e3c b5a8 dfbe 68fb a0bd 0acf 32bc
000000c0: e9d4 afbd 14bb b4be 7d73 c0be f31f 62be
000000d0: 5a4b b13e eb15 e63e a275 c33d bfe8 8abe
000000e0: 05ab 783c 627a 0a3e cf78 e73d 9d8e 23be
000000f0: 86ae 75bf bf7c 06bf 3fd0 6bbf e4bd 2fbf
00000100: e936 03c0 1bd1 84bd 6246 a23d 6fa3 f2bf
00000110: f29f 28bf 2509 053e b4e9 9cbe 02c0 1b3e
00000120: 7dfe cbbb 1e40 aa3d 0b58 383d 212d 363e
00000130: 0507 4ebc d686 553e 67f9 9b3e 8eb2 4ebf
00000140: 205d c1bd 9088 86be 284f d2be 9e29 013f
00000150: 982e 973c 0a13 b2be 29b1 5dbe fe4c 58bf
00000160: ffc8 c6bf a592 15be 7e62 03bf b228 8dbe
00000170: 6dd9 97bd 1915 29bf fd5e 98be e950 0fbf
00000180: d64c 2abf b834 63be a553 b6bf fe69 41bf
00000190: ee42 e33d 4592 c5bd 408d a5bb bbbf 6b3e
000001a0: 7212 efbd 1c3d d1bd decc b93e a8e6 aa3e
000001b0: 07d3 91be 14db dcbd 3f0c edbe 3c9d 853d
000001c0: 626e 8b3d aef7 8abe e077 a53d 99c7 afbe
000001d0: 9110 113e dd63 d03d 473d b9bd 137b 293e
000001e0: 20ec 0e3f 42cb 0cc0 361c 09bf 6e7b 7b3e
000001f0: 3cd4 2a3e 007e 963d dca6 bcbe 36f0 e83e
-0.43338373 -0.5545559 -0.108252384 0.23135154 0.027597593 0.20397031 -0.17345439 -0.16450085
0.43351215 -0.077978194 -0.37962714 -0.02147123 0.29950157 -0.2902059 0.012863279 -0.30249226
-0.20417185 0.0058550485 -0.22055036 0.20110425 0.34813258 -0.2819459 -0.1362554 -0.115903586
-0.42744067 -0.57080317 -0.8335204 -0.2499474 -0.038905162 0.2864227 -0.57834584 -0.29314744
-0.67517734 0.33785224 0.35484794 -0.8528214 0.043204803 0.0105963675 -0.16586688 0.17273645
0.269738 0.33481082 -0.015394047 0.37864187 0.019394131 -0.436834 -0.07860452 -0.01091362
-0.08585531 -0.3529898 -0.3758811 -0.220825 0.346278 0.44938597 0.09543921 -0.27130696
0.015177493 0.13523248 0.11302339 -0.15972371 -0.95969427 -0.525341 -0.92114633 -0.68649125
-2.0502264 -0.06485196 0.07923581 -1.8956126 -0.6586906 0.1299177 -0.3064705 0.15209964
-0.0062254057 0.08313011 0.04500584 0.17790653 -0.012574916 0.20852217 0.30463716 -0.807412
-0.0944159 -0.26276064 -0.41076016 0.5045413 0.018454835 -0.3478015 -0.21649612 -0.8449248
-1.5530089 -0.14606722 -0.5132216 -0.2757011 -0.074145176 -0.6604782 -0.2975997 -0.55982834
-0.6652349 -0.2218808 -1.4244276 -0.75552356 0.1109675 -0.09647039 -0.0050522387 0.23022358
-0.1167344 -0.10216734 0.36289114 0.33379102 -0.28481314 -0.10783973 -0.46298406 0.06524131
0.06808163 -0.2714209 0.08079505 -0.34331968 0.14166476 0.101752974 -0.09044891 0.16550855
0.5582905 -2.1999059 -0.5355867 0.24558803 0.16682523 0.07348251 -0.36846054 0.45495766

encoder.2.1.running_mean f4 [128]
00000000: 3732 c6bf 854e 1a3f e7ad 84bf fb85 50bf
00000010: ad0b 6abf 4f95 edbf 6244 0abf ec60 42be
00000020: 2998 63bf 5252 03bf 5917 6a3d 8bd3 acbd
00000030: fa12 e8bf d3ff b33f 00fc 0d3e d797 c53e
00000040: f082 b0be b835 a43d 6527 10be 2ad4 94be
00000050: 8a65 81bd d242 2040 22fb d1bf bde2 033f
00000060: 4405 55bf 94b6 843f a64c abbf c8a5 b4bd
00000070: b1af d43f 7a34 f3bf 1639 b73e 4a98 ae3e
00000080: 38ca 8c3d 010e f6bf 6718 fabe b91d 0e40
00000090: efdd e53d 1cca a7bf 9903 6bbf bb89 823e
000000a0: 66ef 683e dc5e 50bd 5411 9b3e d6fa 00bf
000000b0: 078e 7dbe c4c1 273f 2e9c 01bf 5a9c 16bf
000000c0: ff33 7dbf 73d0 a9bf b9ed 71be fa15 cebe
000000d0: 69d6 71bf 3201 6ebf e941 d6be 1e10 6f3f
000000e0: 3156 8a3d 4354 92bf a2b4 e4be 4780 5b3f
000000f0: b8ab 20bf be4d 443f 1646 e93d ffcd 5fbf
00000100: b5b7 523f 61fe 2fbf 2260 013f 03a5 9c3d
00000110: 56a5 69be 380e 35bf b0f6 7dbf 65b0 68bf
00000120: 8264 3ebe 5335 c73b 0e9d e1bf 6c5e eebf
00000130: 0624 f43e 8cd3 233f 778a f1be bc07 433f
00000140: aa8c d0be 5a8c f33e 69bb dcbc f4ca 2abe
00000150: ddde 56bf 4fa5 af3e f1bf 1ebe 2093 093f
00000160: e0a9 a23f 87a2 213e 007e 59bf 36df 013f
00000170: 385e 423f a5b1 a43f f30b 3d3d 65c9 233f
00000180: 32ad c9be d0dc 053f 25e3 1a3f d2ce 0c40
00000190: 47fd 163d 3c9e 803f e99a 13bf b048 ebbf
000001a0: 13a7 c0be 20e1 a5bf 30db 23bf 32b9 c4bf
000001b0: a13b 05bf e2d4 cebf ff48 febe 5dfd c4bf
000001c0: 9cd3 f4bf 38ec 1abf 1aff 97bf 2eb8 143f
000001d0: 3802 033d fae0 b7bf 53b9 163d a841 0abf
000001e0: 0ccc cfbf 117a 943f 96a3 57bf 47a7 aa3d
000001f0: dfa5 733e d804 4fbe cf01 733f a642 b1bf
-1.5484074 0.6027606 -1.0365571 -0.8145444 -0.91424066 -1.856119 -0.54010594 -0.18982285
-0.8890405 -0.51297486 0.057151172 -0.08438786 -1.8130791 1.4062446 0.13865662 0.38592407
-0.34474897 0.080180585 -0.14077528 -0.29068118 -0.06318195 2.5040784 -1.6404765 0.5151785
-0.8321116 1.0368218 -1.3382766 -0.08820683 1.6616117 -1.900039 0.3578574 0.34100562
0.06874508 -1.9223024 -0.48846743 2.2205641 0.11223971 -1.3108554 -0.91802365 0.25495705
0.22747573 -0.050871715 0.30286658 -0.50382745 -0.2476121 0.6553004 -0.50628936 -0.58832324
-0.98907465 -1.3266739 -0.2362584 -0.40251142 -0.9446779 -0.92970574 -0.4184716 0.9338397
0.06754721 -1.1431965 -0.44669062 0.8574261 -0.6276202 0.76681125 0.11390321 -0.874237
0.82311565 -0.68747526 0.5053731 0.07648661 -0.22816977 -0.7072482 -0.9920454 -0.90894157
-0.18593028 0.006079355 -1.7626054 -1.8622565 0.47683734 0.6399467 -0.47175953 0.76183677
-0.40732318 0.47568017 -0.026944833 -0.16678983 -0.8393381 0.34305808 -0.15502907 0.5374012
1.2708092 0.15784656 -0.84957886 0.5073122 0.75925016 1.2866713 0.046153974 0.6397918
-0.3938995 0.5229006 0.60502845 2.2001233 0.036862638 1.0048289 -0.5765825 -1.8381557
-0.37627468 -1.2959328 -0.6400633 -1.5369017 -0.5204411 -1.6158717 -0.49665067 -1.538982
-1.9127078 -0.6051669 -1.1874726 0.58093536 0.031984538 -1.4365532 0.036797833 -0.54006433
-1.6234145 1.1599752 -0.8423399 0.08332687 0.23793744 -0.20216691 0.94924635 -1.3848464

encoder.2.1.running_var f4 [128]
00000000: d5d0 2140 2345 cf3f ac17 d340 92d6 2e40
00000010: 1de2 bc40 8948 5840 118f 6540 8292 0a40
00000020: e20e 1a40 1f2d 2c40 115b 2640 1766 e23f
00000030: 31a8 4440 ac86 c33f 295c 8840 b5d6 c13f
00000040: 1e7b 5940 6d8a 5a40 7e94 0a40 6068 9f40
00000050: 5af4 2040 62b1 1440 b455 7540 74e7 6940
00000060: 17f2 d43f 1dce 1740 1f16 a73f a63e e83f
00000070: ce36 1d40 e677 0740 a02a bf3f 282e 2a40
00000080: 9542 ab3f 0481 e13f c2b9 6940 7bc3 763f
00000090: 562e b83f 1310 5540 a828 9440 a057 2840
000000a0: b1e5 bb3f cdd3 d340 168a 1340 9758 3f40
000000b0: fe44 cc3f 7402 b73f b74f 9f40 b591 b13f
000000c0: 7912 b140 5310 9e40 f859 0040 33ad fe3f
000000d0: 6092 0f40 6901 1940 458f 2240 2997 1f40
000000e0: 024f 7d40 8b34 5240 e9ab a83f 176a 4d40
000000f0: 2891 ec3f 1afe 9c3f 030d 833f 985f cd3f
00000100: ab8e d23e 0a7c 0a40 7e29 9d40 852a 6a3f
00000110: dcba 0040 6f04 2f40 7e1e 3340 9744 bf3f
00000120: 4072 a740 35a1 ec3f 34f7 c13f 6565 f23f
00000130: 2fc2 d640 0eac b640 085f 5540 fbae a63f
00000140: 8e94 2140 0a9b b53f 1a37 2d40 022c a03f
00000150: f015 2640 b279 b53f 098c 9340 5a9b cb3f
00000160: 6424 1d3f c6f6 3c40 88fc 1c40 9683 0b40
00000170: 6237 0140 e24d c13f 8541 2640 e8de de3f
00000180: b05e 603f c9df dc40 62d0 3c3f d589 0c40
00000190: 6820 0240 3fe8 0f40 ca7e da40 f303 6b40
000001a0: 2586 9c3f 5920 fd3f 9bbc 1e40 b91f cb3f
000001b0: be07 fb3f da97 aa40 6bc4 683f dfad 8240
000001c0: 9e20 6e40 154a 2b40 e266 3340 dd5e f23f
000001d0: e60c a13f 9661 0140 6838 7640 46b0 1840
000001e0: 8c8e 1540 b55b ae3e 69de 8a3f 16bf c240
000001f0: 0b32 3440 1689 9f40 8aeb 4840 c16e 843f
2.528371 1.6192974 6.5966396 2.7318463 5.9026017 3.3794272 3.586857 2.1651921
2.4071584 2.690254 2.5993083 1.7687405 3.0727656 1.5275474 4.26125 1.5143648
3.3981395 3.4146988 2.1653132 4.981491 2.514914 2.3233266 3.833356 3.6547518
1.663638 2.3719552 1.3053626 1.8144119 2.45647 2.116693 1.4934883 2.6590672
1.3379694 1.7617497 3.6519628 0.9639203 1.4389141 3.329106 4.629963 2.6303482
1.4679471 6.6196046 2.305303 2.989782 1.5958555 1.4297624 4.978481 1.3872591
5.533505 4.9394927 2.0054913 1.9896606 2.243309 2.390711 2.5399945 2.493601
3.9579473 3.284457 1.3177463 3.2096002 1.8481798 1.2265046 1.0238346 1.6044798
0.41124472 2.1638207 4.911315 0.9147113 2.011405 2.7346456 2.798736 1.4942807
5.2326965 1.8486696 1.5153565 1.8937193 6.711204 5.708503 3.3339252 1.302215
2.524692 1.4187939 2.7064881 1.251343 2.595089 1.4177763 4.610844 1.5906785
0.6138365 2.9525619 2.4529133 2.1799064 2.0190053 1.5101893 2.597749 1.7411776
0.8764448 6.9023175 0.73755467 2.1959126 2.033228 2.2485502 6.827977 3.672116
1.2228438 1.9775497 2.4802616 1.5869056 1.9611738 5.3310366 0.9092471 4.0837245
3.7207408 2.6763966 2.8031545 1.89352 1.2582061 2.0215812 3.8471928 2.3857589
2.3368254 0.34054342 1.0849124 6.085826 2.8155544 4.985484 3.1393762 1.03463

encoder.3.1.weight f4 [128]
00000000: c786 603f 38ff 643f 44b9 743f f398 373f
00000010: 0c0f 633f ecdc 763f e86f b03f c141 693f
00000020: aa6a 593f a817 6c3f ae2e 783f a343 333f
00000030: f14d 753f 4d3c b93f c5bc 6e3f c8f7 7b3f
00000040: 0643 5b3f 96ef 863f 8f20 613f 3fd9 6c3f
00000050: 56f7 633f e7fd 593f 4204 3a3f e8df 823f
00000060: 35c6 5c3f d561 383f ab1d 5b3f ac5e 403f
00000070: e7b1 4e3f 4d68 763f 6a0b 5b3f 5a19 563f
00000080: c0dc 3d3f 4129 733f 32b6 553f 8e8d 6b3f
00000090: 0d80 803f 1489 893f 051a 573f 0210 763f
000000a0: a6b3 643f c98a 663f e7e1 583f 5c30 813f
000000b0: d08c 7c3f 4bb8 7e3f 55f8 3c3f 9dee 893f
000000c0: 6377 4e3f 2723 1c3f 79dd 4a3f 81ca 5a3f
000000d0: df35 643f ec37 553f 927c 693f 8740 7e3f
000000e0: 8838 793f 16ab ba3f d2d5 703f 29a7 763f
000000f0: c18b 713f 2b25 8b3f f85d 5d3f e398 4a3f
00000100: 0b26 6b3f d01f 463f c36c 433f ee36 733f
00000110: 16e4 2e3f bc35 b33f c37e 483f db86 753f
00000120: 4db2 633f 1bd6 943f ef34 3a3f 6033 7a3f
00000130: 3cf3 863f 9cfc 6d3f 678b 883f 5f98 733f
00000140: 7f63 453f 34c9 543f 5991 3a3f b8e7 6e3f
00000150: 5f58 453f 054f 3d3f 1469 5d3f 09fb 5d3f
00000160: 2fc9 623f 1325 763f 1ad8 5e3f 55d6 883f
00000170: bc76 823f 39d5 6c3f 4766 683f 2812 7d3f
00000180: 050c 813f 2715 4a3f 79a2 723f fe51 813f
00000190: 5ad9 183f 5c6d 623f e8e4 653f 97c7 143f
000001a0: 8676 4f3f 8a22 3c3f 2137 523f b184 623f
000001b0: 3f4f 4b3f 4cf1 6f3f f400 6f3f 1d75 783f
000001c0: 0aa4 823f 3b0b 7a3f 9b5d 803f fba3 6d3f
000001d0: 08b8 5b3f 6cef 613f 9081 4d3f 688d 693f
000001e0: 45ce 1e3f b753 523f 16e6 4c3f fd8d 6a3f
000001f0: 4cfc 533f f658 6c3f 8d24 5a3f 31c4 553f
0.87705654 0.8945193 0.9559519 0.71717757 0.88694835 0.9643085 1.3784151 0.9111596
0.8492838 0.92223597 0.9694623 0.7002508 0.95822054 1.4471527 0.9325679 0.9842496
0.85649145 1.0541866 0.87940305 0.9251899 0.8904928 0.8515305 0.72662747 1.0224581
0.8623994 0.7202428 0.85592145 0.7514446 0.8074021 0.962529 0.8556429 0.83632433
0.7416496 0.94984823 0.83481133 0.9201287 1.0039078 1.0744958 0.8402408 0.96118176
0.8933662 0.9005552 0.847197 1.0092883 0.9865236 0.9949996 0.73816425 1.0775944
0.8065092 0.6099114 0.7924419 0.85465246 0.891447 0.83288455 0.91205704 0.9931721
0.97351885 1.4583461 0.94076264 0.96348816 0.9435387 1.0870718 0.8647151 0.79139537
0.91854924 0.7739229 0.7633783 0.9500569 0.6831678 1.4000773 0.78318423 0.959089
0.8894394 1.162784 0.7273702 0.9773464 1.0542979 0.92963576 1.0667542 0.95154375
0.77104944 0.8311951 0.7287803 0.93322325 0.7708797 0.739487 0.8648846 0.86711174
0.8858823 0.9615032 0.87048495 1.0690409 1.0192485 0.9251285 0.9078106 0.9885583
1.0081793 0.78938526 0.94779164 1.0103147 0.5970665 0.8844812 0.8980241 0.5811705
0.8104023 0.734902 0.8211537 0.8848372 0.79417795 0.93727565 0.9336083 0.970537
1.0206311 0.97673386 1.0028566 0.9282834 0.85827684 0.88255954 0.8027582 0.91231394
0.6203349 0.8215899 0.80038583 0.91622907 0.8280685 0.92323244 0.8521202 0.8350249

encoder.3.1.bias f4 [128]
00000000: fc68 19bf 9add d5be b9c5 4abd 971b a73d
00000010: 8f3f 59be 4bf4 cd3d 7876 f8bf c9cd 9cbd
00000020: 5bd5 02bf e875 56bf 35be 133c da83 303e
00000030: aba2 b4be ce42 07c0 1580 033e dd84 bfbf
00000040: 2b1f 043f e838 a6bf 1daf 88bc 4a11 c83c
00000050: 41ff 383d 8db0 71bc bc12 51bd 03cc 063e
00000060: 8226 ccbd 4ed8 1cbf e0c1 4c3e 9b58 483e
00000070: 322e 0fbe f52a f23e 7aff 20bd 07ba f7bd
00000080: 500f 42bf 9732 f73a 06ef 01bf d04a 57bd
00000090: 3d88 f4bd de60 a8bf 32b8 04bd 3d7b 08bd
000000a0: a8fb acbf 57b8 c3be 17f1 6bbe c7bf 2f3e
000000b0: c99f ec3c 9f90 b5bf 72c2 1b3d 4b23 bc3d
000000c0: ff69 87be a5b9 ab3e b69a 493e 71f7 27bf
000000d0: 154d d6be 61e8 f83d e064 63be 9fa0 36be
000000e0: 6d8e 213e 0f35 0ac0 ede5 94bd b098 263b
000000f0: 25c9 a53d c597 39bd 2e20 b5bf fd6e 84bf
00000100: 95e5 983c 7be0 97bb e2bb 24bf 8681 5abe
00000110: 1105 aa3e 77f4 fbbf eba5 b73d e697 15be
00000120: f822 e9bd b57c b03e 19e2 003f ffb1 843d
00000130: 9656 5bbe 1f62 573d 3ef3 bebf 5504 793d
00000140: 2f4e 87bf a698 cdbf ebc7 c53e 59f7 2ebe
00000150: c967 f43c 53b7 16be 7523 533e ee38 0c3e
00000160: 0ceb 13be 65e6 c83d f84e a7bc d5a5 b8bf
00000170: 296f 48bd 5295 37bf 879b c63d 52e2 2ebe
00000180: 294f 9f3d 101c babe 43be d1bd 885c 80bd
00000190: e94b 913e e8ca f93b 7f4f 1bbc dc8e 10bf
000001a0: d67d bb3e 5bc9 353f da22 d0be f992 293f
000001b0: db2b e4be 44a8 c7bd fb8b 9f3d c5bb a8bc
000001c0: 205e 2f3e 4921 363e a93b 44be 7f10 88be
000001d0: a796 bcbd 8c43 46bf 9cbb ebbe 24b7 73be
000001e0: 475d 1a3f 5780 a03d e187 23be 1216 ae3d
000001f0: b7ae 893d 0cbc bbbf 8184 8cbe 55cc b4bf
-0.5992582 -0.4177063 -0.04950497 0.08159559 -0.21215652 0.10056361 -1.9411154 -0.07656438
-0.51106805 -0.8377366 0.009017517 0.17237797 -0.35280356 -2.1134524 0.12841828 -1.4962422
0.5161006 -1.2986116 -0.016685063 0.024422307 0.045165304 -0.014751566 -0.051043257 0.13163762
-0.09968282 -0.61267555 0.19995832 0.1956505 -0.13982466 0.472984 -0.03930614 -0.12096029
-0.75804615 0.0018859681 -0.50755346 -0.05256158 -0.11940048 -1.3154562 -0.032402225 -0.033320654
-1.3514299 -0.38226578 -0.23041187 0.17163001 0.028884785 -1.418476 0.038027234 0.09186419
-0.26448056 0.33540073 0.19687924 -0.6561194 -0.41855684 0.12153698 -0.2220645 -0.1783471
0.15776987 -2.1594884 -0.07270417 0.0025420599 0.08095006 -0.045310754 -1.4150445 -1.0346371
0.01866416 -0.0046349145 -0.64349186 -0.21338472 0.3320699 -1.968398 0.08967193 -0.14608726
-0.11383623 0.34470144 0.50345 0.064792626 -0.21419749 0.05258381 -1.4917982 0.060795147
-1.0570735 -1.606221 0.38629088 -0.17086543 0.029834645 -0.1471837 0.20618995 0.13693592
-0.14445132 0.09809569 -0.020423397 -1.4425608 -0.048934136 -0.7171222 0.09697633 -0.17078522
0.077787705 -0.36349535 -0.10241368 -0.06267649 0.28378227 0.0076230653 -0.009479403 -0.56467986
0.36619443 0.7101037 -0.4065159 0.6623989 -0.4456471 -0.09748891 0.07790371 -0.020597348
0.1712575 0.17786135 -0.19163384 -0.26575086 -0.09208422 -0.7744682 -0.46041572 -0.23800331
0.6029858 0.07836979 -0.15969802 0.08500303 0.06722777 -1.4666762 -0.27444842 -1.4124857

encoder.3.1.running_mean f4 [128]
00000000: 466f e73e 461b 1a3e 2780 58bd e783 3abf
00000010: d020 aebf 7520 01bf e022 273f c1b6 9dbe
00000020: 5c02 433d ecd6 813f b584 7fbe 6293 51bf
00000030: 47a6 733f 9dc1 2d3f 69ef 13be efac 0c3f
00000040: d9fa 98bf 9c3a 083f af8e 84bf 71bc 553e
00000050: f06b 30bf 845a cebf e874 02bf 9d7c 603f
00000060: 01ed 4c3f 43eb a2be 56d6 f23e fd1a 97be
00000070: 45ee 693f deb0 86bf ae76 063f b6f9 0f3e
00000080: c168 02be 2b46 dabc 1e80 103f 6822 0a3e
00000090: cfea 983e 4079 093f c39a a53e 2e68 5abf
000000a0: 024b b03e 33ae 02bf c4c9 9ebf b3bc 543e
000000b0: cfce e5be a9e5 93be b7e5 153f 1302 f13d
000000c0: c631 8dbf 83e7 adbf 1025 8c3d f84c 8cbe
000000d0: 4a33 bbbf b516 00bf 13ff 32bf f888 8cbf
000000e0: 2f77 40be 1549 4f3f 0465 6bbf 81e3 dfbe
000000f0: c0c0 9bbf 4606 f0bc 6d10 9fbf 3bc1 7cbf
00000100: ddc1 003f ab32 4c3d e118 123f a123 04bf
00000110: 347d 19bf ca78 183f 6d7f 19bf 0e0a 403d
00000120: 404f 1bbe bb63 91bf 2e92 70bf 14f9 c63f
00000130: 80ca bbbe abb8 d8be 8dd2 993d d45a 1ebf
00000140: 4a4f abbc 41df 02be 861d 95bf 5fa2 3dbf
00000150: 221e b9bf edec bdbe a760 e9bf 27e5 68bf
00000160: f48d 9bbe 9464 3c3f 34ed 093e 658f 2f3f
00000170: a565 79be ec68 89bd af94 85bf 34f2 2dbf
00000180: c367 c5bf 5790 213f 530d 15bf f3b1 9bbe
00000190: 7e0f 1fbf 0cc2 123e 855d 76bf fcdb f33e
000001a0: fcf5 84bf 4785 c5be 3f14 2bbf ddb9 9f3b
000001b0: cf81 9c3d 6e08 c8be d7e7 04bf 407b 3fbe
000001c0: abff fbbe 29fc 74bc 5de6 48bf d50c e5be
000001d0: ad37 04bf 0ed5 65be ce4f 34bf 16e2 2a3d
000001e0: bb0c 24be cac5 4d3f 91e3 74bc 9679 31bf
000001f0: 27eb a6bf bf61 bb3e ed49 e0be e760 d8bd
0.45202082 0.15049466 -0.05285659 -0.72857517 -1.3603764 -0.5044015 0.6528759 -0.30803493
0.047609672 1.0143714 -0.24952967 -0.81865513 0.95175594 0.67873555 -0.14446796 0.54951376
-1.1951553 0.5321443 -1.0356044 0.20872666 -0.689147 -1.6121373 -0.50959635 0.87690145
0.8004914 -0.31820115 0.4742915 -0.29512778 0.91379195 -1.0522726 0.5252484 0.14060101
-0.12735273 -0.026644787 0.5644549 0.13489687 0.29866645 0.5370064 0.32344636 -0.85315216
0.34432226 -0.51047057 -1.2405324 0.20775108 -0.44884345 -0.28886154 0.5855364 0.11767974
-1.1030815 -1.3586277 0.068430066 -0.27402472 -1.4625027 -0.5003465 -0.6992046 -1.09793
-0.18795465 0.8097089 -0.9195101 -0.4372826 -1.2168198 -0.029299866 -1.2426888 -0.98732346
0.5029581 0.04985301 0.5706921 -0.51616865 -0.5995667 0.5955931 -0.5996006 0.04688459
-0.1516695 -1.135856 -0.9397305 1.5544763 -0.36677933 -0.4232839 0.075108625 -0.6185734
-0.020911831 -0.12780477 -1.1649635 -0.74075884 -1.4462321 -0.37094823 -1.8232621 -0.9097466
-0.3038174 0.7359097 0.13469392 0.6857818 -0.2435518 -0.067094654 -1.0436 -0.679477
-1.542229 0.6311087 -0.58223456 -0.30409202 -0.62133014 0.14331836 -0.9623645 0.47628772
-1.0387568 -0.38578245 -0.6682777 0.0048744516 0.076419465 -0.3906893 -0.5191626 -0.1869936
-0.49218497 -0.014952698 -0.78476506 -0.44736353 -0.51647455 -0.22444555 -0.7043427 0.04171952
-0.16020481 0.8037993 -0.014946834 -0.6932615 -1.3040513 0.36598012 -0.438064 -0.10565358

encoder.3.1.running_var f4 [128]
00000000: e792 ad3f 9f68 a13f 965f 7640 649d 8d3f
00000010: f934 7040 2a54 0740 35ac 453e 84b3 e73f
00000020: e8c9 863f d5a6 6a3f f581 3840 b369 dc3f
00000030: 0acb 3040 54df 4a3e c8e2 cf3f 3c8a ab3e
00000040: 3624 2d40 4541 803e 8ef3 3840 d5cd 8a40
00000050: 64b9 1540 143c 1b40 57c7 b03f 74b4 8940
00000060: e142 933f c26a d63f 652f f43f ceb0 7b3f
00000070: c0d1 ec3f becf 1140 f258 3740 923f 1440
00000080: e749 ee3e 24bf 9f40 96fb 1b40 d798 0040
00000090: 9fcf 0140 18bb 5b3e afa1 f63f c844 db40
000000a0: 4929 ee3e 3939 3040 b055 943f 1e9d 3a40
000000b0: 81e3 8340 86da bb3e a464 873f 77ac b340
000000c0: 2e37 f43f b63c ad3f a0d9 0a40 03ca ae3f
000000d0: f5ed ed3f af1f d83f 6491 f93f 69c8 3740
000000e0: 152a 4040 4295 613e fa2c c23f d70d 3f40
000000f0: 9a0b 5a40 286a 2540 aa3b bd3f 3fe6 083f
00000100: 6beb 0d40 f0f2 a93f 770e 9f3f 3428 1e40
00000110: 2178 953f 9775 503e b0b1 3540 61b7 3c40
00000120: aad8 d23f aa36 ae40 99bb a63f cb96 ce3f
00000130: 5560 5740 7ebf 4440 01a2 c53d 2f6d 0940
00000140: f8e8 a83e ac4a d63e f053 8d40 1dc4 4c40
00000150: 1963 e53f 4749 993f f1f7 3f40 cf2d b540
00000160: 1017 fd3f 12f2 aa40 f399 8a40 6bc0 4f3e
00000170: fa98 1040 56b6 5f3f 0299 a240 0e2e 0a40
00000180: 436d bf40 84e5 f43f 0ecf bd40 b51c aa40
00000190: ec4b a83f e97b 1840 c270 8f40 25f5 893f
000001a0: 6cc0 863f 2ecd ae3f cf1f 6e3f 9715 ca3f
000001b0: bf05 963f 6b02 ec3f 4c48 9640 118d 1840
000001c0: f71b 3840 a36d d540 36c9 8340 1b26 8540
000001d0: c446 c13f 1041 043f 79f5 d33f 3d74 9240
000001e0: 8545 bc3f 0e8e e23f 3733 993f cb92 0240
000001f0: b976 de3f c97d 863e 11ed df3f af75 d13e
1.3560456 1.2610053 3.849584 1.1063657 3.7532332 2.114512 0.19303973 1.8101659
1.0530367 0.91660815 2.882932 1.7219757 2.7623925 0.19811755 1.6241083 0.33503902
2.7053351 0.25049797 2.8898654 4.337626 2.3394403 2.4255419 1.3810834 4.303278
1.1504785 1.675133 1.9076964 0.9831666 1.8501511 2.2783046 2.8648038 2.31638
0.46540758 4.9920826 2.4372306 2.0093286 2.0282972 0.2145809 1.9268092 6.852146
0.46515873 2.7534926 1.158865 2.9158397 4.1215215 0.36690158 1.0577588 5.614803
1.907934 1.3534153 2.1695328 1.3655399 1.8588244 1.6884669 1.9497495 2.871607
3.0025685 0.22029594 1.5169976 2.9852197 3.406958 2.5846043 1.4783833 0.5347633
2.2174938 1.3277264 1.2426289 2.4712038 1.1677285 0.20357357 2.8389702 2.9486926
1.6472371 5.444173 1.3026 1.6139768 3.3652546 3.0741878 0.096500404 2.147289
0.3299024 0.41853845 4.4164963 3.1994698 1.7920867 1.1975487 2.9995081 5.661842
1.9772663 5.3420496 4.3312926 0.20288245 2.259337 0.873876 5.0811777 2.159061
5.9820876 1.9132543 5.931525 5.3160043 1.314817 2.3825629 4.4825144 1.0777937
1.0527472 1.3656366 0.93017286 1.5787839 1.1720504 1.8438238 4.6963253 2.38361
2.8767068 6.6696334 4.118312 4.1609015 1.5099721 0.5166178 1.6559287 4.5766892
1.4708716 1.7699602 1.1968755 2.0402095 1.7379981 0.2626784 1.7494222 0.40910098

encoder.4.1.weight f4 [8]
00000000: 5a0a 3e3f 0929 493f eb68 2d3f 0bc3 413f
00000010: 7907 523f 6672 fa3e 648d ed3e dc82 1b3f
0.74234545 0.7857824 0.6773822 0.75688237 0.8204265 0.48915404 0.46396935 0.6074655

encoder.4.1.bias f4 [8]
00000000: 2099 3c3f 4c45 4a3f 12da 813f de23 6b3f
00000010: 14bb 473f f94f ae3f 9617 ba3f 3cbe 8f3f
0.7367115 0.7901199 1.0144675 0.91851604 0.78019834 1.3618156 1.4538448 1.122993

encoder.4.1.running_mean f4 [8]
00000000: c565 f3be d9cb be3e fb4d 9f3e ba86 673e
00000010: 6dd8 0fbf 07a5 803f 61a0 23bf 043f 00bf
-0.47538581 0.37264898 0.31114182 0.22609988 -0.56189615 1.0050362 -0.63916594 -0.50096154

encoder.4.1.running_var f4 [8]
00000000: 94ce 6841 37fa 4141 e9a3 e140 01ba 2241
00000010: 7aaf 8541 3dc9 6540 3482 8240 de19 b340
14.550434 12.123588 7.0512586 10.170411 16.710682 3.5904076 4.078394 5.5969076
