onnx_models/ic_raw.onnx (onnx, 397411 bytes, 18 tensors)

features.1.conv_for_stride.weight f4 [32, 16, 3, 3]
-0.19936155 -0.12928641 -0.15873069 -0.19765376 -0.12518805 -0.2444392 -0.03249052 -0.037189264
-0.0425119 -0.09681669 -0.109274976 -0.044375483 -0.025807954 -0.012440589 0.034124553 0.24333258
0.12374356 0.0207207 0.035790864 0.029761335 0.1441393 -0.027546503 -0.0677251 0.0011317299
-0.077568665 -0.038526483 -0.10054777 -0.026300322 -0.009394849 0.10116618 0.061993107 0.102518365
0.10805861 -0.07548295 0.020531712 0.08431204 -0.18000631 -0.11885235 0.035181597 -0.1680679
-0.25375485 -0.19574776 -0.10632821 -0.10103374 -0.010198253 -0.18524931 -0.07465021 -0.18826626
0.039767332 0.13199876 0.09831251 0.050129704 0.14368547 0.20963709 0.11398114 0.015585343
0.0714798 0.046672028 -0.047580954 -0.048969015 0.050425302 0.045869227 0.0023573847 0.064513795
0.008133654 0.09958702 0.24466683 0.25252756 0.10811758 0.2697179 0.28944933 0.24480124
-0.1784435 -0.17517464 -0.11585752 -0.084773354 -0.12434029 -0.06511079 -0.057051092 -0.012231479
0.035839625 0.13025776 0.057921838 0.09433142 -0.13159671 -0.25985488 -0.17877448 -0.1603351
-0.22578456 -0.27716377 -0.3000775 -0.27809095 -0.28922823 -0.13591476 -0.28122926 -0.20373051
0.0050997026 0.046725355 0.080486074 -0.063124225 -0.1908687 -0.1372036 0.006983211 0.04246104
-0.05728615 0.107579775 0.19238526 0.050487302 -0.07405096 -0.09129495 -0.09733395 -0.07374025
-0.12936243 -0.073539525 0.10872373 -0.1028873 -0.039288845 -0.10912204 -0.18755774 -0.120312944
-0.0011839675 0.03950251 0.13723235 0.09165252 0.18192501 0.119454734 -0.17022085 -0.3012421
-0.16836749 -0.11054499 -0.12637742 -0.12774119 0.038967967 0.04826786 -0.0025228902 -0.0526147
-0.014627661 0.17707121 -0.029360441 -0.10954862 -0.0456661 -0.10904632 -0.062211677 -0.12563798
-0.09537597 0.037311286 0.096088395 -0.1279251 -2.6533571e-05 0.042365644 -0.15492278 -0.09807583
0.04385454 -0.056621637 0.0824126 0.14107859 0.027019676 0.069565386 0.14927521 -0.051701535
0.0016486481 0.08256055 0.022583608 0.01524358 0.054882932 0.037682142 -0.04364384 -0.036850214
-0.008105164 -0.13199909 -0.14791259 0.0804334 0.07506109 -0.0014555344 -0.04072726 -0.0326785
-0.2005849 0.04376841 0.06898402 -0.005539413 -0.050520655 -0.038812447 -0.13934009 -0.18988153
-0.05172245 -0.18491092 -0.16137663 -0.055044413 -0.24933544 0.08378968 0.12353933 0.20921543
0.05186441 -0.14195167 -0.02037501 -0.044158004 -0.16692425 -0.104557686 0.13904287 0.034557983
0.08193184 0.07575361 0.0059022396 0.09609694 -0.03789795 -0.098133765 -0.011766476 -0.08056154
0.078628704 0.1970809 -0.0022852714 0.17114834 0.1877237 -0.05964709 0.027805772 0.017025694
0.051338892 0.10530164 0.11908939 0.18468854 0.15678366 0.08454023 0.08923889 0.12466377
0.0326791 0.12604666 -0.053499773 -0.03048496 0.017604752 -0.14144616 -0.11394188 0.096279465
-0.028073097 -0.084455445 0.09775556 0.10790456 0.15036778 0.111821026 0.06214177 0.02631139
0.120373785 0.042211577 -0.01580273 0.02422616 0.07866567 0.08978164 -0.049826764 -0.031161128
0.0032553854 -0.12870656 -0.11113519 -0.15990503 -0.09739768 -0.07176601 -0.03111323 -0.14568338
00000000: 6f25 4cbe a863 04be 4c8a 22be bf65 4abe
00000010: 4c31 00be 454e 7abe c814 05bd c553 18bd
00000020: f520 2ebd d447 c6bd 8fcb dfbd 11c3 35bd
00000030: 346b d3bc 9dd3 4bbc 30c6 0b3d 2d2c 793e
00000040: 436d fd3d 75be a93c 7199 123d 0bce f33c
00000050: 4199 133e 34a9 e1bc 75b3 8abd 8e56 943a
00000060: 52dc 9ebd f2cd 1dbd fdeb cdbd c673 d7bc
00000070: daec 19bc 3730 cf3d 7cec 7d3d 26f5 d13d
00000080: d54d dd3d ce96 9abd 1f32 a83c caab ac3d
00000090: 9353 38be dc68 f3bd 941a 103d fe19 2cbe
000000a0: 28ec 81be 1a72 48be 9bc2 d9bd c7ea cebd
000000b0: 9316 27bc ffb1 3dbe 36e2 98bd dfc8 40be
000000c0: 12e3 223d af2a 073e 1258 c93d ce54 4d3d
000000d0: 4922 133e 1bab 563e f26e e93d ab59 7f3c
000000e0: 0064 923d 2b2b 3f3d 3fe4 42bd bc93 48bd
000000f0: c38a 4e3d 5fe1 3b3d 5a7e 1a3b cf1f 843d
00000100: 0443 053c 48f4 cb3d f189 7a3e 4b4b 813e
00000110: c06c dd3d 7718 8a3e b432 943e 2dad 7a3e
00000120: e5b9 36be fb60 33be b546 edbd a79d adbd
00000130: 1fa6 febd ce58 85bd 68ae 69bd 8b66 48bc
00000140: 92cc 123d 4a62 053e 733f 6d3d d530 c13d
00000150: 4ac1 06be b30b 85be a810 37be e22e 24be
00000160: 1134 67be 69e8 8dbe c2a3 99be f061 8ebe
00000170: b915 94be 3d2d 0bbe 48fd 8fbe bb9e 50be
00000180: 681b a73b 1663 3f3d e2d5 a43d 4647 81bd
00000190: 1673 43be 1a7f 0cbe 6bd3 e43b a1eb 2d3d
000001a0: e2a4 6abd c952 dc3d a400 453e c6cb 4e3d
000001b0: 08a8 97bd d9f8 babd 0657 c7bd 2105 97bd
000001c0: 9677 04be e49b 96bd 8caa de3d 94b6 d2bd
000001d0: 57ed 20bd 607b dfbd 230f 40be a266 f6bd
000001e0: 5b2f 9bba 62cd 213d a386 0c3e 51b4 bb3d
000001f0: 8d4a 3a3e afa4 f43d 604e 2ebe 683c 9abe
00000200: 8768 2cbe 6965 e2bd 1569 01be 96ce 02be
00000210: e09c 1f3d 85b4 453d 1357 25bb 8382 57bd
00000220: dba8 6fbc 2852 353e 4f85 f0bc 075b e0bd
00000230: 600c 3bbd ad53 dfbd acd1 7ebd 3ea7 00be
00000240: 7a54 c3bd b8d3 183d fec9 c43d ccfe 02be
00000250: 6994 deb7 9987 2d3d 14a4 1ebe fbdb c8bd
00000260: d1a0 333d 17ec 67bd f0c7 a83d e876 103e
00000270: 5e58 dd3c 4c78 8e3d 9adb 183e fdc4 53bd
00000280: 7317 d83a 8115 a93d 4201 b93c 35c0 793c
00000290: edcc 603d 9758 1a3d e2c3 32bd 40f0 16bd
000002a0: 86cb 04bc c52a 07be 6676 17be 44ba a43d
000002b0: a1b9 993d a1c7 beba a1d1 26bd e4d9 05bd
000002c0: 2166 4dbe 8146 333d 7e47 8d3d f783 b5bb
000002d0: bfee 4ebd cdf9 1ebd 2baf 0ebe 4e70 42be
000002e0: ebda 53bd 4a59 3dbe ea3f 25be 4076 61bd
000002f0: ca51 7fbe ec99 ab3d 3002 fd3d 923c 563e
00000300: c76f 543d c75b 11be 7ee9 a6bc 06df 34bd
00000310: 31ee 2abe 5722 d6bd 4161 0e3e ac8c 0d3d
00000320: e1cb a73d b524 9b3d 9367 c13b 79ce c43d
00000330: e13a 1bbd 5bfa c8bd 2dc8 40bc 73fd a4bd
00000340: 1608 a13d 93cf 493e 7ec4 15bb 8341 2f3e
00000350: a43a 403e 8250 74bd eec8 e33c 7879 8b3c
00000360: bb48 523d 63a8 d73d 23e5 f33d fe1e 3d3e
00000370: e58b 203e 6e23 ad3d e1c2 b63d b84f ff3d
00000380: 85da 053d 6012 013e 9422 5bbd 98bb f9bc
00000390: d737 903c 43d7 10be 5c5a e9bd 2b2e c53d
000003a0: 8df9 e5bc faf6 acbd 1134 c83d 11fd dc3d
000003b0: 03fa 193e 6c02 e53d 5e88 7e3d fc8a d73c
000003c0: 8886 f63d 0ce6 2c3d ba74 81bc f175 c63c
000003d0: 771b a13d 70df b73d 2617 4cbd 9f45 ffbc
000003e0: 4e58 553b a7cb 03be d99a e3bd 25be 23be
000003f0: 6f78 c7bd 0ffa 92bd 2ce1 febc 062e 15be

features.2.conv_for_stride.weight f4 [64, 32, 3, 3]
-0.03837093 -0.017644329 0.08809123 -0.02068833 0.011042755 -0.02243519 0.058931936 0.124651626
0.00943921 0.0770434 0.058182523 -0.034607902 0.004439954 0.093541704 -0.13262887 0.07443143
0.10726432 -0.103911765 -0.18714851 -0.19607921 -0.07701262 -0.27889976 -0.28359342 -0.1141408
-0.06334829 -0.10822093 0.020442117 0.24380495 0.28619942 0.1601031 0.14654906 0.12903902
0.10027215 0.1965371 0.17872989 0.107983805 -0.121086515 0.003074449 0.011098258 -0.074009955
-0.06950816 0.017941108 -0.0059892284 0.019151034 0.078759804 -0.07337141 -0.20560114 -0.15614769
-0.16249478 -0.2913794 -0.19601622 -0.038827598 -0.24160898 -0.15717189 0.13661397 0.13894172
0.21739504 0.16780402 0.16100444 0.13752733 -0.07489737 -0.15367554 -0.075771876 0.08955972
0.24070068 0.10977382 0.161678 0.23666841 0.16316931 0.1566479 0.20516661 0.1749293
0.1079434 0.03068108 0.07624551 0.027300727 -0.054387324 -0.047427002 0.007940829 -0.07767612
-0.063765526 -0.07296666 -0.20783299 -0.20469391 -0.1836733 -0.33706862 -0.27996013 -0.09175166
-0.1623026 -0.08243175 -0.023196176 0.0625739 0.10440415 -0.03579965 0.064781636 0.073483184
-0.0040502474 0.0744072 0.10507931 0.21564634 0.17819038 0.17994565 0.03897207 0.033243604
0.028975762 0.007068247 0.034656685 0.015972786 -0.018340973 -0.111835666 0.054020934 0.026804324
-0.22791505 -0.12866978 0.034589183 -0.041995656 0.02622986 0.21287334 0.06580811 -0.089098625
0.23145995 0.08416142 -0.10474855 0.13289504 0.13380858 -0.07195041 -0.08151413 -0.19922476
-0.07091321 -0.076636925 -0.2725633 -0.16245812 0.0140487775 -0.14756396 -0.09479665 -0.04555803
0.027408069 -0.028783439 0.055112153 0.089288704 0.0033750143 0.12972452 0.12819113 0.058440655
-0.16503365 -0.12123857 -0.086004086 -0.18717627 -0.21735364 -0.059079207 -0.10515221 -0.14834867
-0.07202377 0.026364623 -0.01566297 -0.01700034 -0.12011398 -0.19801815 -0.14997005 -0.09768078
-0.2745485 -0.19627126 -0.04413857 -0.14548844 -0.27569768 0.062356755 0.039641123 -0.05693944
0.095867 0.10212841 -0.054105926 0.071400374 -0.07092343 -0.105966166 0.03010197 -0.1750188
-0.23577404 -0.070734605 -0.23903152 -0.16967645 0.22067843 0.08382305 0.103557914 0.100795954
0.060601275 0.036301605 0.23163748 0.2460582 0.19507809 0.06092216 -0.04605735 -0.11447247
-0.026110329 -0.1859069 -0.1743472 -0.12001382 -0.14007217 -0.1719636 -0.0046155145 -0.15552625
-0.15179667 -0.03435572 -0.21380132 -0.25548285 -0.18338959 -0.23729558 -0.31832927 -0.030893693
0.016514037 0.03535985 -0.05201655 0.015883563 0.05734211 -0.09480486 -0.10932605 -0.07076231
-0.082052834 -0.06649433 -0.13660935 -0.113211155 -0.05630589 -0.055914477 -0.011851854 -0.10581917
-0.08919698 0.16885224 -0.13645826 0.010454357 0.16871153 -0.19897704 -0.038658217 0.055921372
-0.27411518 -0.20660919 0.05304133 0.028052827 0.052109655 -0.012117982 -0.02095707 -0.020631332
0.12437724 0.089498304 0.068012096 0.33094984 0.29097807 0.19986935 0.22193882 0.15572193
0.06997256 0.0790329 0.07148429 0.0911454 0.0026166372 -0.023894284 0.05562368 -0.1108486
00000000: d62a 1dbd d78a 90bc 2d69 b43d 937a a9bc
00000010: acec 343c 01ca b7bc 9d62 713d 5a49 ff3d
00000020: eba6 1a3c eec8 9d3d cc50 6e3d 04c1 0dbd
00000030: 097d 913b cb92 bf3d ddcf 07be 816f 983d
00000040: 65ad db3d b1cf d4bd dca3 3fbe fdc8 48be
00000050: cbb8 9dbd f3cb 8ebe 2833 91be a7c2 e9bd
00000060: c0bc 81bd efa2 ddbd 3a76 a73c 01a8 793e
00000070: bb88 923e 11f2 233e f510 163e ce22 043e
00000080: 7c5b cd3d 0641 493e f804 373e 9d26 dd3d
00000090: 35fc f7bd b27c 493b 78d5 353c 8892 97bd
000000a0: 4b5a 8ebd 3bf9 923c 4a41 c4bb a1e2 9c3c
000000b0: d24c a13d c043 96bd 1b89 52be 2ee5 1fbe
000000c0: 0865 26be ae2f 95be 7ab8 48be b009 1fbd
000000d0: 5868 77be abf1 20be 88e4 0b3e bd46 0e3e
000000e0: ce9c 5e3e d1d4 2b3e 59de 243e f7d3 0c3e
000000f0: cb63 99bd 1f5d 1dbe 492e 9bbd 166b b73d
00000100: 3d7a 763e 19d1 e03d eb8e 253e 3459 723e
00000110: db15 273e 4f68 203e 3217 523e ab20 333e
00000120: 6e11 dd3d e356 fb3c 9b26 9c3d c6a5 df3c
00000130: 3ec5 5ebd d142 42bd 401a 023c a814 9fbd
00000140: 8097 82bd 8b6f 95bd 2cd2 54be 489b 51be
00000150: db14 3cbe 4294 acbe ef56 8fbe 4be8 bbbd
00000160: a732 26be fad1 a8bd e805 bebc bf26 803d
00000170: d8d1 d53d a7a2 12bd 3cac 843d 5a7e 963d
00000180: f0b7 84bb cd62 983d d233 d73d 65d2 5c3e
00000190: 8a77 363e ac43 383e 2da1 1f3d 722a 083d
000001a0: 945e ed3c c19c e73b 2bf4 0d3d 5cd9 823c
000001b0: cf3f 96bc 190a e5bd 0e45 5d3d be94 db3c
000001c0: 9062 69be 03c2 03be 63ad 0d3d a303 2cbd
000001d0: 01e0 d63c 78fb 593e 67c6 863d 5779 b6bd
000001e0: d603 6d3e d35c ac3d 6886 d6bd a315 083e
000001f0: 1e05 093e bd5a 93bd e1f0 a6bd 9301 4cbe
00000200: f23a 91bd d2f3 9cbd 6b8d 8bbe 6c5b 26be
00000210: d82c 663c 021b 17be bf24 c2bd 0f9b 3abd
00000220: e386 e03c 3fcb ebbc 48bd 613d ffdc b63d
00000230: 582f 5d3b 81d6 043e 8944 033e 785f 6f3d
00000240: 95fe 28be ed4b f8bd e922 b0bd 23ab 3fbe
00000250: f491 5ebe 0afd 71bd 0b5a d7bd b7e8 17be
00000260: 3381 93bd 9ffa d73c a14f 80bc 4c44 8bbc
00000270: 51fe f5bd 45c5 4abe c091 19be dc0c c8bd
00000280: 9f91 8cbe 55fb 48be a5ca 34bd ecfa 14be
00000290: 3f28 8dbe cc69 7f3d bb5e 223d 5539 69bd
000002a0: eb55 c43d b328 d13d 2d9e 5dbd 5c3a 923d
000002b0: 4e40 91bd ca04 d9bd 6898 f63c 2138 33be
000002c0: c06e 71be 4edd 90bd aec4 74be aabf 2dbe
000002d0: 87f9 613e 6bab ab3d 2c16 d43d 1c6e ce3d
000002e0: 0b39 783d feb0 143d 6032 6d3e aef6 7b3e
000002f0: 8dc2 473e 8489 793d a2a6 3cbd 8b70 eabd
00000300: 54e5 d5bc 615e 3ebe 1388 32be cec9 f5bd
00000310: 146f 0fbe 3a17 30be be3d 97bb 4642 1fbe
00000320: 9670 1bbe 95b8 0cbd bcee 5abe a6ce 82be
00000330: 7bca 3bbe 9dfd 72be 0efc a2be c514 fdbc
00000340: 7248 873c 7dd5 103d 4e0f 55bd 3f1e 823c
00000350: 8fdf 6a3d 0d29 c2bd 56e6 dfbd d4eb 90bd
00000360: 510b a8bd 2e2e 88bd 52e3 0bbe 40db e7bd
00000370: 01a1 66bd 9406 65bd 472e 42bc b9b7 d8bd
00000380: e8ac b6bd 9ae7 2c3e b7bb 0bbe c048 2b3c
00000390: b7c2 2c3e a3c0 4bbe 1458 1ebd cf0d 653d
000003a0: d358 8cbe 5c91 53be de41 593d 0bcf e53c
000003b0: ef70 553d 808a 46bc 29ae abbc 0a03 a9bc
000003c0: 7fb9 fe3d e34a b73d ed49 8b3d 4272 a93e
000003d0: 14fb 943e 8daa 4c3e ee43 633e 9275 1f3e
000003e0: c64d 8f3d 00dc a13d 5b66 923d 71aa ba3d
000003f0: e37b 2b3b f2bd c3bc a8d5 633d 9704 e3bd

classifier.weight f4 [10, 64]
0.66121554 0.09849069 -0.5497367 0.44292787 -0.24659824 -0.05275031 -0.5207042 -0.67242426
-0.170778 -0.9716107 0.63417715 -0.6621046 -0.94790244 -0.38138887 1.2126986 -0.28987437
-0.70454675 -0.6151829 1.8432661 0.3679754 -0.005544172 1.5997425 0.8922478 0.5430021
-0.5028079 0.7772913 -0.78292453 -0.19992384 -0.12098729 -0.5223323 0.94686717 -0.4332373
1.1154995 -0.6074095 -0.8230968 -0.92561716 1.1463978 -0.38846493 0.31880063 -1.2425582
1.2562803 -1.0962732 -1.212128 -0.9333506 0.26939747 0.20477682 0.015616182 -1.2203784
-0.007899755 -1.2010396 -0.50033915 -0.030402403 -0.07678145 -0.72589034 -0.7633867 2.4337726
0.5908044 0.19681825 -0.71891886 -0.556296 0.012809942 0.3830065 -0.83497435 0.59555227
-0.77433956 1.1101589 -0.9384586 0.16076195 0.36754262 -0.43754828 -0.3984853 -0.93312097
0.05902135 -0.17011796 -0.54095656 -0.1747108 2.1482744 -0.8849636 -0.53945553 0.30194062
-0.98380345 -0.29254177 -1.1243322 1.4476783 1.759794 0.9901697 -0.06263241 -0.24261297
-0.113365486 0.77799606 0.36494 1.3811647 -0.6984871 -0.71800387 -0.47381374 -0.100791395
-0.6389974 1.2313715 0.34504047 -0.34548038 0.52430487 0.015069184 -0.40353045 0.049007498
-0.36380112 -1.1602979 0.3353577 0.5477944 0.48203817 -0.69471794 -0.5157867 0.5368124
0.9917896 -1.1522981 -1.2174091 -0.28844452 -0.05546709 1.6085278 2.0430484 -0.90626514
-0.02709439 -0.34760693 -0.3660386 1.5724357 -0.73624635 -0.8499706 -0.5732879 -0.7147196
-0.3667891 -0.84254944 0.03949178 0.0068224184 -0.48560986 0.58851993 -1.1471341 2.6889567
-1.4682031 0.5514912 2.6928933 0.21940859 0.79457647 -0.5689661 2.43021 -0.99931604
0.34445712 -0.87881297 -1.2391216 -1.2535352 0.8166008 -0.5760672 1.2253423 -0.3759205
-0.5851793 0.77692187 -0.04666587 0.4149897 1.0232894 1.0632172 -0.35020125 -0.54096466
0.30026427 -0.42986915 2.2737947 -0.24897175 -0.8152915 -0.7946852 -0.5417221 0.9093405
0.008278185 -0.7619787 -0.7426131 -0.75731254 -0.04613593 0.6168188 1.084546 -1.2421188
-0.40834147 0.19163762 -0.07905601 0.3580482 -0.15580401 -0.619314 -1.0533503 0.30804247
-0.19356973 -1.0062783 2.142472 -0.72703886 1.2831178 0.9747309 0.55562025 0.09930008
1.6913682 -0.29400477 -0.32787454 -0.32327777 -0.4452664 -0.82108986 -0.5266984 -0.26835138
0.25933754 -0.84073824 -0.6935667 -0.788244 -0.15169272 0.05304268 -0.6623823 0.3472221
0.48369515 -0.17504525 0.2843851 0.27291262 0.49810353 -0.93185145 -0.21337828 0.22586496
-0.3909779 0.48726583 -0.41720742 0.14220312 0.4134194 -0.4258446 0.6529184 1.131229
-0.19208539 -0.9771322 -0.82214 -0.014253788 -0.47936878 2.945868 1.3076189 0.6691655
-0.7598079 0.6101962 0.5010776 0.15950191 0.19985987 0.19527617 -0.38143346 -0.31495738
0.69582796 0.96103036 -0.43299738 -0.4052569 -1.1670406 -0.75543094 -0.28621286 0.022854254
-0.8654037 0.62784445 1.1291332 -0.7818099 -0.13445137 1.4159344 2.5230088 -0.81045264
00000000: 6c45 293f 7db5 c93d 8bbb 0cbf 71c7 e23e
00000010: 4084 7cbe b610 58bd df4c 05bf ff23 2cbf
00000020: 6ee0 2ebe 7bbb 78bf 6f59 223f b07f 29bf
00000030: bca9 72bf 6745 c3be b539 9b3f 6a6a 94be
00000040: 2d5d 34bf a07c 1dbf 25f0 eb3f 4667 bc3e
00000050: e3ab b5bb 5dc4 cc3f 5a6a 643f 3002 0b3f
00000060: 05b8 00bf 90fc 463f be6d 48bf d6b8 4cbe
00000070: 2fc8 f7bd 92b7 05bf e365 723f 48d1 ddbe
00000080: b0c8 8e3f 307f 1bbf 79b6 52bf 3ff5 6cbf
00000090: 2abd 923f e0e4 c6be d639 a33e 260c 9fbf
000000a0: cbcd a03f ae52 8cbf 0327 9bbf 11f0 6ebf
000000b0: 77ee 893e 04b1 513e 04db 7f3c 5c35 9cbf
000000c0: f96d 01bc aabb 99bf 3a16 00bf 760e f9bc
000000d0: 983f 9dbd f3d3 39bf 506d 43bf eec2 1b40
000000e0: f53e 173f b98a 493e 110b 38bf 6a69 0ebf
000000f0: cae0 513c 6e19 c43e e1c0 55bf 1d76 183f
00000100: 1e3b 46bf b019 8e3f d33e 70bf c89e 243e
00000110: 8c2e bc3e 5406 e0be 4406 ccbe 04e1 6ebf
00000120: 5fc0 713d 6733 2ebe 217c 0abf 63e7 32be
00000130: 547d 0940 f98c 62bf c219 0abf f697 9a3e
00000140: 8bda 7bbf 09c8 95be 1eea 8fbf 864d b93f
00000150: ee40 e13f c37b 7d3f 6c45 80bd 896f 78be
00000160: 2a2c e8bd c02a 473f 6ad9 ba3e 01ca b03f
00000170: 0dd0 32bf 1acf 37bf b797 f2be b86b cebd
00000180: 5595 23bf 959d 9d3f 25a9 b03e cee2 b0be
00000190: d838 063f bde4 763c 8b9b cebe 16bc 483d
000001a0: 2444 babe a484 94bf 01b4 ab3e 413c 0c3f
000001b0: b5cd f63e 09d9 31bf 990a 04bf 8a6c 093f
000001c0: ece5 7d3f 817e 93bf 10d4 9bbf 00af 93be
000001d0: 7631 63bd 3de4 cd3f 4ec1 0240 fe00 68bf
000001e0: 0ef5 ddbc 89f9 b1be 6969 bbbe 9345 c93f
000001f0: a47a 3cbf ac97 59bf ffc2 12bf ddf7 36bf
00000200: c8cb bbbe 52b1 57bf 22c2 213d 988e df3b
00000210: dba1 f8be 3ea9 163f 4ad5 92bf de17 2c40
00000220: 14ee bbbf 872e 0d3f 5d58 2c40 a5ac 603e
00000230: 5d69 4b3f c3a7 11bf 9088 1b40 2dd3 7fbf
00000240: af5c b03e e3f9 60bf 899b 9ebf d773 a0bf
00000250: c00c 513f 2479 13bf 04d8 9c3f a778 c0be
00000260: 50ce 15bf 5ae4 463f b624 3fbd 8879 d43e
00000270: 26fb 823f 8017 883f 944d b3be a97c 0abf
00000280: 3dbc 993e cf17 dcbe da85 1140 73f2 7ebe
00000290: f2b6 50bf 7d70 4bbf 4dae 0abf 8aca 683f
000002a0: 39a1 073c 0911 43bf e41b 3ebf 3cdf 41bf
000002b0: 07f9 3cbd d6e7 1d3f 67d2 8a3f c0fd 9ebf
000002c0: 2212 d1be a73c 443e 1ee8 a1bd 1852 b73e
000002d0: 168b 1fbe 5d8b 1ebf 2fd4 86bf beb7 9d3e
000002e0: 2537 46be bacd 80bf 431e 0940 381f 3abf
000002f0: 343d a43f f787 793f 213d 0e3f d75d cb3d
00000300: c17e d83f cb87 96be 2cdf a7be aa84 a5be
00000310: f5f9 e3be f232 52bf b5d5 06bf 5a65 89be
00000320: e4c7 843e 9f3a 57bf 968d 31bf 5cca 49bf
00000330: 5655 1bbe 4843 593d e391 29bf 18c7 b13e
00000340: e4a6 f73e 103f 33be ec9a 913e 34bb 8b3e
00000350: 6d07 ff3e d18d 6ebf d67f 5abe 2549 673e
00000360: 412e c8be e87a f93e 369c d5be b29d 113e
00000370: b5ab d33e 4e08 dabe a925 273f 1dcc 903f
00000380: 08b2 44be 5625 7abf c477 52bf b888 69bc
00000390: d36f f5be 1a89 3c40 0e60 a73f 6e4e 2b3f
000003a0: c582 42bf d135 1c3f 9f46 003f 7854 233e
000003b0: 11a8 4c3e 7af6 473e 3f4b c3be 1842 a1be
000003c0: c821 323f 1606 763f d5b1 ddbe d57d cfbe
000003d0: 9661 95bf ec63 41bf 7e8a 92be d838 bb3c
000003e0: 198b 5dbf 6aba 203f 7087 903f b224 48bf
000003f0: 9fad 09be 573d b53f fa78 2140 d379 4fbf

classifier.bias f4 [10]
0.64820814 -0.98354715 0.22756796 0.6078771 0.30283973 -0.07040467 0.28658637 -0.68983513
-0.116631866 -0.2196453
00000000: f8f0 253f bfc9 7bbf 9307 693e d59d 1b3f
00000010: cf0d 9b3e 5330 90bd 73bb 923e 0999 30bf
00000020: b0dc eebd b3ea 60be

onnx::Conv_78 f4 [16, 3, 3, 3]
-0.02417448 -0.031428244 -0.08230943 0.012290357 0.041223705 -0.017907228 0.035834245 0.065501064
0.029409774 -0.10306401 -0.07846101 -0.11943966 -0.04535682 0.019827511 -0.03538811 -0.0466108
-0.00069064915 -0.034809843 -0.0076961205 0.013293426 -0.03618988 0.09783684 0.16031978 0.105160266
0.02803222 0.051738113 0.0383253 -0.3216416 0.06930274 0.01633976 -0.14155257 0.23076534
-0.02732265 0.0514773 0.09888157 -0.14283676 -0.26666233 0.08219613 -0.06832226 -0.06191289
0.2065459 -0.086801216 0.12639374 0.12906073 -0.1299019 -0.3060151 0.08923839 -0.012127042
-0.14981812 0.1515982 -0.10465833 0.011922101 0.020922491 -0.120186664 0.045436747 -0.011767304
-0.08282743 0.053296555 -0.04532806 -0.013317287 -0.015923113 -0.10827879 -0.022486499 0.07575499
0.059919566 0.025658427 0.06727255 0.021307383 0.08254587 0.042208012 -0.045819692 0.059960138
0.0123393005 0.040193778 0.024837025 0.052678935 0.020465206 0.09114372 0.015531208 -0.042059336
0.048391465 0.3530171 0.29028645 -0.12619388 0.3356275 -0.14645557 -0.32516336 0.111173294
-0.18283486 -0.28634244 -0.035491437 -0.018078957 -0.017937673 -0.053862177 -0.29821602 -0.028763637
0.17774947 0.07241354 0.152622 -0.27849174 -0.021874446 0.10500451 -0.3693324 -0.2164669
0.22039221 -0.0442141 0.1515444 0.35461003 0.06380596 0.049993888 0.06738811 0.08313844
-0.0032374205 -0.004281539 -0.01734414 -0.13532566 -0.07477032 0.060822915 0.058178056 0.06810403
0.095952354 -0.009213967 -0.030793875 -0.011801179 -0.15367334 -0.12176733 0.023297053 0.07215292
0.105494395 0.077361025 0.009614093 -0.009551164 -0.0107559785 -0.16115052 -0.12123563 0.044500977
-0.10346985 0.10883671 0.035355713 -0.19755818 0.040790714 0.17051958 -0.073853604 -0.10183648
0.0074549746 -0.12008173 0.056483295 -0.008742486 -0.15813455 0.056817606 0.08554127 -0.07661931
-0.069733165 0.020182477 -0.086421564 0.053482525 -0.053809736 -0.12709264 0.06683835 0.0055464474
-0.056092586 -0.027017564 -0.06898209 -0.1578327 -0.11860388 -0.06875359 -0.14486036 -0.11896955
-0.06908617 -0.14518316 0.015698811 0.049645368 0.26751006 0.06971972 0.25729713 0.5029272
0.19068332 0.06434497 0.15414858 0.012505458 -0.13464458 -0.17187041 -0.045682143 -0.022535829
-0.054733578 0.03929252 -0.07736756 -0.17310318 -0.021991273 -0.055000108 -0.07224628 -0.016565748
-0.05229832 -0.08417918 -0.012229685 0.07631717 0.11628227 0.09470652 -0.011214748 -0.03420584
-0.01829258 -0.03262745 -0.06963212 -0.03739265 0.056191273 0.08350942 0.05604599 -0.022166079
-0.019568795 -0.004306752 -0.05195564 -0.06172646 -0.02709844 0.03472227 0.07265952 0.069348626
0.10483005 0.20140381 0.08837515 0.012603544 0.11286108 -0.013335796 -0.023660803 0.04300265
-0.06556089 -0.02946859 -0.03327715 -0.02273853 -0.09081046 -0.05754602 -0.054864734 -0.016865075
0.08164733 0.05439059 0.002270034 -0.016193023 -0.030950097 -0.047186293 -0.03288415 -0.0808172
0.035398018 0.09597335 -0.013187065 0.014443168 -0.046447266 -0.02626277 -0.082047775 -0.16118193
-0.1450997 -0.013041308 -0.08856837 -0.06336184 0.06731196 0.09507945 0.048937663 -0.005089183
00000000: 8f09 c6bc e7ba 00bd d991 a8bd 7e5d 493c
00000010: 30da 283d 2eb2 92bc eec6 123d 6c25 863d
00000020: c4ec f03c 3913 d3bd 2ab0 a0bd c89c f4bd
00000030: 13c8 39bd 4e6d a23c 1ff3 10bd f7ea 3ebd
00000040: ae0c 35ba c494 0ebd bd2f fcbb abcc 593c
00000050: d73b 14bd ae5e c83d de2a 243e 445e d73d
00000060: d4a3 e53c 58eb 533d fdfa 1c3d 35ae a4be
00000070: 98ee 8d3d f6da 853c 28f3 10be c04d 6c3e
00000080: c0d3 dfbc dcd9 523d 6c82 ca3d cd43 12be
00000090: f787 88be 7256 a83d 8bec 8bbd 5f98 7dbd
000000a0: c580 533e d6c4 b1bd 5c6d 013e 7f28 043e
000000b0: 0105 05be 03ae 9cbe 9ec2 b63d 80b0 46bc
000000c0: ec69 19be 8f3c 1b3e 1b57 d6bd ea54 433c
000000d0: a565 ab3c 6d24 f6bd e21b 3a3d a6cb 40bc
000000e0: 6da1 a9bd 7d4d 5a3d eaa9 39bd c030 5abc
000000f0: 3071 82bc 45c1 ddbd 9b35 b8bc 6f25 9b3d
00000100: 386e 753d 9f31 d23c 31c6 893d d28c ae3c
00000110: cf0d a93d 4fe2 2c3d 6ead 3bbd c398 753d
00000120: c72a 4a3c 3ba2 243d 0477 cb3c dec5 573d
00000130: a6a6 a73c 8fa9 ba3d 9c76 7e3c 6946 2cbd
00000140: 2136 463d a8be b43e 6da0 943e f838 01be
00000150: 5ed7 ab3e 73f8 15be d07b a6be d3ae e33d
00000160: 1039 3bbe 7a9b 92be 785f 11bd 521a 94bc
00000170: 07f2 92bc 969e 5cbd c5af 98be b8a1 ebbc
00000180: f503 363e 8d4d 943d f148 1c3e 7896 8ebe
00000190: 0a32 b3bc 9b0c d73d 2319 bdbe 80a9 5dbe
000001a0: 7fae 613e d819 35bd 752e 1b3e 728f b53e
000001b0: b3ac 823d 64c6 4c3d c702 8a3d 7d44 aa3d
000001c0: e72a 54bb 274c 8cbb 4c15 8ebc cf92 0abe
000001d0: 2e21 99bd 7321 793d 1d4c 6e3d 207a 8b3d
000001e0: ab82 c43d 2ef6 16bc 7043 fcbc bb59 41bc
000001f0: 8b5c 1dbe 2661 f9bd 76d9 be3c e9c4 933d
00000200: 720d d83d 756f 9e3d 6e84 1d3c 7c7c 1cbc
00000210: d839 30bc a404 25be 634a f8bd a846 363d
00000220: 00e8 d3bd c8e5 de3d 27d1 103d b14c 4abe
00000230: 2a14 273d af9c 2e3e 8f40 97bd a58f d0bd
00000240: dc48 f43b 69ed f5bd 075b 673d a53c 0fbc
00000250: 06ee 21be 94b9 683d 4330 af3d 96ea 9cbd
00000260: 43d0 8ebd b955 a53c cafd b0bd 7e10 5b3d
00000270: 9967 5cbd 9324 02be 8be2 883d f9be b53b
00000280: 57c1 65bd f053 ddbc 7b46 8dbd e59e 21be
00000290: 97e6 f2bd afce 8cbd 4656 14be 4fa6 f3bd
000002a0: 0d7d 8dbd e5aa 14be cb9a 803c f158 4b3d
000002b0: 14f7 883e 36c9 8e3d 73bc 833e d6bf 003f
000002c0: 7d42 433e 4cc7 833d 20d9 1d3e b1e3 4c3c
000002d0: 45e0 09be ccfe 2fbe 331d 3bbd 0f9d b8bc
000002e0: 5130 60bd 32f1 203d e272 9ebd f641 31be
000002f0: 0b27 b4bc cb47 61bd dcf5 93bd e4b4 87bc
00000300: c336 56bd 2266 acbd 045f 48bc 2d4c 9c3d
00000310: 6625 ee3d 7ef5 c13d 10be 37bc 6c1b 0cbd
00000320: 52da 95bc 5ca4 05bd 499b 8ebd 0929 19bd
00000330: d228 663d fd06 ab3d 7b90 653d a395 b5bc
00000340: bd4e a0bc a71f 8dbb 70cf 54bd e2d4 7cbd
00000350: 8cfd ddbc f038 0e3d 84ce 943d a706 8e3d
00000360: 23b1 d63d cd3c 4e3e 08fe b43d 187f 4e3c
00000370: b623 e73d 627e 5abc 4dd4 c1bc 8c23 303d
00000380: ca44 86bd 1d68 f1bc 9f4d 08bd 2746 babc
00000390: d6fa b9bd 60b5 6bbd d8b9 60bd a028 8abc
000003a0: b736 a73d abc8 5e3d dac4 143b 3ba7 84bc
000003b0: 0f8b fdbc 6a46 41bd 88b1 06bd 7d83 a5bd
000003c0: 83fd 103d ad8d c43d 8f0e 58bc 0aa3 6c3c
000003d0: 7d3f 3ebd 0525 d7bc aa08 a8bd e00c 25be
000003e0: 0495 14be 36ab 55bc 5563 b5bd dac3 81bd
000003f0: dada 893d 04b9 c23d dc72 483d 29c3 a6bb

onnx::Conv_79 f4 [16]
-0.13247108 -0.71881986 -0.3269712 0.3363784 0.16208093 -0.9638328 0.46385476 0.26270387
0.02186444 0.3207901 -0.5474041 1.196624 0.32715616 -0.51858366 0.458597 0.24147485
00000000: 80a6 07be 9404 38bf c568 a7be ca39 ac3e
00000010: 8bf8 253e bfbd 76bf 5f7e ed3e 1f81 863e
00000020: 0e1d b33c 9a3e a43e ad22 0cbf fa2a 993f
00000030: 0381 a73e e6c1 04bf 3acd ea3e 2f45 773e

onnx::Conv_81 f4 [16, 16, 3, 3]
0.06906133 -0.0021048428 0.02678681 -0.12597857 -0.10256051 0.0071016997 -0.049720384 -0.05435256
-0.06871747 -0.120527975 -0.13498464 -0.1976599 0.02371272 -0.032772142 -0.3314033 -0.094622605
-0.34808794 0.20087996 -0.17198707 0.027924694 -0.027493475 -0.13080159 0.11355795 0.049742106
0.06505941 0.07965083 0.04306999 -0.08920053 -0.2553995 -0.1108221 0.0048772637 0.14104022
-0.1187346 0.30724987 -0.16373217 -0.09465476 -0.3211166 -0.3240232 -0.27781633 0.10757638
0.29364383 0.10391956 -0.13679229 0.04915517 -0.28869718 -0.15847471 -0.45123938 -0.1021208
-0.046378877 -0.15890536 -0.07177979 -0.008938189 -0.10366562 0.07197921 -0.0016099017 0.051807605
0.08406006 0.123747274 -0.15419468 -0.11372305 0.015932398 -0.1888001 -0.012282971 -0.16446151
-0.3055462 -0.19669273 -0.06758271 -0.013522548 0.091203965 -0.038537998 -0.02882942 0.27633402
0.23132624 0.18017448 0.14393842 0.052235745 0.08225208 0.089946695 -0.16886301 -0.31422073
-0.08619158 0.16960669 -0.0009444586 -0.07587587 0.20781669 0.063854136 0.016350888 0.05862172
-0.1930396 -0.087455586 0.034341212 0.06758518 0.23648237 -0.13440515 0.043165535 0.5498855
0.13611825 0.16003431 0.18080364 -0.14158134 0.42901415 -0.06095136 0.7328032 -0.96874046
0.17453888 0.33935383 -0.45367798 0.17799677 -0.11795918 -0.080029115 -0.110178985 0.12701236
-0.39504912 -0.13330343 0.25149855 0.041583955 0.11389482 0.04733688 -0.01739428 -0.008105725
-0.047308955 -0.019565046 0.06874559 -0.09954352 -0.058369007 -0.022466408 0.06634672 -0.016806418
-0.16557334 -0.5266863 -0.013292355 0.17549348 -0.34041512 0.17684568 -0.3157145 -0.008122331
-0.12470511 -0.02523833 -0.19595268 0.053938903 0.19409262 -0.24039271 0.15062529 0.060857076
0.015105591 -0.015913153 -0.19212401 0.081894934 0.09717351 0.19366802 -0.033545166 -0.059269276
0.14113635 -0.08157011 -0.06823367 -0.049765904 -0.09398893 -0.13542476 0.010314233 -0.20722623
0.06407256 0.012598119 0.09522318 -0.099800475 -0.08288525 0.041510753 -0.012615524 0.02928788
0.018782478 0.049438436 0.12948537 -0.124101885 -0.09741989 0.021456338 0.24755068 0.1390026
0.08065893 -0.05245716 0.25884086 0.117392056 0.003542717 0.018397378 -0.13398927 0.0019582012
-0.045948282 0.014197783 0.093217656 -0.1624 0.1474002 -0.14480057 -0.052012987 -0.23458907
-0.05089197 0.029846895 -0.12700398 -0.13227138 0.07453676 -0.18829633 0.08875096 -0.06837956
-0.058609277 0.019628262 0.0930686 0.26163825 -0.001364451 -0.23609588 -0.3462111 0.13926405
0.0020426393 0.14895426 0.18078187 -0.1705492 -0.16576374 -0.0125903785 0.0077025355 -0.061409276
-0.07482356 -0.18961711 0.016206382 0.043891154 -0.12259316 -0.1941624 -0.027384568 0.034115367
-0.14940944 -0.19569284 0.1520843 0.3946472 -0.36353576 0.07115801 0.2437142 -0.50166434
-0.101685666 0.22233813 0.14750087 -0.014071978 -0.18486792 0.13057373 0.0757057 -0.11678927
-0.13964199 -0.15978472 -0.08199646 0.23487572 -0.2716767 0.038836334 -0.9219889 0.42851913
-0.15895534 0.5093193 0.1776473 -0.29576427 -0.20814021 -0.06935625 -0.075970724 -0.33765528
00000000: 0770 8d3d 67f1 09bb 0370 db3c 8700 01be
00000010: 3f0b d2bd 60b5 e83b 9aa7 4bbd caa0 5ebd
00000020: bfbb 8cbd 5fd7 f6bd 6a39 0abe 5b67 4abe
00000030: 2e41 c23c 153c 06bd b1ad a9be 7fc9 c1bd
00000040: 9538 b2be 7ab3 4d3e 611d 30be 54c2 e43c
00000050: ff39 e1bc daf0 05be 1291 e83d 61be 4b3d
00000060: de3d 853d f91f a33d 286a 303d c4ae b6bd
00000070: b9c3 82be b2f6 e2bd 74d1 9f3b d96c 103e
00000080: 202b f3bd db4f 9d3e 68a9 27be 5bda c1bd
00000090: 6569 a4be 5ee6 a5be f13d 8ebe 0151 dc3d
000000a0: 7c58 963e c7d3 d43d 4713 0cbe ee56 493d
000000b0: 1ed0 93be 3247 22be d908 e7be b624 d1bd
000000c0: c7f7 3dbd 16b8 22be 4801 93bd 7b71 12bc
000000d0: a44e d4bd d669 933d 5603 d3ba 3634 543d
000000e0: ae27 ac3d 366f fd3d 36e5 1dbe a1e7 e8bd
000000f0: a984 823c d054 41be 843e 49bc 9968 28be
00000100: 8d70 9cbe d269 49be ce68 8abd ad8d 5dbc
00000110: 25c9 ba3d 05da 1dbd ad2b ecbc a77b 8d3e
00000120: c9e0 6c3e a97f 383e 9864 133e 26f5 553d
00000130: c773 a83d f935 b83d 6dea 2cbe 8ae1 a0be
00000140: 3685 b0bd 60ad 2d3e 8b95 77ba cf64 9bbd
00000150: e6cd 543e f5c5 823d 4cf2 853c 541d 703d
00000160: 2cac 45be ea1b b3bd 5fa9 0c3d 196a 8a3d
00000170: 6f28 723e 81a1 09be 58ce 303d 4cc5 0c3f
00000180: 9562 0b3e 09e0 233e 9724 393e b3fa 10be
00000190: bea7 db3e 22a8 79bd fe98 3b3f 60ff 77bf
000001a0: 52ba 323e c9bf ad3e 7b48 e8be c944 363e
000001b0: 9594 f1bd 4ee6 a3bd 85a5 e1bd 870f 023e
000001c0: e143 cabe b280 08be 6bc4 803e f053 2a3d
000001d0: b041 e93d 51e4 413d 737e 8ebc e0cd 04bc
000001e0: 09c7 41bd e046 a0bc 7dca 8c3d 79dd cbbd
000001f0: 5714 6fbd 790b b8bc cae0 873d 9dad 89bc
00000200: 0f8c 29be ead4 06bf 2ec8 59bc 90b4 333e
00000210: e44a aebe 0917 353e 55a5 a1be 8713 05bc
00000220: 6565 ffbd 9dc0 cebc d2a7 48be 0aef 5c3d
00000230: 37c0 463e 8229 76be 843d 1a3e 4545 793d
00000240: 717d 773c 4d5c 82bc 28bc 44be 88b8 a73d
00000250: e802 c73d e950 463e a866 09bd 57c4 72bd
00000260: 0c86 103e 3b0e a7bd 18be 8bbd 55d7 4bbd
00000270: 457d c0bd caac 0abe 07fd 283c 1d33 54be
00000280: 7938 833d 5768 4e3c 5f04 c33d 3164 ccbd
00000290: bebf a9bd 2e07 2a3d 58b1 4ebc 23ed ef3c
000002a0: b6dd 993c f57f 4a3d d097 043e 2129 febd
000002b0: 1484 c7bd 34c5 af3c ed7d 7d3e b356 0e3e
000002c0: 8230 a53d 52dd 56bd ca86 843e 3f6b f03d
000002d0: ee2c 683b 19b6 963c 7c34 09be 2a55 003b
000002e0: 4434 3cbd d19d 683c e6e8 be3d 304c 26be
000002f0: 14f0 163e 9a46 14be 920b 55bd 1e38 70be
00000300: 1974 50bd 7a81 f43c 550d 02be 2672 07be
00000310: bba6 983d c1d0 40be 10c3 b53d 950a 8cbd
00000320: 4810 70bd 73cb a03c c09a be3d 73f5 853e
00000330: 61d7 b2ba 1ec3 71be 9542 b1be 3c9b 0e3e
00000340: cddd 053b 7787 183e e21e 393e 73a4 2ebe
00000350: f8bd 29be e047 4ebc 8d65 fc3b 4b88 7bbd
00000360: 183d 99bd fd2a 42be 3fc3 843c 36c7 333d
00000370: 1f12 fbbd 82d2 46be 9a55 e0bc 8ebc 0b3d
00000380: cafe 18be b463 48be fdbb 1b3e 330f ca3e
00000390: 5c21 babe 4abb 913d 3790 793e 136d 00bf
000003a0: 9340 d0bd 9bac 633e 780a 173e 278e 66bc
000003b0: 044e 3dbe 1fb5 053e 970b 9b3d 362f efbd
000003c0: 4ffe 0ebe 9b9e 23be c3ed a7bd 4383 703e
000003d0: 3519 8bbe d912 1f3d 7707 6cbf dc66 db3e
000003e0: 30c5 22be c062 023f 2ce9 353e 6a6e 97be
000003f0: b522 55be a60a 8ebd 8a96 9bbd 27e1 acbe

onnx::Conv_82 f4 [16]
1.5357169 1.8059635 1.7683873 -1.3041244 0.49365893 0.9334061 -0.17198142 0.94391215
-0.46811765 0.43289536 0.10085228 2.7133274 2.0316606 1.6393074 -1.3271159 0.49801314
00000000: 5f92 c43f d029 e73f 845a e23f 8ced a6bf
00000010: ddc0 fc3e b4f3 6e3f e61b 30be 3aa4 713f
00000020: 1ead efbe 76a4 dd3e a48b ce3d 28a7 2d40
00000030: ba06 0240 d3d4 d13f efde a9bf 94fb fe3e

onnx::Conv_84 f4 [16, 16, 3, 3]
-0.08014747 0.02526265 0.018636053 0.018919751 -0.0357482 0.021021947 0.04818102 0.009360802
0.0003784079 -0.027652701 -0.04326026 -0.0056656096 0.049540028 -0.019142546 -0.037871387 0.06919839
0.015191121 0.0002953174 0.05699424 0.02654857 -0.048840575 -0.018756093 -0.046757396 0.040773485
0.047154162 -0.023974715 0.012102418 0.1035954 0.008724186 0.030980496 0.073441006 0.044135734
0.09825138 0.02874262 -0.052260272 0.018771518 -0.15139632 -0.045053538 -0.0072616464 -0.14683907
-0.08511478 -0.012912902 -0.111349516 -0.10304917 -0.091714 0.054605886 0.003195675 -0.06475643
0.060629286 -0.022265181 -0.08593373 -0.08039391 -0.04723771 -0.05564006 0.04418293 0.09066919
0.095318936 -0.09250201 -0.047897644 -0.07348909 -0.06818617 -0.008006021 -0.048137408 0.042236533
0.009740084 0.092429996 0.04823108 0.006015615 0.00036171975 0.046614133 0.067221515 0.023560876
0.04521919 0.04573131 0.06167979 0.023978049 -0.0054078894 0.051271234 0.019098165 0.0027439522
0.010166271 0.030769693 -0.0031681682 0.049071804 -0.035817705 -0.06474439 -0.05776582 -0.025928915
-0.0042690025 0.013122284 -0.036205225 -0.05949113 -0.16482663 -0.11524309 -0.13489853 -0.17299855
-0.18943898 -0.12687396 -0.13942952 -0.018420085 0.033070154 0.12099762 0.008573142 0.12098135
0.047896538 -0.08062976 -0.08009154 0.021412298 0.0050040386 -0.022621155 -0.060874216 0.07822117
0.055748954 0.06393462 0.08055531 0.015249984 0.053643048 -0.06580971 -0.023251768 -0.0026558836
-0.013604439 -0.057276115 0.0022151822 0.026355438 0.03459314 0.039133556 0.013228807 0.052161396
0.036704548 0.04067908 0.04972374 0.054038938 -0.028334647 0.0125354435 -0.02985833 -0.05081131
0.0057634935 0.06343053 -0.15324228 -0.10804545 0.01013761 -0.09249935 -0.13368566 -0.14219041
0.020330321 0.013489564 0.057777245 -0.09345389 0.07245466 0.11482903 0.06097 0.043511044
0.035434645 0.027902968 0.06560228 0.011716857 0.08613931 -0.00018265226 -0.055738844 -0.040643685
-0.07536074 0.11470294 0.0071410756 -0.032719154 -0.05918035 0.015384967 -0.025195241 0.03203526
0.06821122 0.06694491 0.057980366 -0.12821068 -0.030596856 0.004339748 -0.0584992 -0.05778068
0.040369835 0.018646615 0.022555452 0.001729829 0.1065226 -0.030978166 -0.13318574 0.03757342
-0.010521384 -0.011603594 -0.03709886 -0.028994229 -0.08416068 -0.011812056 -0.07977524 0.025866037
-0.07503738 -0.04795453 0.07697362 0.029643022 0.101407036 0.12393436 -0.104925595 -0.14446248
-0.13234724 0.10700703 0.022432866 0.09340215 0.06872642 0.16709685 0.18744692 -0.11685151
0.03441644 0.040252663 -0.0036404629 0.1627584 -0.018840985 0.028117696 -0.026582586 -0.076624
-0.049268484 -0.10820993 0.035000015 0.07633297 0.116565466 0.036098905 0.09645757 0.1124552
-0.01841771 -0.0064674527 -0.07152156 -0.08086605 -0.07554927 -0.054091763 0.006451396 -0.16808048
0.1752165 0.15586913 -0.024029274 -0.0776692 -0.026447479 -0.12846753 -0.012783245 0.08120937
-0.14058203 0.045322046 0.0800503 -0.098447025 -0.012396347 -0.027884848 0.018609207 0.021737868
-0.028974121 0.030960383 0.040879104 0.058126178 -0.040019054 0.034862533 0.041359976 0.014387207
00000000: 5b24 a4bd 9ef3 ce3c a3aa 983c 98fd 9a3c
00000010: b46c 12bd 3836 ac3c 7659 453d 0d5e 193c
00000020: 0c65 c639 eb87 e2bc ac31 31bd 94a6 b9bb
00000030: 7cea 4a3d d4d0 9cbc 071f 1bbd e3b7 8d3d
00000040: 2ee4 783c d5d4 9a39 cb72 693d 637c d93c
00000050: 0e0d 48bd 61a6 99bc af84 3fbd 1902 273d
00000060: b924 413d 9f66 c4bc 3849 463c d329 d43d
00000070: e3ef 0e3c cfca fd3c 3d68 963d acc7 343d
00000080: 0538 c93d a575 eb3c de0e 56bd bac6 993c
00000090: a307 1bbe 0f8a 38bd 1bf3 edbb fb5c 16be
000000a0: a850 aebd a390 53bc 370b e4bd 710b d3bd
000000b0: 8dd4 bbbd 6caa 5f3d 886e 513b 059f 84bd
000000c0: 6a56 783d 7865 b6bc 06fe afbd 90a5 a4bd
000000d0: 547c 41bd d5e6 63bd 29f9 343d c5b0 b93d
000000e0: 9336 c33d b271 bdbd 5230 44bd 7381 96bd
000000f0: 31a5 8bbd b02b 03bc bb2b 45bd 3700 2d3d
00000100: e094 1f3c f04b bd3d f48d 453d a31e c53b
00000110: 34a5 bd39 76ee 3e3d 6fab 893d bd02 c13c
00000120: c237 393d c150 3b3d f3a3 7c3d 9d6d c43c
00000130: aa34 b1bb c901 523d c173 9c3c e1d3 333b
00000140: 6e90 263c b910 fc3c 0ba1 4fbb 84ff 483d
00000150: 96b5 12bd b598 84bd da9b 6cbd e068 d4bc
00000160: fde2 8bbb d9fe 563c ee4b 14bd f9ac 73bd
00000170: 50c8 28be 9204 ecbd d722 0abe 8826 31be
00000180: 4bfc 41be 3feb 01be 9dc6 0ebe b8e5 96bc
00000190: 9274 073d 9acd f73d 5d76 0c3c 12c5 f73d
000001a0: 292f 443d 3721 a5bd 0907 a4bd d868 af3c
000001b0: ebf8 a33b 0050 b9bc 3e57 79bd 6c32 a03d
000001c0: 0459 643d 27f0 823d 2ffa a43d 12db 793c
000001d0: d0b8 5b3d 3ec7 86bd 7e7a bebc 550e 2ebb
000001e0: 27e5 5ebc 5c9a 6abd 972c 113b 5ce7 d73c
000001f0: 89b1 0d3d 824a 203d a3bd 583c 30a7 553d
00000200: 8257 163d 1b9f 263d 1fab 4b3d ef57 5d3d
00000210: 101e e8bc 7661 4d3c 7599 f4bc 851f 50bd
00000220: b0db bc3b dee7 813d 8beb 1cbe ef46 ddbd
00000230: 3818 263c 4d70 bdbd e5e4 08be 5d9a 11be
00000240: c68b a63c 5503 5d3c d5a7 6c3d c164 bfbd
00000250: 1c63 943d 7c2b eb3d aebb 793d a338 323d
00000260: eb23 113d c494 e43c 7d5a 863d 0ff8 3f3c
00000270: ce69 b03d 5886 3fb9 6a4e 64bd fe79 26bd
00000280: bb56 9abd 60e9 ea3d afff e93b 8504 06bd
00000290: 1867 72bd 3b11 7c3c 4066 cebc 6837 033d
000002a0: 53b2 8b3d 6a1a 893d d27c 6d3d a949 03be
000002b0: 42a6 fabc 7234 8e3b db9c 6fbd 6fab 6cbd
000002c0: d75a 253d c9c0 983c 36c6 b83c 6ebb e23a
000002d0: 8528 da3d ecc5 fdbc d861 08be 96e6 193d
000002e0: e261 2cbc 001d 3ebc f9f4 17bd 4e85 edbc
000002f0: 6f5c acbd 5b87 41bc 3361 a3bd 03e5 d33c
00000300: 33ad 99bd f86b 44bd 58a4 9d3d ecd5 f23c
00000310: 7eae cf3d 4cd1 fd3d 3be3 d6bd f9ed 13be
00000320: 0986 07be 8026 db3d 21c5 b73c a049 bf3d
00000330: 70c0 8c3d 701b 2b3e 16f2 3f3e d84f efbd
00000340: 41f8 0c3d fadf 243d d594 6ebb 23aa 263e
00000350: 6958 9abc 1557 e63c b9c3 d9bc 0bed 9cbd
00000360: c0cd 49bd 2b9d ddbd 2d5c 0f3d 7654 9c3d
00000370: e0b9 ee3d 72dc 133d 8c8b c53d e94e e63d
00000380: bde0 96bc edec d3bb e579 92bd 1a9d a5bd
00000390: 93b9 9abd 538f 5dbd 3b66 d33b 4a1d 2cbe
000003a0: f46b 333e 289c 1f3e 0ad9 c4bc 0811 9fbd
000003b0: 62a8 d8bc fe8c 03be d170 51bc 1951 a63d
000003c0: bcf4 0fbe 9ca3 393d 69f1 a33d 989e c9bd
000003d0: 0c1a 4bbc c46e e4bc 5672 983c 9d13 b23c
000003e0: 235b edbc a1a0 fd3c d970 273d b715 6e3d
000003f0: 05eb 23bd 04cc 0e3d 1469 293d 52b8 6b3c

onnx::Conv_85 f4 [16]
0.4589097 -0.8854252 0.68832856 -0.37101096 -0.40536857 -0.048539475 -1.1877961 -0.17084444
-0.7410287 0.005514952 0.34451076 -1.1326792 -0.56328344 -0.16767094 -0.7231117 -0.7023425
00000000: 36f6 ea3e 3aab 62bf 4d36 303f 26f5 bdbe
00000010: 788c cfbe 54d1 46bd b409 98bf d8f1 2ebe
00000020: 0fb4 3dbf c5b6 b43b b763 b03e a2fb 90bf
00000030: 5833 10bf eeb1 2bbe d91d 39bf b8cc 33bf

onnx::Conv_87 f4 [32, 16, 3, 3]
0.032393042 0.018875347 0.04353098 0.021964217 -0.001715351 0.01347632 -0.0294861 -0.045588143
-0.10648391 0.03203373 -0.0025315012 -0.046059147 0.09500702 0.030581184 -0.04971206 -0.014201965
-0.049609933 -0.07027882 -0.096714966 -0.02099691 -0.11149887 -0.1252688 -0.063033536 -0.08819377
-0.05875424 0.020016683 0.058971338 0.0015858816 -0.10871778 -0.19347884 0.104061194 -0.07563992
-0.16462538 0.08922384 -0.0622003 -0.122361556 -0.041439727 -0.12519494 -0.11059257 -0.13535544
-0.20662935 -0.17052926 -0.08244671 -0.1721795 -0.23238772 0.0005432503 0.008979303 0.05439466
0.09169529 0.065019354 0.023925254 0.14772119 0.08340904 0.042917784 0.019665636 0.06866392
-0.01654191 -0.013872583 0.079137675 0.032245208 -0.100849435 0.022935934 0.003523294 -0.015503905
-0.104610205 -0.13291909 -0.028232263 -0.14555039 -0.24037318 0.04392264 -0.08710289 -0.097568035
-0.017978048 -0.15832889 -0.10294557 -0.097607665 -0.17258053 -0.11708699 -0.108374044 -0.14747715
-0.117158815 -0.044567883 -0.023750847 0.03270067 -0.08036754 0.0052671633 0.050825983 -0.073597
0.027437529 0.07072932 -0.034054782 0.025897477 0.09131663 -0.057073113 -0.022229824 0.052016903
-0.04988967 -0.055985834 -0.03035545 0.06965749 0.064428695 -0.0020299095 0.06305294 0.08365239
0.039167855 0.050833028 0.05791488 0.020045146 0.041958634 -0.024350494 0.0045822663 -0.06179885
-0.008801219 0.040602945 -0.021538515 0.03724999 0.047629695 0.12669402 0.0806837 -0.05479758
0.19586663 0.20103484 -0.006478581 0.08612338 0.15765618 0.07820466 0.016934456 0.05501693
0.028623609 -0.029309751 -0.06516956 -0.0578551 0.033111054 -0.08491464 -0.111729994 -0.17542607
-0.12141822 0.085499935 -0.19192824 -0.15836208 -0.04600469 -0.117024876 -0.191888 -0.09635697
-0.049978603 -0.072420865 -0.04168773 0.024729619 -0.022603579 0.024586873 0.058293752 -0.08120431
-0.054420225 -0.068513975 -0.0018155924 0.043814298 -0.074139595 -0.05586406 0.033395175 -0.029137796
0.007358586 -0.030392323 -0.054200433 -0.10902958 -0.026324553 -0.018410277 -0.058785103 0.0097903265
0.111625694 0.044817474 0.089909315 -0.009860672 -0.012021636 -0.022251489 -0.032855596 0.041186556
0.116377994 0.11641128 0.15996206 0.10694856 0.036633916 0.023551123 -0.018726317 0.078713745
0.12031164 0.1624495 -0.035576053 0.07151108 0.07199144 -0.122148365 -0.15889205 -0.23585859
-0.26324615 -0.2557619 -0.27985442 -0.2668374 -0.1851177 -0.11725864 -0.059868276 -0.08251783
-0.043587133 -0.03187727 -0.06711912 -0.038825274 0.02498445 -0.046290115 -0.08081641 -0.006180845
-0.004146124 -0.012907864 0.0030754576 -0.030744284 0.057397105 -0.04627973 -0.00051547715 0.07326743
-0.09651767 -0.058019303 -0.06976514 -0.18358694 -0.1127368 -0.039569832 -0.16796418 -0.057578556
-0.008528429 0.016002811 -0.048805274 -0.040032443 0.1551726 0.07679634 0.090538524 -0.04196858
-0.14662354 -0.0879076 -0.015056547 0.025250474 0.06457312 -0.008963817 -0.049560722 -0.03450516
-0.027888214 -0.1103607 -0.051636133 -0.17120634 -0.34626523 -0.32435292 -0.2700739 -0.4022707
-0.2638698 -0.1950991 -0.27312946 -0.036652114 -0.15418434 -0.34243035 -0.28586373 -0.22014292
00000000: 91ae 043d 79a0 9a3c 8a4d 323d 4dee b33c
00000010: a1d5 e0ba c8cb 5c3c d58c f1bc a2ba 3abd
00000020: 3c14 dabd cd35 033d 8be7 25bb 84a8 3cbd
00000030: 0a93 c23d 6485 fa3c df9e 4bbd 5caf 68bc
00000040: c933 4bbd 58ee 8fbd 7f12 c6bd b601 acbc
00000050: 8559 e4bd 7746 00be ba17 81bd ef9e b4bd
00000060: 49a8 70bd 07fa a33c ee8b 713d 5bdd cf3a
00000070: 6da7 debd 511f 46be 091e d53d 1ae9 9abd
00000080: 8e93 28be fdba b63d bec5 7ebd b298 fabd
00000090: b4bc 29bd 1a33 00be 5b7e e2bd 9e9a 0abe
000000a0: a596 53be 399f 2ebe d2d9 a8bd d34f 30be
000000b0: 0cf7 6dbe e968 0e3a ed1d 133c efcc 5e3d
000000c0: bdca bb3d de28 853d e5fe c33c 3944 173e
000000d0: 5cd2 aa3d 8fca 2f3d d419 a13c ab9f 8c3d
000000e0: e682 87bc d549 63bc ef12 a23d 8d13 043d
000000f0: 268a cebd 24e4 bb3c 11e7 663b 1704 7ebc
00000100: e03d d6bd f11b 08be 5947 e7bc 290b 15be
00000110: 6324 76be 3ae8 333d 0063 b2bd c0d1 c7bd
00000120: b346 93bc f820 22be 21d5 d2bd 87e6 c7bd
00000130: f3b8 30be 4ecb efbd 36f3 ddbd 4004 17be
00000140: f6f0 efbd d08c 36bd 2391 c2bc 23f1 053d
00000150: bd97 a4bd 2b98 ac3b e82e 503d 06ba 96bd
00000160: abc4 e03c 89da 903d 077d 0bbd f226 d43c
00000170: 3704 bb3d 7fc5 69bd 521b b6bc ad0f 553d
00000180: 1c59 4cbd 6751 65bd feab f8bc 96a8 8e3d
00000190: 31f3 833d 3b08 05bb e621 813d f251 ab3d
000001a0: 796e 203d 4b36 503d 2738 6d3d b835 a43c
000001b0: d1dc 2b3d b07a c7bc d626 963b ca20 7dbd
000001c0: fd32 10bc 464f 263d 8a71 b0bc 7293 183d
000001d0: 5b17 433d 14bc 013e 7f3d a53d 6d73 60bd
000001e0: 4391 483e 14dc 4d3e 474a d4bb 7461 b03d
000001f0: 9f70 213e c429 a03d 21ba 8a3c 6f59 613d
00000200: 0f7c ea3c 011b f0bc 9e77 85bd 78f9 6cbd
00000210: 759f 073d bae7 adbd b2d2 e4bd e4a2 33be
00000220: 1eaa f8bd 971a af3d d688 44be ab29 22be
00000230: 6a6f 3cbd bdaa efbd 4a7e 44be ce56 c5bd
00000240: 5db6 4cbd 6451 94bd c1c0 2abd c595 ca3c
00000250: 242b b9bc 696a c93c 6ec5 6e3d 724e a6bd
00000260: bee7 5ebd 0e51 8cbd 2cf9 edba 9f76 333d
00000270: 80d6 97bd b6d1 64bd 61c9 083d 63b2 eebc
00000280: 4b20 f13b 52f9 f8bc 4601 5ebd e74a dfbd
00000290: 97a6 d7bc 26d1 96bc a6c8 70bd 9b67 203c
000002a0: 039c e43d 8792 373d 6022 b83d a88e 21bc
000002b0: 65f6 44bc c148 b6bc 9793 06bd 3cb3 283d
000002c0: 9657 ee3d 0a69 ee3d 18cd 233e d907 db3d
000002d0: 720d 163d 49ee c03c ef67 99bc ac34 a13d
000002e0: f365 f63d 2959 263e 32b8 11bd 6774 923d
000002f0: 4070 933d ec28 fabd 99b4 22be ea84 71be
00000300: 33c8 86be 39f3 82be 1449 8fbe e99e 88be
00000310: 7f8f 3dbe 4c25 f0bd 7038 75bd 1cff a8bd
00000320: 6c88 32bd be91 02bd c075 89bd 4007 1fbd
00000330: 30ac cc3c b49a 3dbd 1383 a5bd b088 cabb
00000340: 35dc 87bb 817b 53bc 9e8d 493b 70db fbbc
00000350: 3a19 6b3d d08f 3dbd 1621 07ba 3c0d 963d
00000360: 0eab c5bd a6a5 6dbd 07e1 8ebd 37fe 3bbe
00000370: 8de2 e6bd fa13 22bd cdfe 2bbe 7ed7 6bbd
00000380: d3ba 0bbc 5418 833c 0ae8 47bd 0ff9 23bd
00000390: 91e5 1e3e 6647 9d3d 436c b93d 3fe7 2bbd
000003a0: 7b24 16be e608 b4bd bcaf 76bc 15da ce3c
000003b0: e93e 843d f9dc 12bc 2f00 4bbd 4855 0dbd
000003c0: d375 e4bc ca04 e2bd 6980 53bd b750 2fbe
000003d0: ad49 b1be 9611 a6be 2047 8abe 6df6 cdbe
000003e0: f119 87be 0fc8 47be a0d7 8bbe 8720 16bd
000003f0: 80e2 1dbe 0853 afbe bb5c 92be 256d 61be

onnx::Conv_88 f4 [32]
1.1573254 1.0600549 1.056157 0.71066016 -0.9503692 -0.018833533 1.1347607 0.62206364
-0.7893776 -0.1249095 0.92729926 -1.1121761 0.27343673 0.38764876 1.3411236 1.0854847
-0.26970252 -0.3550077 0.69538414 -0.31710494 0.81127286 -1.2990005 0.9425098 -0.896876
-0.052138805 0.8670053 1.5458913 -0.3699134 1.0879817 1.1417679 0.8920964 -0.23288509
00000000: 3d23 943f e1af 873f 2730 873f d3ed 353f
00000010: 654b 73bf c848 9abc d73f 913f 903f 1f3f
00000020: a714 4abf 8dd0 ffbd 7c63 6d3f c95b 8ebf
00000030: e6ff 8b3e e679 c63e f0a9 ab3f 2af1 8a3f
00000040: 7316 8abe 92c3 b5be b204 323f 945b a2be
00000050: 94af 4f3f a645 a6bf 5248 713f aa99 65bf
00000060: 808f 55bd 0ff4 5d3f c4df c53f 4a65 bdbe
00000070: fc42 8b3f 7325 923f 6e60 643f 6e79 6ebe
