onnx_models/ks_quantized_int8.onnx (onnx, 38308 bytes, 21 tensors)

onnx::Conv_97_quantized i1 [64, 1, 10, 4]
0	0x0e	14
1	0xfe	-2
2	0xf6	-10
3	0x97	-105
4	0x34	52
5	0x0c	12
6	0xa2	-94
7	0xac	-84
8	0x1a	26
9	0xf6	-10
10	0xa3	-93
11	0xbe	-66
12	0x1a	26
13	0xe7	-25
14	0x81	-127
15	0xed	-19
16	0xdf	-33
17	0xd8	-40
18	0xa7	-89
19	0x0d	13
20	0xd8	-40
21	0xea	-22
22	0xfe	-2
23	0x34	52
24	0xed	-19
25	0x1a	26
26	0x26	38
27	0x62	98
28	0xf3	-13
29	0x0d	13
30	0x42	66
31	0x1a	26
32	0xf9	-7
33	0xf6	-10
34	0x36	54
35	0xfc	-4
36	0x31	49
37	0x07	7
38	0x32	50
39	0x00	0
40	0x3e	62
41	0x07	7
42	0x10	16
43	0xf0	-16
44	0x15	21
45	0x19	25
46	0x16	22
47	0xf5	-11
48	0xed	-19
49	0x30	48
50	0xff	-1
51	0xfd	-3
52	0x0c	12
53	0x23	35
54	0x02	2
55	0xfa	-6
56	0xea	-22
57	0x04	4
58	0xfd	-3
59	0x03	3
60	0xfb	-5
61	0x09	9
62	0x02	2
63	0x14	20
64	0xf2	-14
65	0x00	0
66	0xed	-19
67	0x07	7
68	0xb6	-74
69	0xdf	-33
70	0xea	-22
71	0xf8	-8
72	0x10	16
73	0x8f	-113
74	0xde	-34
75	0xf6	-10
76	0x60	96
77	0x81	-127
78	0xf5	-11
79	0xea	-22
80	0xfd	-3
81	0xdd	-35
82	0xfd	-3
83	0xe4	-28
84	0xfb	-5
85	0xbe	-66
86	0xfe	-2
87	0xd7	-41
88	0x03	3
89	0xc8	-56
90	0x09	9
91	0x0a	10
92	0xfc	-4
93	0x32	50
94	0x26	38
95	0x18	24
96	0x12	18
97	0x7f	127
98	0x10	16
99	0x0f	15
100	0x13	19
101	0x3f	63
102	0xe0	-32
103	0xfb	-5
104	0x03	3
105	0xe5	-27
106	0xc8	-56
107	0xf8	-8
108	0x06	6
109	0xd0	-48
110	0xfb	-5
111	0xff	-1
112	0xf5	-11
113	0xd1	-47
114	0x1a	26
115	0xfd	-3
116	0x0a	10
117	0xfd	-3
118	0x12	18
119	0xfe	-2
120	0x21	33
121	0xde	-34
122	0xf1	-15
123	0xed	-19
124	0x81	-127
125	0xb8	-72
126	0xd7	-41
127	0xd6	-42
128	0x9f	-97
129	0x8b	-117
130	0xaa	-86
131	0xe1	-31
132	0xfb	-5
133	0xc4	-60
134	0xf6	-10
135	0xec	-20
136	0x45	69
137	0x22	34
138	0x11	17
139	0xfe	-2
140	0x35	53
141	0x2e	46
142	0x30	48
143	0xf7	-9
144	0xfb	-5
145	0x2b	43
146	0x3b	59
147	0xf1	-15
148	0xf2	-14
149	0x27	39
150	0x1f	31
151	0x21	33
152	0xf5	-11
153	0x18	24
154	0xfc	-4
155	0x3f	63
156	0x0a	10
157	0x3d	61
158	0xee	-18
159	0x5c	92
160	0xff	-1
161	0xe1	-31
162	0x00	0
163	0xf4	-12
164	0x37	55
165	0xdf	-33
166	0x17	23
167	0xc8	-56
168	0x29	41
169	0xfd	-3
170	0x20	32
171	0xf7	-9
172	0xd0	-48
173	0x6b	107
174	0x25	37
175	0x15	21
176	0x81	-127
177	0x5a	90
178	0xc8	-56
179	0x09	9
180	0x1a	26
181	0xb1	-79
182	0x9c	-100
183	0x0d	13
184	0x37	55
185	0xad	-83
186	0x04	4
187	0x09	9
188	0xf7	-9
189	0x11	17
190	0x1d	29
191	0xfa	-6
192	0x0c	12
193	0xfe	-2
194	0xfa	-6
195	0xf8	-8
196	0x04	4
197	0xfc	-4
198	0x04	4
199	0xf2	-14
200	0xf9	-7
201	0x2f	47
202	0xe6	-26
203	0x08	8
204	0x08	8
205	0x2e	46
206	0xdf	-33
207	0xef	-17
208	0x13	19
209	0x4c	76
210	0xcb	-53
211	0x03	3
212	0xe1	-31
213	0x78	120
214	0xd4	-44
215	0xd3	-45
216	0xfd	-3
217	0x6e	110
218	0xf6	-10
219	0xca	-54
220	0xe2	-30
221	0x28	40
222	0x33	51
223	0xda	-38
224	0xfe	-2
225	0xe0	-32
226	0x4d	77
227	0x05	5
228	0x1c	28
229	0xb5	-75
230	0x37	55
231	0x3c	60
232	0x28	40
233	0x81	-127
234	0x16	22
235	0x26	38
236	0xfb	-5
237	0xa2	-94
238	0x15	21
239	0x15	21
240	0xf1	-15
241	0x85	-123
242	0x17	23
243	0x36	54
244	0x0b	11
245	0x81	-127
246	0x1a	26
247	0x34	52
248	0x48	72
249	0xa1	-95
250	0x1d	29
251	0x0b	11
252	0x27	39
253	0xc9	-55
254	0x21	33
255	0xe0	-32

onnx::Conv_97_scale f4 [64]
0	0x39db200e	0.00041794818
1	0x39dd5b20	0.00042220298
2	0x3a4c872b	0.0007802124
3	0x39b3f0b7	0.00034320887
4	0x3a450cf6	0.0007516885
5	0x39e887dd	0.00044351714
6	0x39bfc47a	0.00036576745
7	0x39b555df	0.0003458699
8	0x39a0bdce	0.00030658994
9	0x3a1ecc2b	0.0006057645
10	0x39cf03ae	0.00039484858
11	0x398c5f49	0.00026773874
12	0x395f8e57	0.00021319963
13	0x39e090c3	0.00042832465
14	0x39ba9179	0.0003558507
15	0x3a29057d	0.0006447656
16	0x3a3ac3a9	0.00071244925
17	0x39c364fb	0.00037268535
18	0x3a056c36	0.0005089672
19	0x398274f2	0.00024882663
20	0x39f50302	0.00046732282
21	0x3919fc70	0.00014685257
22	0x3a2862e0	0.0006423425
23	0x39464b79	0.00018910867
24	0x39e6fafe	0.00044056022
25	0x3a19bf39	0.0005864981
26	0x39ec95da	0.00045125076
27	0x3a0077f3	0.00049006863
28	0x39989316	0.00029101287
29	0x39de2be0	0.0004237583
30	0x3989c106	0.0002627449
31	0x3a4aa3e0	0.0007730108
32	0x39af253d	0.00033406346
33	0x39cfc71c	0.00039630465
34	0x39cc9b04	0.00039025408
35	0x39a33d54	0.00031135476
36	0x3959ec86	0.00020782845
37	0x39306c9c	0.00016825128
38	0x3a246693	0.0006271388
39	0x3a4c4490	0.0007792199
40	0x3a01f5f6	0.00049576105
41	0x382132d9	3.8432747e-05
42	0x39d6f1e1	0.00040997475
43	0x38e06e79	0.000107017295
44	0x3a6921f0	0.0008893302
45	0x3a55c6ad	0.000815491
46	0x39d01004	0.00039684784
47	0x39c65ed9	0.0003783617
48	0x3992fb23	0.00028034401
49	0x39ff65e2	0.000487133
50	0x391df8f8	0.00015065435
51	0x3a31cf0f	0.00067828683
52	0x3980f267	0.00024594666
53	0x3a20d09e	0.0006134602
54	0x398af14d	0.00026501194
55	0x39b7a2f5	0.00035025892
56	0x39bc4ff4	0.00035917724
57	0x39153815	0.0001423064
58	0x39596d47	0.00020735442
59	0x39d12979	0.00039894486
60	0x39c2f808	0.0003718736
61	0x39bc5a30	0.0003592535
62	0x39c70533	0.00037960112
63	0x39df2eac	0.00042568648

onnx::Conv_100_quantized i1 [64, 1, 3, 3]
0	0xc2	-62
1	0xe2	-30
2	0x16	22
3	0xb2	-78
4	0xeb	-21
5	0x7f	127
6	0xc5	-59
7	0x01	1
8	0xf0	-16
9	0x1d	29
10	0x38	56
11	0xfe	-2
12	0xc4	-60
13	0xd6	-42
14	0xe0	-32
15	0x7f	127
16	0xe9	-23
17	0xcf	-49
18	0xe9	-23
19	0x52	82
20	0xdd	-35
21	0x7f	127
22	0xc2	-62
23	0x1c	28
24	0xbd	-67
25	0xdc	-36
26	0x48	72
27	0xe3	-29
28	0xfa	-6
29	0x2d	45
30	0xd0	-48
31	0x5b	91
32	0xf6	-10
33	0xeb	-21
34	0x7f	127
35	0xfa	-6
36	0x81	-127
37	0xe5	-27
38	0x15	21
39	0x69	105
40	0x26	38
41	0x3a	58
42	0x37	55
43	0x30	48
44	0xa8	-88
45	0xd5	-43
46	0xfe	-2
47	0xfc	-4
48	0x7f	127
49	0x00	0
50	0x22	34
51	0xdd	-35
52	0xf4	-12
53	0xff	-1
54	0x1e	30
55	0x1a	26
56	0x2d	45
57	0xc0	-64
58	0xf4	-12
59	0xef	-17
60	0x7f	127
61	0xef	-17
62	0xfc	-4
63	0xa4	-92
64	0xfd	-3
65	0xe2	-30
66	0x81	-127
67	0x0e	14
68	0xb9	-71
69	0xd3	-45
70	0x10	16
71	0x20	32
72	0xd1	-47
73	0x24	36
74	0xfb	-5
75	0x7f	127
76	0xf3	-13
77	0x0a	10
78	0xdf	-33
79	0xfe	-2
80	0xfd	-3
81	0x1e	30
82	0xbb	-69
83	0xeb	-21
84	0xe6	-26
85	0xd1	-47
86	0xf9	-7
87	0xdf	-33
88	0x7f	127
89	0xf6	-10
90	0x0f	15
91	0xf3	-13
92	0x2d	45
93	0xec	-20
94	0xdd	-35
95	0x1d	29
96	0xea	-22
97	0x57	87
98	0x7f	127
99	0xda	-38
100	0x61	97
101	0x4e	78
102	0x7f	127
103	0xab	-85
104	0x1d	29
105	0x5f	95
106	0x3b	59
107	0xf3	-13
108	0xdc	-36
109	0x28	40
110	0x17	23
111	0xdc	-36
112	0x74	116
113	0xbb	-69
114	0xc1	-63
115	0x2f	47
116	0x81	-127
117	0xe7	-25
118	0xca	-54
119	0x26	38
120	0xd8	-40
121	0x7f	127
122	0xdf	-33
123	0xd8	-40
124	0xe4	-28
125	0xd6	-42
126	0x1b	27
127	0xfb	-5
128	0xc4	-60
129	0x7f	127
130	0xee	-18
131	0xd3	-45
132	0xc1	-63
133	0xfa	-6
134	0xee	-18
135	0x7f	127
136	0xc7	-57
137	0x84	-124
138	0xc9	-55
139	0xe0	-32
140	0xa6	-90
141	0xbd	-67
142	0xfc	-4
143	0xdd	-35
144	0xf7	-9
145	0xf5	-11
146	0xd6	-42
147	0xf0	-16
148	0x29	41
149	0xd2	-46
150	0xee	-18
151	0xf1	-15
152	0x7f	127
153	0x0d	13
154	0xff	-1
155	0xea	-22
156	0xd2	-46
157	0xaf	-81
158	0x7f	127
159	0xe4	-28
160	0xaa	-86
161	0x38	56
162	0xd3	-45
163	0x5e	94
164	0xdd	-35
165	0xcd	-51
166	0x41	65
167	0x7f	127
168	0x41	65
169	0xcb	-53
170	0x40	64
171	0x41	65
172	0xfa	-6
173	0x6e	110
174	0x2d	45
175	0x8d	-115
176	0x7b	123
177	0x03	3
178	0x81	-127
179	0x26	38
180	0xcd	-51
181	0xee	-18
182	0xd2	-46
183	0xc2	-62
184	0xc6	-58
185	0xe6	-26
186	0x7f	127
187	0x49	73
188	0x56	86
189	0xd7	-41
190	0xf9	-7
191	0xe0	-32
192	0x7f	127
193	0xf9	-7
194	0xf2	-14
195	0xe4	-28
196	0xf7	-9
197	0xf2	-14
198	0xfc	-4
199	0xe3	-29
200	0xf3	-13
201	0xeb	-21
202	0x7f	127
203	0xcb	-53
204	0x26	38
205	0xdd	-35
206	0xf8	-8
207	0x01	1
208	0xfc	-4
209	0x7f	127
210	0xfd	-3
211	0x03	3
212	0xdd	-35
213	0xf9	-7
214	0xf8	-8
215	0x05	5
216	0xf2	-14
217	0xe5	-27
218	0x2c	44
219	0xe6	-26
220	0xed	-19
221	0x7f	127
222	0xe7	-25
223	0x0a	10
224	0xb3	-77
225	0x30	48
226	0x39	57
227	0x1d	29
228	0x7f	127
229	0xe6	-26
230	0x21	33
231	0xaf	-81
232	0xcc	-52
233	0xf7	-9
234	0xe3	-29
235	0xd5	-43
236	0x6a	106
237	0xec	-20
238	0x7f	127
239	0x51	81
240	0xfc	-4
241	0xda	-38
242	0x2d	45
243	0x20	32
244	0x53	83
245	0x81	-127
246	0xf8	-8
247	0xfa	-6
248	0xb9	-71
249	0x9a	-102
250	0xe2	-30
251	0x6d	109
252	0x81	-127
253	0xd3	-45
254	0xef	-17
255	0x84	-124

onnx::Conv_100_scale f4 [64]
0	0x3c0fac2e	0.008769078
1	0x3c948788	0.018131033
2	0x3c3c5ec7	0.011497206
3	0x3bc4da08	0.0060074367
4	0x3c0aadf9	0.00846433
5	0x3c41e2ec	0.011833888
6	0x3c2bd6d3	0.01048823
7	0x3be7dd49	0.00707594
8	0x3c7225e2	0.01477954
9	0x3c2da9a9	0.010599532
10	0x3c1da546	0.009621924
11	0x3ba6c9b8	0.0050899647
12	0x3bf66fd9	0.0075206575
13	0x3c3e5d7d	0.011618969
14	0x3c220638	0.009889178
15	0x3bd10f8b	0.0063800267
16	0x3c5b399d	0.013380435
17	0x3c17bae0	0.009260863
18	0x3bf264bf	0.007397264
19	0x3bd42604	0.0064742584
20	0x3c2f7d31	0.010711
21	0x3c9675c4	0.018366702
22	0x3c4f4455	0.012650569
23	0x3ce0c1e4	0.027436204
24	0x3c8fdc3b	0.017561069
25	0x3c02399b	0.0079483045
26	0x3c0fd2e7	0.00877831
27	0x3bf13a70	0.0073617026
28	0x3c05f4f1	0.008176074
29	0x3bcaf03a	0.006193188
30	0x3ba4056e	0.00500553
31	0x3c5ed7cb	0.013601254
32	0x3c449911	0.0119993845
33	0x3bffa2d2	0.007801392
34	0x3b8f4299	0.0043719527
35	0x3bf32e9e	0.0074213287
36	0x3bc4e64b	0.0060088984
37	0x3b9ea91e	0.0048419377
38	0x3c3c314c	0.011486363
39	0x3c1fe680	0.009759545
40	0x3c1bddbb	0.009513314
41	0x3c703ced	0.014662963
42	0x3c0c9c70	0.0085822195
43	0x3c959770	0.018260688
44	0x3c59671c	0.013269212
45	0x3c018ff4	0.007907856
46	0x3bab671a	0.0052307965
47	0x3c709316	0.0146835055
48	0x3bc2ccdd	0.0059448318
49	0x3caa3431	0.02077684
50	0x3bc629e6	0.006047475
51	0x3c7cfae7	0.015440679
52	0x3c2356e5	0.009969448
53	0x3c5a5e3e	0.013328133
54	0x3cabab15	0.020955602
55	0x3bacf2e3	0.005277978
56	0x3be04c3d	0.006845026
57	0x3c72801f	0.014801054
58	0x3bc680e6	0.0060578464
59	0x3c0462ae	0.008080168
60	0x3b977020	0.0046215206
61	0x3ca3ea1b	0.020009091
62	0x3c05eebb	0.008174594
63	0x3be06331	0.006847762

onnx::Conv_103_quantized i1 [64, 64, 1, 1]
0	0xa6	-90
1	0xde	-34
2	0xa0	-96
3	0x12	18
4	0xd9	-39
5	0xfd	-3
6	0x10	16
7	0x07	7
8	0x24	36
9	0x79	121
10	0xe5	-27
11	0xd8	-40
12	0x0e	14
13	0xac	-84
14	0x8e	-114
15	0x84	-124
16	0xcf	-49
17	0x8e	-114
18	0x30	48
19	0xfe	-2
20	0x13	19
21	0x24	36
22	0x83	-125
23	0x1c	28
24	0x3f	63
25	0xe4	-28
26	0x37	55
27	0xc1	-63
28	0x1c	28
29	0x1b	27
30	0xf8	-8
31	0xf9	-7
32	0xda	-38
33	0xbb	-69
34	0x6b	107
35	0x32	50
36	0x1f	31
37	0xad	-83
38	0x46	70
39	0x0b	11
40	0x1f	31
41	0x0f	15
42	0xda	-38
43	0x0f	15
44	0x5a	90
45	0x30	48
46	0xc7	-57
47	0x17	23
48	0xc5	-59
49	0xf7	-9
50	0x13	19
51	0xf7	-9
52	0x7f	127
53	0x29	41
54	0xf8	-8
55	0xca	-54
56	0xa0	-96
57	0x38	56
58	0xbb	-69
59	0xd7	-41
60	0x08	8
61	0xf9	-7
62	0x09	9
63	0x15	21
64	0xf2	-14
65	0xf7	-9
66	0xf6	-10
67	0xe8	-24
68	0x04	4
69	0xf8	-8
70	0xf6	-10
71	0x10	16
72	0x21	33
73	0x0b	11
74	0xf9	-7
75	0xf9	-7
76	0xf9	-7
77	0xf6	-10
78	0xc6	-58
79	0x0b	11
80	0xf8	-8
81	0xb8	-72
82	0x07	7
83	0xde	-34
84	0xe8	-24
85	0xcd	-51
86	0x06	6
87	0xda	-38
88	0xcf	-49
89	0xfb	-5
90	0xf4	-12
91	0xf8	-8
92	0x13	19
93	0x18	24
94	0xd3	-45
95	0x12	18
96	0x11	17
97	0x0f	15
98	0x38	56
99	0xf9	-7
100	0xcc	-52
101	0xee	-18
102	0x2b	43
103	0x1d	29
104	0x02	2
105	0xe3	-29
106	0x2a	42
107	0xd7	-41
108	0x2c	44
109	0x02	2
110	0x1d	29
111	0xd8	-40
112	0x0b	11
113	0x12	18
114	0xcf	-49
115	0xef	-17
116	0x1e	30
117	0x06	6
118	0xe7	-25
119	0xd9	-39
120	0xcf	-49
121	0x0f	15
122	0x81	-127
123	0xe4	-28
124	0x23	35
125	0x2e	46
126	0x0e	14
127	0x08	8
128	0x2d	45
129	0xfb	-5
130	0xfa	-6
131	0xd6	-42
132	0xe2	-30
133	0xa1	-95
134	0x25	37
135	0x7f	127
136	0x0b	11
137	0x13	19
138	0xdb	-37
139	0x17	23
140	0xdd	-35
141	0xd5	-43
142	0xf9	-7
143	0xb0	-80
144	0x14	20
145	0xe0	-32
146	0xea	-22
147	0xab	-85
148	0xfe	-2
149	0x27	39
150	0xe9	-23
151	0xdf	-33
152	0x2c	44
153	0x0c	12
154	0xe6	-26
155	0xed	-19
156	0xb9	-71
157	0xd4	-44
158	0xe1	-31
159	0xd0	-48
160	0x8d	-115
161	0xb7	-73
162	0xda	-38
163	0x23	35
164	0xf6	-10
165	0xfa	-6
166	0x3b	59
167	0x27	39
168	0x46	70
169	0x06	6
170	0x10	16
171	0xbe	-66
172	0x0a	10
173	0x12	18
174	0xf2	-14
175	0x2b	43
176	0x0d	13
177	0xf3	-13
178	0xf7	-9
179	0x05	5
180	0xf7	-9
181	0x0e	14
182	0xfa	-6
183	0x29	41
184	0xdc	-36
185	0xfe	-2
186	0x19	25
187	0x24	36
188	0x09	9
189	0xd1	-47
190	0x01	1
191	0xbe	-66
192	0xd0	-48
193	0xde	-34
194	0x18	24
195	0x09	9
196	0xa1	-95
197	0xf9	-7
198	0x14	20
199	0x18	24
200	0x01	1
201	0xb9	-71
202	0x1f	31
203	0x02	2
204	0xfe	-2
205	0x07	7
206	0x01	1
207	0xdd	-35
208	0xfd	-3
209	0x17	23
210	0x07	7
211	0xdd	-35
212	0xe6	-26
213	0x22	34
214	0x32	50
215	0xff	-1
216	0xf7	-9
217	0x07	7
218	0xf8	-8
219	0x2d	45
220	0x1f	31
221	0x20	32
222	0x20	32
223	0x3a	58
224	0xfd	-3
225	0xd9	-39
226	0x81	-127
227	0xdb	-37
228	0x0a	10
229	0xd7	-41
230	0xd6	-42
231	0xdd	-35
232	0x00	0
233	0xcc	-52
234	0x06	6
235	0xd4	-44
236	0x07	7
237	0x0d	13
238	0x13	19
239	0x26	38
240	0xf2	-14
241	0xe7	-25
242	0x3e	62
243	0xd4	-44
244	0x05	5
245	0xe0	-32
246	0xe4	-28
247	0xb2	-78
248	0x02	2
249	0x0a	10
250	0x0e	14
251	0x1a	26
252	0xfc	-4
253	0xc3	-61
254	0x07	7
255	0x03	3

onnx::Conv_103_scale f4 [64]
0	0x3afebec2	0.0019435512
1	0x3b20f620	0.0024560764
2	0x3b2b2014	0.002611165
3	0x3b2139da	0.0024601133
4	0x3b08a836	0.0020852215
5	0x3b27db4b	0.0025612887
6	0x3b3224a5	0.0027182486
7	0x3adf9282	0.0017057213
8	0x3b333b7a	0.0027348683
9	0x3b312375	0.002702919
10	0x3b2b777f	0.0026163755
11	0x3b5ac861	0.0033383595
12	0x3ae8b47b	0.0017753983
13	0x3ad81b19	0.0016487568
14	0x3b43b1f1	0.00298607
15	0x3b2cf28f	0.0026389693
16	0x3ad31b66	0.0016106188
17	0x3b1a704b	0.0023565467
18	0x3b1bd05b	0.0023775313
19	0x3b29179b	0.0025801423
20	0x3b31cb57	0.0027129257
21	0x3b3e5369	0.0029041416
22	0x3b1b9499	0.0023739694
23	0x3b1f3dcf	0.0024298315
24	0x3b11bf28	0.0022239182
25	0x3af2aa6c	0.0018513924
26	0x3b4e4c8f	0.0031478738
27	0x3b19d09d	0.002347029
28	0x3b226fa5	0.0024785784
29	0x3b052123	0.002031394
30	0x3b37cd93	0.0028046116
31	0x3ac6da04	0.0015171175
32	0x3b43f5e6	0.0029901206
33	0x3b0c3f7f	0.0021400151
34	0x3b53e6ca	0.0032333606
35	0x3b20d963	0.0024543635
36	0x3b1ddb83	0.0024087138
37	0x3ae26444	0.0017272313
38	0x3af8eb03	0.0018990937
39	0x3b34b7ae	0.0027575302
40	0x3b309db9	0.0026949479
41	0x3afee204	0.001944602
42	0x3b0b3079	0.0021238609
43	0x3ab622b9	0.0013895846
44	0x3afc5b88	0.0019253353
45	0x3b9746da	0.0046166005
46	0x3b246873	0.002508667
47	0x3b19fc70	0.0023496412
48	0x3af74589	0.0018865328
49	0x3b1245c9	0.0022319427
50	0x3b1ba420	0.002374895
51	0x3ac010e3	0.001465347
52	0x3b28e2af	0.002576988
53	0x3b170989	0.0023046455
54	0x3ab5306b	0.0013823634
55	0x3b111e5d	0.0022143342
56	0x3b2a0ae9	0.0025946444
57	0x3ae1bd68	0.0017222585
58	0x3af6d365	0.0018831311
59	0x3ae702fd	0.0017624792
60	0x3b1124e4	0.0022147233
61	0x3b0c84b9	0.0021441414
62	0x3b4075a5	0.0029366997
63	0x3afe33b4	0.0019394071

onnx::Conv_106_quantized i1 [64, 1, 3, 3]
0	0x8f	-113
1	0x1d	29
2	0x7f	127
3	0x24	36
4	0x58	88
5	0xd6	-42
6	0x31	49
7	0xce	-50
8	0x9d	-99
9	0x0c	12
10	0xe8	-24
11	0xde	-34
12	0x36	54
13	0x48	72
14	0xcf	-49
15	0x7f	127
16	0x40	64
17	0xf5	-11
18	0x53	83
19	0xbe	-66
20	0x7f	127
21	0x7f	127
22	0xc1	-63
23	0xf5	-11
24	0x4e	78
25	0x07	7
26	0xae	-82
27	0x32	50
28	0xc4	-60
29	0xff	-1
30	0x6e	110
31	0xb6	-74
32	0x98	-104
33	0x7f	127
34	0x2f	47
35	0x8d	-115
36	0x2c	44
37	0xf5	-11
38	0x8a	-118
39	0x7f	127
40	0xcb	-53
41	0x01	1
42	0xf9	-7
43	0xcb	-53
44	0x6a	106
45	0x00	0
46	0x26	38
47	0x01	1
48	0x11	17
49	0x25	37
50	0x21	33
51	0x50	80
52	0x7f	127
53	0x1c	28
54	0x07	7
55	0xa1	-95
56	0xa3	-93
57	0xda	-38
58	0x89	-119
59	0x81	-127
60	0xf7	-9
61	0x8a	-118
62	0xbb	-69
63	0x35	53
64	0x2b	43
65	0x14	20
66	0x7f	127
67	0x61	97
68	0x1e	30
69	0x14	20
70	0x3b	59
71	0x1b	27
72	0xd0	-48
73	0x7f	127
74	0x3d	61
75	0xda	-38
76	0x30	48
77	0x31	49
78	0xca	-54
79	0xf6	-10
80	0x0c	12
81	0x07	7
82	0xf1	-15
83	0x13	19
84	0x7f	127
85	0xf1	-15
86	0x4f	79
87	0x34	52
88	0xec	-20
89	0x63	99
90	0xed	-19
91	0x3c	60
92	0xb5	-75
93	0x1f	31
94	0x53	83
95	0x81	-127
96	0x02	2
97	0x30	48
98	0x9e	-98
99	0x0e	14
100	0xed	-19
101	0x30	48
102	0xdb	-37
103	0x01	1
104	0x7f	127
105	0xdb	-37
106	0x0e	14
107	0x63	99
108	0xfa	-6
109	0x06	6
110	0xf9	-7
111	0xc4	-60
112	0x01	1
113	0x7f	127
114	0xd8	-40
115	0x30	48
116	0x15	21
117	0x8f	-113
118	0x82	-126
119	0xd6	-42
120	0x81	-127
121	0x4d	77
122	0xdf	-33
123	0x98	-104
124	0x6b	107
125	0x4d	77
126	0x14	20
127	0xc7	-57
128	0x7f	127
129	0x8a	-118
130	0x10	16
131	0x6e	110
132	0xb3	-77
133	0x6b	107
134	0x52	82
135	0xac	-84
136	0x87	-121
137	0xd7	-41
138	0xf3	-13
139	0xe7	-25
140	0x8e	-114
141	0xd2	-46
142	0x81	-127
143	0xe8	-24
144	0x05	5
145	0xe1	-31
146	0x32	50
147	0x70	112
148	0xb0	-80
149	0x53	83
150	0x24	36
151	0xe8	-24
152	0x81	-127
153	0x77	119
154	0x0c	12
155	0x06	6
156	0x7f	127
157	0x50	80
158	0x2c	44
159	0xd9	-39
160	0x32	50
161	0x2a	42
162	0x47	71
163	0x08	8
164	0x33	51
165	0x7f	127
166	0xf1	-15
167	0x39	57
168	0x37	55
169	0xc9	-55
170	0x00	0
171	0x18	24
172	0xd4	-44
173	0xb1	-79
174	0x7f	127
175	0x03	3
176	0x83	-125
177	0x32	50
178	0xac	-84
179	0xda	-38
180	0xc8	-56
181	0xef	-17
182	0xe2	-30
183	0xfd	-3
184	0x5b	91
185	0x5b	91
186	0x04	4
187	0x4d	77
188	0x7f	127
189	0x24	36
190	0x44	68
191	0x7f	127
192	0xf5	-11
193	0x38	56
194	0x44	68
195	0xee	-18
196	0xde	-34
197	0x02	2
198	0x7f	127
199	0xd9	-39
200	0xde	-34
201	0x3f	63
202	0xc5	-59
203	0xfd	-3
204	0xd1	-47
205	0x07	7
206	0x0e	14
207	0xd4	-44
208	0xe2	-30
209	0x7f	127
210	0xf2	-14
211	0xe1	-31
212	0x2a	42
213	0xf8	-8
214	0xdc	-36
215	0xe5	-27
216	0x44	68
217	0x75	117
218	0x7f	127
219	0xb1	-79
220	0x04	4
221	0x24	36
222	0xb4	-76
223	0xb2	-78
224	0xd4	-44
225	0xfc	-4
226	0x15	21
227	0xf7	-9
228	0xe9	-23
229	0x4e	78
230	0xf8	-8
231	0x0d	13
232	0x7f	127
233	0x10	16
234	0x6b	107
235	0xf7	-9
236	0xd6	-42
237	0x7f	127
238	0xcf	-49
239	0x0f	15
240	0x0b	11
241	0x00	0
242	0x2b	43
243	0x9b	-101
244	0xcf	-49
245	0x81	-127
246	0xb3	-77
247	0x95	-107
248	0xa4	-92
249	0xaa	-86
250	0x9c	-100
251	0x0e	14
252	0xd6	-42
253	0xd1	-47
254	0x7f	127
255	0xfe	-2

onnx::Conv_106_scale f4 [64]
0	0x3c0a4975	0.008440365
1	0x3c2602fa	0.010132546
2	0x3be9b66d	0.0071323426
3	0x3becc6f7	0.007225867
4	0x3c2a4379	0.010392063
5	0x3c6c666f	0.014428719
6	0x3bbc6b0e	0.0057500666
7	0x3c082bbb	0.008311207
8	0x3c5a239e	0.013314156
9	0x3c02bfee	0.00798033
10	0x3bb68f2d	0.005571267
11	0x3c2d5778	0.010579936
12	0x3c6b620b	0.014366637
13	0x3bccfa93	0.0062554567
14	0x3bb29726	0.005450147
15	0x3bddfb0e	0.006774313
16	0x3c263cb8	0.010146312
17	0x3c24d9d0	0.010061696
18	0x3bff4f0b	0.007791405
19	0x3c020edc	0.007938113
20	0x3c01ac21	0.007914574
21	0x3c1f9365	0.009739731
22	0x3c3c38fa	0.011488194
23	0x3c71c116	0.014755508
24	0x3c1f67f6	0.009729376
25	0x3c932216	0.01796059
26	0x3bd78c36	0.0065779937
27	0x3b95115f	0.00454919
28	0x3c126024	0.0089340545
29	0x3c0af25b	0.008480634
30	0x3bc15b7e	0.0059007993
31	0x3c31b065	0.010845278
32	0x3c6dd920	0.014517099
33	0x3c26358e	0.010144604
34	0x3c25556c	0.010091167
35	0x3c3fdecb	0.011710833
36	0x3c93fdf5	0.018065432
37	0x3c51066d	0.01275788
38	0x3beca3d0	0.0072216764
39	0x3baa968d	0.0052059353
40	0x3c404303	0.011734727
41	0x3c07a01a	0.008277917
42	0x3c660fd7	0.014041862
43	0x3c12c047	0.008956975
44	0x3c2c0b68	0.010500766
45	0x3bf57caf	0.00749167
46	0x3c07144d	0.008244586
47	0x3c546db9	0.012965613
48	0x3c39d68e	0.011342658
49	0x3c2290be	0.009922205
50	0x3c506eeb	0.012721757
51	0x3bc79dfa	0.0060918303
52	0x3c001557	0.007817588
53	0x3bef91b9	0.0073110727
54	0x3c4a90a6	0.012363588
55	0x3bbec63f	0.0058219726
56	0x3be31ae2	0.006930695
57	0x3c516566	0.012780523
58	0x3c27f93f	0.010252296
59	0x3c4fe46c	0.012688737
60	0x3c454f89	0.012042888
61	0x3c3b996b	0.011450152
62	0x3c2f5b07	0.010702855
63	0x3bfb6150	0.0076715127

onnx::Conv_109_quantized i1 [64, 64, 1, 1]
0	0x9a	-102
1	0xeb	-21
2	0xe2	-30
3	0x25	37
4	0x02	2
5	0x0f	15
6	0xee	-18
7	0xac	-84
8	0x17	23
9	0xfb	-5
10	0x14	20
11	0x98	-104
12	0x96	-106
13	0xb6	-74
14	0x25	37
15	0x69	105
16	0x45	69
17	0x07	7
18	0xcc	-52
19	0x1c	28
20	0x8a	-118
21	0xb4	-76
22	0xcd	-51
23	0xf6	-10
24	0xf0	-16
25	0x34	52
26	0xf7	-9
27	0xf4	-12
28	0x1f	31
29	0xd9	-39
30	0x1b	27
31	0x29	41
32	0x28	40
33	0xdd	-35
34	0x14	20
35	0xf3	-13
36	0xcd	-51
37	0x1b	27
38	0x2b	43
39	0x2f	47
40	0xcb	-53
41	0x15	21
42	0x00	0
43	0x3a	58
44	0x35	53
45	0xa2	-94
46	0xb0	-80
47	0x81	-127
48	0xf4	-12
49	0xd8	-40
50	0xda	-38
51	0xcf	-49
52	0xed	-19
53	0x3a	58
54	0x44	68
55	0x4a	74
56	0x04	4
57	0xc3	-61
58	0xf1	-15
59	0xc9	-55
60	0xcb	-53
61	0xf1	-15
62	0xc4	-60
63	0xea	-22
64	0x27	39
65	0x09	9
66	0xc6	-58
67	0x0e	14
68	0xce	-50
69	0xcf	-49
70	0x13	19
71	0xd9	-39
72	0x24	36
73	0x07	7
74	0xed	-19
75	0x8c	-116
76	0xe3	-29
77	0x1e	30
78	0xda	-38
79	0x15	21
80	0xf6	-10
81	0x12	18
82	0x0a	10
83	0xf2	-14
84	0xa7	-89
85	0x07	7
86	0xa9	-87
87	0x06	6
88	0xf7	-9
89	0x24	36
90	0xe4	-28
91	0xfc	-4
92	0x0a	10
93	0x4a	74
94	0x7f	127
95	0x00	0
96	0x2e	46
97	0xd8	-40
98	0xd5	-43
99	0x15	21
100	0xd3	-45
101	0x0a	10
102	0xcd	-51
103	0x26	38
104	0x1b	27
105	0xf2	-14
106	0x0b	11
107	0x05	5
108	0xdf	-33
109	0x09	9
110	0xe2	-30
111	0x4b	75
112	0xe4	-28
113	0xff	-1
114	0x05	5
115	0x03	3
116	0xed	-19
117	0x07	7
118	0xae	-82
119	0xd2	-46
120	0xf8	-8
121	0xda	-38
122	0xef	-17
123	0x01	1
124	0x29	41
125	0xf7	-9
126	0x0b	11
127	0x38	56
128	0xed	-19
129	0xf9	-7
130	0xeb	-21
131	0x2d	45
132	0x81	-127
133	0xc6	-58
134	0xa3	-93
135	0xde	-34
136	0xe2	-30
137	0x27	39
138	0x73	115
139	0xf0	-16
140	0xc1	-63
141	0xd6	-42
142	0x5d	93
143	0xff	-1
144	0x1b	27
145	0x13	19
146	0xdf	-33
147	0x5e	94
148	0x47	71
149	0x06	6
150	0xf1	-15
151	0xda	-38
152	0xd1	-47
153	0x1d	29
154	0xc7	-57
155	0x26	38
156	0x1d	29
157	0x2f	47
158	0x42	66
159	0x01	1
160	0xd2	-46
161	0xce	-50
162	0x0c	12
163	0x1b	27
164	0xe6	-26
165	0xe7	-25
166	0x0a	10
167	0x1d	29
168	0x3f	63
169	0x12	18
170	0xba	-70
171	0xff	-1
172	0xd7	-41
173	0xd7	-41
174	0x10	16
175	0x52	82
176	0xc4	-60
177	0xf7	-9
178	0xf6	-10
179	0xff	-1
180	0x1c	28
181	0x17	23
182	0xf9	-7
183	0x09	9
184	0x2e	46
185	0xed	-19
186	0xe8	-24
187	0xb6	-74
188	0x14	20
189	0xce	-50
190	0xbe	-66
191	0x1c	28
192	0x00	0
193	0xe9	-23
194	0xa8	-88
195	0xf0	-16
196	0xf7	-9
197	0xf4	-12
198	0x75	117
199	0xf3	-13
200	0x1a	26
201	0xb4	-76
202	0x1c	28
203	0x0d	13
204	0x29	41
205	0xef	-17
206	0xa6	-90
207	0x19	25
208	0x81	-127
209	0x47	71
210	0x0a	10
211	0x2b	43
212	0xf9	-7
213	0xf9	-7
214	0xdb	-37
215	0xe3	-29
216	0xd4	-44
217	0x20	32
218	0x22	34
219	0xfb	-5
220	0x2c	44
221	0x23	35
222	0xd9	-39
223	0x91	-111
224	0xd9	-39
225	0x10	16
226	0x29	41
227	0xf4	-12
228	0x42	66
229	0xfe	-2
230	0xc4	-60
231	0x14	20
232	0x1a	26
233	0x0c	12
234	0xc3	-61
235	0x50	80
236	0x19	25
237	0x4e	78
238	0x13	19
239	0x9f	-97
240	0x12	18
241	0xc9	-55
242	0xdb	-37
243	0xee	-18
244	0x0d	13
245	0x40	64
246	0xe4	-28
247	0xfc	-4
248	0x1b	27
249	0xdc	-36
250	0xc6	-58
251	0x15	21
252	0xd1	-47
253	0x3a	58
254	0x4b	75
255	0xc3	-61

onnx::Conv_109_scale f4 [64]
0	0x3b16a021	0.0022983628
1	0x3b5b2c90	0.003344331
2	0x3b4250a3	0.0029650114
3	0x3b0f4439	0.0021860732
4	0x3b1da690	0.0024055578
5	0x3b4001f4	0.002929804
6	0x3b368154	0.0027848082
7	0x3b158bf1	0.0022819007
8	0x3b315f8e	0.0027065012
9	0x3b1fb2e2	0.0024368097
10	0x3b5f89e1	0.0034109282
11	0x3b192a28	0.0023371074
12	0x3b51bfba	0.0032005147
13	0x3b2b2ffe	0.0026121135
14	0x3b0d49c6	0.0021558865
15	0x3b4b67a0	0.0031037107
16	0x3b1477f8	0.0022654515
17	0x3b37eb34	0.0028063776
18	0x3b52ec95	0.003218447
19	0x3b362f59	0.0027799217
20	0x3b117106	0.0022192611
21	0x3b2c95ec	0.0026334478
22	0x3b2a9ee2	0.0026034643
23	0x3b315352	0.002705772
24	0x3b12fc2b	0.0022428136
25	0x3b223bc7	0.0024754868
26	0x3b1765cd	0.002310145
27	0x3b2d9530	0.0026486628
28	0x3b1e60e4	0.0024166638
29	0x3b0e32f8	0.002169786
30	0x3b19e3bc	0.0023481688
31	0x3b3d24a9	0.0028860962
32	0x3b41a1f9	0.0029546006
33	0x3b0fd491	0.0021946768
34	0x3b20ef7c	0.0024556806
35	0x3b1a1ef1	0.0023516978
36	0x3b278a3a	0.0025564567
37	0x3b304cee	0.0026901322
38	0x3b0e2ca1	0.0021694081
39	0x3b28b034	0.002573979
40	0x3b4343b9	0.0029795005
41	0x3b453416	0.003009086
42	0x3b3ce9a7	0.002882579
43	0x3b4a854b	0.0030902203
44	0x3b215edb	0.0024623189
45	0x3b48c7fb	0.0030636776
46	0x3b3dede8	0.0028980915
47	0x3b22f3ab	0.0024864476
48	0x3b42a0e5	0.0029697951
49	0x3b1650b1	0.002293628
50	0x3b0f6cdc	0.0021884954
51	0x3b3a83c2	0.0028459881
52	0x3b233280	0.0024901927
53	0x3b0a10f1	0.0021067227
54	0x3b2e78cf	0.00266223
55	0x3b1e782f	0.0024180522
56	0x3b3ed9c4	0.0029121498
57	0x3b3df080	0.002898246
58	0x3b2fef80	0.0026845634
59	0x3b37ef8f	0.0028066372
60	0x3af55cae	0.0018719637
61	0x3b0af7b4	0.0021204771
62	0x3b256d0f	0.0025242006
63	0x3b43b6b4	0.0029863538

onnx::Conv_112_quantized i1 [64, 1, 3, 3]
0	0x0c	12
1	0x7f	127
2	0x0c	12
3	0x28	40
4	0x74	116
5	0x0a	10
6	0x33	51
7	0x0d	13
8	0x0e	14
9	0xad	-83
10	0xcd	-51
11	0x7f	127
12	0x09	9
13	0x1a	26
14	0x7d	125
15	0x23	35
16	0xac	-84
17	0xd5	-43
18	0xc2	-62
19	0x13	19
20	0xa2	-94
21	0xa9	-87
22	0x7f	127
23	0xb4	-76
24	0x9c	-100
25	0x5f	95
26	0xc4	-60
27	0xa3	-93
28	0x9e	-98
29	0xac	-84
30	0xb5	-75
31	0x99	-103
32	0xcb	-53
33	0xd4	-44
34	0xb8	-72
35	0x81	-127
36	0x73	115
37	0x4d	77
38	0xf4	-12
39	0x42	66
40	0xe5	-27
41	0xa2	-94
42	0x81	-127
43	0x9f	-97
44	0xbd	-67
45	0xff	-1
46	0x4e	78
47	0xb8	-72
48	0xe3	-29
49	0x7f	127
50	0x59	89
51	0xc3	-61
52	0xd2	-46
53	0x33	51
54	0x8b	-117
55	0xe3	-29
56	0xbf	-65
57	0xae	-82
58	0x81	-127
59	0x1e	30
60	0xca	-54
61	0x8a	-118
62	0x47	71
63	0x58	88
64	0x7f	127
65	0x1d	29
66	0x53	83
67	0xf7	-9
68	0xfb	-5
69	0xdd	-35
70	0xb6	-74
71	0x10	16
72	0x08	8
73	0xf0	-16
74	0x00	0
75	0xa7	-89
76	0x05	5
77	0x7f	127
78	0xba	-70
79	0x06	6
80	0x65	101
81	0xc0	-64
82	0x43	67
83	0xc2	-62
84	0xf0	-16
85	0x35	53
86	0xd0	-48
87	0x7f	127
88	0x69	105
89	0xdd	-35
90	0x7f	127
91	0xc1	-63
92	0x3a	58
93	0x00	0
94	0xc3	-61
95	0x0a	10
96	0xcc	-52
97	0x6f	111
98	0xbd	-67
99	0x59	89
100	0xdd	-35
101	0x60	96
102	0x39	57
103	0xcf	-49
104	0x7c	124
105	0xfb	-5
106	0x81	-127
107	0x55	85
108	0xae	-82
109	0x81	-127
110	0x9b	-101
111	0xb3	-77
112	0xde	-34
113	0xd6	-42
114	0xa8	-88
115	0xe8	-24
116	0xaf	-81
117	0x1c	28
118	0x42	66
119	0x16	22
120	0xc8	-56
121	0x1f	31
122	0x76	118
123	0xc4	-60
124	0x27	39
125	0x7f	127
126	0xdd	-35
127	0xcd	-51
128	0xfc	-4
129	0x0d	13
130	0xef	-17
131	0x19	25
132	0x7f	127
133	0x5d	93
134	0x51	81
135	0xa5	-91
136	0x7f	127
137	0x5a	90
138	0x03	3
139	0x1d	29
140	0xe0	-32
141	0x13	19
142	0x8f	-113
143	0x98	-104
144	0xa4	-92
145	0xf1	-15
146	0x77	119
147	0x17	23
148	0xe1	-31
149	0x48	72
150	0x32	50
151	0x81	-127
152	0xdc	-36
153	0x15	21
154	0x55	85
155	0x6b	107
156	0xbc	-68
157	0xae	-82
158	0x5c	92
159	0xc3	-61
160	0x81	-127
161	0x03	3
162	0xa3	-93
163	0x81	-127
164	0xc1	-63
165	0x84	-124
166	0x18	24
167	0xf6	-10
168	0xc5	-59
169	0x54	84
170	0xcf	-49
171	0xb2	-78
172	0xc7	-57
173	0x3f	63
174	0x17	23
175	0x24	36
176	0x7f	127
177	0xcd	-51
178	0x1a	26
179	0x4c	76
180	0x0d	13
181	0xd4	-44
182	0xda	-38
183	0x81	-127
184	0xbd	-67
185	0xde	-34
186	0x06	6
187	0x98	-104
188	0x94	-108
189	0x7f	127
190	0xe1	-31
191	0x94	-108
192	0x28	40
193	0xb9	-71
194	0xcf	-49
195	0x48	72
196	0xc1	-63
197	0xee	-18
198	0x81	-127
199	0xf6	-10
200	0x71	113
201	0x0b	11
202	0x96	-106
203	0xf9	-7
204	0x68	104
205	0xe9	-23
206	0xbf	-65
207	0x39	57
208	0xfc	-4
209	0xc0	-64
210	0x44	68
211	0x29	41
212	0xd9	-39
213	0x7f	127
214	0x74	116
215	0x9c	-100
216	0xc5	-59
217	0x81	-127
218	0x71	113
219	0xc5	-59
220	0x0e	14
221	0xeb	-21
222	0x00	0
223	0x35	53
224	0xb9	-71
225	0x2f	47
226	0x57	87
227	0x16	22
228	0x21	33
229	0x7f	127
230	0x26	38
231	0x09	9
232	0x24	36
233	0x09	9
234	0xe5	-27
235	0x7f	127
236	0x27	39
237	0x6b	107
238	0x36	54
239	0x05	5
240	0x21	33
241	0xd1	-47
242	0xdb	-37
243	0x7f	127
244	0x0c	12
245	0xd3	-45
246	0x43	67
247	0x39	57
248	0x78	120
249	0xbe	-66
250	0x2b	43
251	0x06	6
252	0xc5	-59
253	0x18	24
254	0x3e	62
255	0xbf	-65

onnx::Conv_112_scale f4 [64]
0	0x3c0be749	0.008539029
1	0x3c2857c1	0.010274828
2	0x3bcf2867	0.006321955
3	0x3bbadc87	0.0057025584
4	0x3c15fe34	0.009154845
5	0x3c340362	0.010987135
6	0x3bf798f5	0.0075560757
7	0x3c411e51	0.011787013
8	0x3c66a74b	0.014077972
9	0x3c406b4c	0.011744332
10	0x3c314655	0.010819991
11	0x3bde70d8	0.0067883544
12	0x3bb2be5f	0.005454823
13	0x3c248e6f	0.010043724
14	0x3c2a7eb4	0.010406185
15	0x3c145648	0.009053774
16	0x3c27ee27	0.010249651
17	0x3bffe0ac	0.0078087654
18	0x3c0a8204	0.00845385
19	0x3c25e9a4	0.010126505
20	0x3c0debe8	0.008662201
21	0x3c09df8a	0.008415112
22	0x3c573ea2	0.013137491
23	0x3c0779d9	0.008268797
24	0x3c683251	0.014172153
25	0x3c2dbf62	0.010604711
26	0x3c1ca663	0.009561154
27	0x3c11063f	0.008851587
28	0x3c404d59	0.011737191
29	0x3bcc0bda	0.0062269988
30	0x3c19cc5b	0.009387101
31	0x3c3354ab	0.010945479
32	0x3c28deb2	0.010307001
33	0x3c0b6e61	0.008510203
34	0x3bf884a1	0.00758417
35	0x3bf1caa0	0.007378891
36	0x3c33b6a0	0.010968834
37	0x3c2529c5	0.010080759
38	0x3c013f16	0.007888576
39	0x3bf4ea8a	0.0074742483
40	0x3c056c7e	0.008143542
41	0x3c39b8f6	0.011335602
42	0x3bbd2c3d	0.005773096
43	0x3c02918a	0.0079692695
44	0x3bc90a49	0.0061352593
45	0x3c4805ed	0.012208444
46	0x3c038002	0.008026125
47	0x3c320326	0.010865008
48	0x3c0e798b	0.00869597
49	0x3c14fd48	0.00909359
50	0x3c34e112	0.011039989
51	0x3c42d9a3	0.011892709
52	0x3be2b232	0.006918215
53	0x3c0b4501	0.0085003385
54	0x3c00bedb	0.0078580035
55	0x3c1a48bb	0.009416754
56	0x3c2f89e7	0.010714031
57	0x3c09860b	0.008393775
58	0x3c2d4008	0.010574348
59	0x3c3caacd	0.011515331
60	0x3c1544dc	0.009110656
61	0x3c1abde2	0.009444686
62	0x3c4e6e81	0.012599588
63	0x3bfb53e8	0.0076699145

onnx::Conv_115_quantized i1 [64, 64, 1, 1]
0	0x01	1
1	0x91	-111
2	0xcd	-51
3	0x57	87
4	0x07	7
5	0xe0	-32
6	0xd3	-45
7	0x0f	15
8	0x50	80
9	0x16	22
10	0xdd	-35
11	0xff	-1
12	0xdc	-36
13	0x0e	14
14	0xa1	-95
15	0x7f	127
16	0x04	4
17	0xbc	-68
18	0x08	8
19	0x21	33
20	0x31	49
21	0x10	16
22	0x0b	11
23	0xa5	-91
24	0xb5	-75
25	0x24	36
26	0xf6	-10
27	0x4d	77
28	0xb6	-74
29	0x07	7
30	0xc3	-61
31	0x9c	-100
32	0x28	40
33	0x45	69
34	0x15	21
35	0x50	80
36	0xe7	-25
37	0x2d	45
38	0x0e	14
39	0xd7	-41
40	0xf8	-8
41	0xcd	-51
42	0x37	55
43	0x1a	26
44	0x10	16
45	0x49	73
46	0xf6	-10
47	0x47	71
48	0x07	7
49	0x19	25
50	0x07	7
51	0x0a	10
52	0x93	-109
53	0x03	3
54	0x02	2
55	0x56	86
56	0xcc	-52
57	0xaf	-81
58	0xdf	-33
59	0xf1	-15
60	0xc5	-59
61	0xbc	-68
62	0x06	6
63	0xce	-50
64	0xdd	-35
65	0x6d	109
66	0xd6	-42
67	0x2a	42
68	0x26	38
69	0x4f	79
70	0x01	1
71	0x06	6
72	0xdf	-33
73	0x02	2
74	0x2c	44
75	0xc4	-60
76	0xff	-1
77	0xf3	-13
78	0xe7	-25
79	0x27	39
80	0x44	68
81	0x2e	46
82	0x1f	31
83	0xba	-70
84	0xf4	-12
85	0xdd	-35
86	0x0a	10
87	0xee	-18
88	0xe6	-26
89	0x10	16
90	0xa3	-93
91	0xe4	-28
92	0x8a	-118
93	0xe0	-32
94	0x01	1
95	0xf7	-9
96	0x29	41
97	0x81	-127
98	0xce	-50
99	0xdd	-35
100	0x39	57
101	0xf6	-10
102	0x13	19
103	0xec	-20
104	0xf8	-8
105	0x4d	77
106	0xaf	-81
107	0x2e	46
108	0xfe	-2
109	0x1a	26
110	0x04	4
111	0x26	38
112	0xfb	-5
113	0xe6	-26
114	0x20	32
115	0xb6	-74
116	0x60	96
117	0xf7	-9
118	0xdc	-36
119	0x34	52
120	0xfd	-3
121	0xd8	-40
122	0xd0	-48
123	0xfc	-4
124	0x2d	45
125	0xea	-22
126	0xe8	-24
127	0x35	53
128	0x41	65
129	0xfd	-3
130	0xc9	-55
131	0x22	34
132	0xe0	-32
133	0x14	20
134	0x06	6
135	0x24	36
136	0xcc	-52
137	0x17	23
138	0x43	67
139	0x16	22
140	0xf9	-7
141	0xff	-1
142	0xfa	-6
143	0xf2	-14
144	0xbb	-69
145	0x52	82
146	0x32	50
147	0xd2	-46
148	0x81	-127
149	0xf5	-11
150	0x2b	43
151	0x25	37
152	0xac	-84
153	0x5f	95
154	0xd3	-45
155	0x1c	28
156	0xf7	-9
157	0x28	40
158	0x18	24
159	0xd7	-41
160	0x04	4
161	0x1b	27
162	0xf2	-14
163	0xff	-1
164	0x13	19
165	0x28	40
166	0xfd	-3
167	0xf8	-8
168	0xe5	-27
169	0x04	4
170	0x27	39
171	0x0c	12
172	0xf5	-11
173	0x2d	45
174	0xe5	-27
175	0x3e	62
176	0x10	16
177	0xf5	-11
178	0xe3	-29
179	0xe3	-29
180	0x4e	78
181	0x45	69
182	0xb7	-73
183	0x49	73
184	0x27	39
185	0xc4	-60
186	0xff	-1
187	0xfa	-6
188	0x31	49
189	0x16	22
190	0xde	-34
191	0x2a	42
192	0xe7	-25
193	0x59	89
194	0xce	-50
195	0xcf	-49
196	0x35	53
197	0xf0	-16
198	0x2d	45
199	0x40	64
200	0xaf	-81
201	0xd8	-40
202	0x22	34
203	0xf4	-12
204	0x06	6
205	0xc9	-55
206	0x2a	42
207	0xb3	-77
208	0x19	25
209	0x2c	44
210	0x12	18
211	0xf7	-9
212	0xfc	-4
213	0x26	38
214	0x02	2
215	0xed	-19
216	0xe4	-28
217	0x7f	127
218	0xb8	-72
219	0xe2	-30
220	0xe2	-30
221	0x53	83
222	0xaf	-81
223	0x4d	77
224	0xfb	-5
225	0x17	23
226	0x19	25
227	0x1c	28
228	0xee	-18
229	0xb5	-75
230	0x27	39
231	0x05	5
232	0xfd	-3
233	0xf2	-14
234	0x34	52
235	0x1b	27
236	0xeb	-21
237	0x17	23
238	0x57	87
239	0x00	0
240	0xa7	-89
241	0xfe	-2
242	0xea	-22
243	0xb7	-73
244	0xbd	-67
245	0x58	88
246	0xfe	-2
247	0xef	-17
248	0xfd	-3
249	0xee	-18
250	0x20	32
251	0xb6	-74
252	0x4d	77
253	0xf5	-11
254	0xf2	-14
255	0x3b	59

onnx::Conv_115_scale f4 [64]
0	0x3b2891bf	0.0025721637
1	0x3b4226d8	0.0029625203
2	0x3b3a332c	0.0028411848
3	0x3b3c14e2	0.002869897
4	0x3b2bf969	0.002624119
5	0x3b24243d	0.0025046014
6	0x3b366ee0	0.0027837083
7	0x3b386ea6	0.0028142123
8	0x3b357a65	0.002769136
9	0x3b07e891	0.0020737986
10	0x3b1ab4be	0.0023606266
11	0x3b2a491f	0.0025983525
12	0x3b6c1101	0.0036020877
13	0x3b473755	0.003039797
14	0x3aee6225	0.0018187208
15	0x3b21703e	0.0024633552
16	0x3b2824d5	0.002565672
17	0x3b19736c	0.0023414744
18	0x3b0e95ef	0.0021756848
19	0x3b321ba0	0.002717711
20	0x3b413f6f	0.0029487272
21	0x3b48da5b	0.0030647728
22	0x3b18a349	0.0023290685
23	0x3b191ded	0.0023363784
24	0x3b386569	0.0028136617
25	0x3b1ed023	0.0024232946
26	0x3b4d82e7	0.0031358541
27	0x3b401f6a	0.00293156
28	0x3b6d1de0	0.0036181137
29	0x3b409ed7	0.002939155
30	0x3b38faea	0.0028225728
31	0x3b2c26c4	0.0026268223
32	0x3b2282b1	0.0024797136
33	0x3b12261a	0.0022300542
34	0x3b451afb	0.0030075896
35	0x3b2a51d2	0.002598871
36	0x3af4ef55	0.0018687049
37	0x3b36a5d5	0.002786984
38	0x3b2bec1d	0.0026233264
39	0x3b35a774	0.0027718218
40	0x3b172639	0.0023063554
41	0x3b045d65	0.002019727
42	0x3b4343eb	0.002979512
43	0x3b24b685	0.0025133204
44	0x3b0c435a	0.002140245
45	0x3b199f9f	0.002344109
46	0x3b331332	0.0027324674
47	0x3b1b1a06	0.0023666634
48	0x3b10dd4b	0.0022104557
49	0x3b3c03f4	0.002868888
50	0x3b43af57	0.002985915
51	0x3ad474ab	0.0016209086
52	0x3b20f50b	0.002456012
53	0x3b13d88a	0.0022559487
54	0x3b25c08f	0.0025291776
55	0x3b25c8db	0.002529672
56	0x3b05a76d	0.0020393983
57	0x3b1eb350	0.0024215765
58	0x3b2a6001	0.0025997164
59	0x3b3314fc	0.002732574
60	0x3b29becd	0.002590108
61	0x3b37aa32	0.0028025028
62	0x3b63b62e	0.0034746039
63	0x3b403872	0.002933052

onnx::Conv_118_quantized i1 [64, 1, 3, 3]
0	0x4e	78
1	0x3e	62
2	0x65	101
3	0x72	114
4	0x50	80
5	0x4e	78
6	0x7f	127
7	0x5e	94
8	0x67	103
9	0x68	104
10	0x5a	90
11	0x7f	127
12	0x5e	94
13	0x5d	93
14	0x5f	95
15	0x77	119
16	0x6d	109
17	0x5d	93
18	0x81	-127
19	0x57	87
20	0x53	83
21	0xcf	-49
22	0x07	7
23	0x2e	46
24	0x31	49
25	0x52	82
26	0x66	102
27	0xad	-83
28	0x8a	-118
29	0x85	-123
30	0xcd	-51
31	0xad	-83
32	0xa6	-90
33	0xbf	-65
34	0xd1	-47
35	0x81	-127
36	0x76	118
37	0x5c	92
38	0x7f	127
39	0x6e	110
40	0x58	88
41	0x79	121
42	0x6d	109
43	0x4d	77
44	0x74	116
45	0xba	-70
46	0x81	-127
47	0x52	82
48	0xc3	-61
49	0xbc	-68
50	0x33	51
51	0xa7	-89
52	0xbe	-66
53	0x16	22
54	0x6c	108
55	0x67	103
56	0x5b	91
57	0xc9	-55
58	0xf5	-11
59	0xdd	-35
60	0xa3	-93
61	0xa0	-96
62	0x81	-127
63	0x46	70
64	0x6c	108
65	0x52	82
66	0x68	104
67	0x4f	79
68	0x4b	75
69	0x50	80
70	0x44	68
71	0x7f	127
72	0x81	-127
73	0x3f	63
74	0xbe	-66
75	0xad	-83
76	0x15	21
77	0xc1	-63
78	0x93	-109
79	0x24	36
80	0xa9	-87
81	0xb4	-76
82	0xbf	-65
83	0x81	-127
84	0xca	-54
85	0xce	-50
86	0xc3	-61
87	0x88	-120
88	0xb0	-80
89	0xa9	-87
90	0x6b	107
91	0x03	3
92	0x41	65
93	0x62	98
94	0x3a	58
95	0x4f	79
96	0x77	119
97	0x57	87
98	0x7f	127
99	0x7f	127
100	0x42	66
101	0x78	120
102	0x6f	111
103	0x20	32
104	0x49	73
105	0x49	73
106	0x42	66
107	0x6c	108
108	0x15	21
109	0x81	-127
110	0x1d	29
111	0x44	68
112	0xba	-70
113	0xf9	-7
114	0x5c	92
115	0xf0	-16
116	0xcf	-49
117	0x2a	42
118	0xbb	-69
119	0x34	52
120	0x23	35
121	0xb0	-80
122	0x41	65
123	0x2b	43
124	0x81	-127
125	0x3c	60
126	0x7f	127
127	0xfa	-6
128	0xa3	-93
129	0x44	68
130	0xea	-22
131	0xc3	-61
132	0x60	96
133	0x0b	11
134	0x81	-127
135	0xb3	-77
136	0xaf	-81
137	0xc5	-59
138	0xc1	-63
139	0xcd	-51
140	0xc2	-62
141	0x90	-112
142	0x81	-127
143	0x85	-123
144	0x63	99
145	0x71	113
146	0x66	102
147	0x0d	13
148	0x15	21
149	0x20	32
150	0x7c	124
151	0x6d	109
152	0x7f	127
153	0x91	-111
154	0xd0	-48
155	0xae	-82
156	0xb5	-75
157	0xc0	-64
158	0xb7	-73
159	0x81	-127
160	0x8e	-114
161	0x96	-106
162	0xd8	-40
163	0x98	-104
164	0x81	-127
165	0xa5	-91
166	0xdd	-35
167	0xc0	-64
168	0xbd	-67
169	0xe5	-27
170	0xd6	-42
171	0x9d	-99
172	0xb6	-74
173	0xd6	-42
174	0xde	-34
175	0xd7	-41
176	0xe0	-32
177	0xab	-85
178	0xac	-84
179	0x81	-127
180	0x7f	127
181	0x1b	27
182	0x93	-109
183	0x5c	92
184	0x12	18
185	0xec	-20
186	0x6d	109
187	0x43	67
188	0x5f	95
189	0xc1	-63
190	0xd3	-45
191	0xca	-54
192	0xca	-54
193	0xdc	-36
194	0xc7	-57
195	0x81	-127
196	0xde	-34
197	0x86	-122
198	0x8c	-116
199	0xb6	-74
200	0x81	-127
201	0xce	-50
202	0x9d	-99
203	0xfe	-2
204	0xd7	-41
205	0x0f	15
206	0x44	68
207	0x9d	-99
208	0xf4	-12
209	0x61	97
210	0x8c	-116
211	0xb9	-71
212	0x53	83
213	0x9c	-100
214	0xd8	-40
215	0x7f	127
216	0x59	89
217	0x4c	76
218	0x6b	107
219	0x4e	78
220	0x65	101
221	0x5c	92
222	0x7f	127
223	0x35	53
224	0x51	81
225	0xa1	-95
226	0xe3	-29
227	0xcd	-51
228	0x81	-127
229	0xb1	-79
230	0xb7	-73
231	0xbb	-69
232	0xcd	-51
233	0x9e	-98
234	0x81	-127
235	0xad	-83
236	0xd9	-39
237	0x9f	-97
238	0xca	-54
239	0xc8	-56
240	0xb1	-79
241	0xb7	-73
242	0xca	-54
243	0xd6	-42
244	0xcf	-49
245	0xc0	-64
246	0xbe	-66
247	0xab	-85
248	0xa8	-88
249	0x81	-127
250	0xb2	-78
251	0xa2	-94
252	0x3e	62
253	0x29	41
254	0x57	87
255	0x2b	43

onnx::Conv_118_scale f4 [64]
0	0x3bcebffd	0.006309508
1	0x3b88da4d	0.004176414
2	0x3c1e40d7	0.009659014
3	0x3bb3332a	0.0054687457
4	0x3bbdd1fc	0.0057928544
5	0x3c0ebabc	0.008711513
6	0x3c195c11	0.009360329
7	0x3bb6c33d	0.0055774734
8	0x3c3080ac	0.010772865
9	0x3be47eff	0.006973147
10	0x3bd39016	0.0064563854
11	0x3b9e2ddc	0.004827244
12	0x3ca4f8d9	0.020138191
13	0x3c1d324c	0.009594511
14	0x3c852ebd	0.016257638
15	0x3be6d46f	0.007044367
16	0x3badf9fb	0.005309341
17	0x3bae82b8	0.0053256415
18	0x3c05dfac	0.008171003
19	0x3bdaecdf	0.0066810693
20	0x3c19f87b	0.009397621
21	0x3bf3acc6	0.0074363677
22	0x3c3bc5a5	0.011460696
23	0x3bc7957d	0.0060908184
24	0x3bdc016a	0.0067140358
25	0x3bf733e3	0.007544027
26	0x3bbc267d	0.005741893
27	0x3bacc63f	0.005272656
28	0x3c3fdb95	0.011710067
29	0x3bc8215c	0.0061074924
30	0x3bbb2824	0.0057115722
31	0x3c19c803	0.009386065
32	0x3bf47509	0.0074602407
33	0x3bd12706	0.006382826
34	0x3b90600d	0.0044059814
35	0x3bda6388	0.006664697
36	0x3bf3c913	0.0074397414
37	0x3bd4ec64	0.0064979065
38	0x3c16ebc3	0.009211483
39	0x3bc7823b	0.0060885227
40	0x3ba3fddd	0.005004628
41	0x3c0ee905	0.008722548
42	0x3bcc0b31	0.00622692
43	0x3bb16180	0.0054132342
44	0x3c17bf23	0.009261879
45	0x3bda8e7d	0.006669818
46	0x3bc2ad55	0.005941073
47	0x3c03224b	0.008003782
48	0x3c320d15	0.010867377
49	0x3bea61d3	0.007152775
50	0x3c1edaa8	0.009695686
51	0x3c23552a	0.009969035
52	0x3bc411b5	0.005983556
53	0x3c0884e8	0.008332469
54	0x3bc85270	0.006113343
55	0x3bb0f20d	0.0053999485
56	0x3b97fbc8	0.004638169
57	0x3c1d93e0	0.009617776
58	0x3c075d0d	0.008261931
59	0x3bae01bd	0.005310266
60	0x3c06003e	0.008178769
61	0x3c09de7f	0.008414864
62	0x3bf017ab	0.00732704
63	0x3ba09f36	0.004901792

onnx::Conv_121_quantized i1 [64, 64, 1, 1]
0	0xf2	-14
1	0xd6	-42
2	0xc8	-56
3	0xf8	-8
4	0x0d	13
5	0xba	-70
6	0x15	21
7	0x43	67
8	0x17	23
9	0x19	25
10	0xbe	-66
11	0x5f	95
12	0x12	18
13	0x18	24
14	0xda	-38
15	0x4c	76
16	0xfb	-5
17	0x22	34
18	0x05	5
19	0xea	-22
20	0x3c	60
21	0x21	33
22	0xd0	-48
23	0x12	18
24	0x41	65
25	0xee	-18
26	0x2a	42
27	0xd7	-41
28	0xd6	-42
29	0x64	100
30	0xfc	-4
31	0x2b	43
32	0xba	-70
33	0xe1	-31
34	0xd1	-47
35	0xc1	-63
36	0xe8	-24
37	0x81	-127
38	0xeb	-21
39	0xfb	-5
40	0x24	36
41	0xda	-38
42	0xc9	-55
43	0xd1	-47
44	0xf6	-10
45	0x10	16
46	0x28	40
47	0xd9	-39
48	0xd8	-40
49	0x3a	58
50	0x2b	43
51	0x17	23
52	0xe6	-26
53	0xbd	-67
54	0xd3	-45
55	0xfc	-4
56	0x11	17
57	0x50	80
58	0x0d	13
59	0x40	64
60	0x13	19
61	0x3d	61
62	0x2f	47
63	0xc9	-55
64	0xfb	-5
65	0x31	49
66	0xd7	-41
67	0x1c	28
68	0xef	-17
69	0xd7	-41
70	0x16	22
71	0x2f	47
72	0x55	85
73	0xeb	-21
74	0xd2	-46
75	0x1a	26
76	0xf9	-7
77	0xf7	-9
78	0xc5	-59
79	0x0a	10
80	0xe8	-24
81	0x36	54
82	0x30	48
83	0xdd	-35
84	0x7f	127
85	0x4d	77
86	0xff	-1
87	0x02	2
88	0x0e	14
89	0xb8	-72
90	0x26	38
91	0xf2	-14
92	0xe2	-30
93	0x1e	30
94	0xe4	-28
95	0x25	37
96	0xf1	-15
97	0x0a	10
98	0xe1	-31
99	0xf2	-14
100	0x07	7
101	0xb2	-78
102	0x0a	10
103	0x1a	26
104	0x16	22
105	0x09	9
106	0xf7	-9
107	0xed	-19
108	0xf2	-14
109	0x24	36
110	0xe9	-23
111	0x54	84
112	0xe4	-28
113	0xfe	-2
114	0x54	84
115	0x3b	59
116	0xbe	-66
117	0xe9	-23
118	0xe2	-30
119	0xf6	-10
120	0xf2	-14
121	0x46	70
122	0x15	21
123	0x25	37
124	0x20	32
125	0x4b	75
126	0x06	6
127	0x04	4
128	0xee	-18
129	0xe3	-29
130	0xcf	-49
131	0xdb	-37
132	0x57	87
133	0xd7	-41
134	0x28	40
135	0x3f	63
136	0x20	32
137	0xf2	-14
138	0x27	39
139	0x39	57
140	0xb7	-73
141	0xc6	-58
142	0xdd	-35
143	0x31	49
144	0xea	-22
145	0xaa	-86
146	0x11	17
147	0x08	8
148	0xd4	-44
149	0x1e	30
150	0xfc	-4
151	0x08	8
152	0xef	-17
153	0x1d	29
154	0x31	49
155	0x19	25
156	0x3d	61
157	0xdf	-33
158	0x15	21
159	0x17	23
160	0xce	-50
161	0xbc	-68
162	0x18	24
163	0x7f	127
164	0x10	16
165	0x31	49
166	0xef	-17
167	0x38	56
168	0x40	64
169	0x00	0
170	0xba	-70
171	0xd1	-47
172	0x43	67
173	0xf4	-12
174	0x4d	77
175	0x92	-110
176	0xe4	-28
177	0xff	-1
178	0xd4	-44
179	0x1e	30
180	0xe9	-23
181	0xba	-70
182	0x19	25
183	0xd8	-40
184	0x2b	43
185	0x05	5
186	0x3d	61
187	0xe7	-25
188	0xf8	-8
189	0x20	32
190	0x09	9
191	0xd7	-41
192	0x44	68
193	0xe4	-28
194	0xdc	-36
195	0x11	17
196	0xfc	-4
197	0x0d	13
198	0x2c	44
199	0x08	8
200	0x30	48
201	0xd1	-47
202	0x7f	127
203	0x10	16
204	0xee	-18
205	0xd0	-48
206	0x35	53
207	0xbf	-65
208	0x0c	12
209	0xea	-22
210	0xf5	-11
211	0x0f	15
212	0x1f	31
213	0x08	8
214	0xee	-18
215	0x22	34
216	0xf1	-15
217	0xe0	-32
218	0x25	37
219	0x2d	45
220	0x12	18
221	0xdd	-35
222	0x02	2
223	0x0f	15
224	0x21	33
225	0xee	-18
226	0xf2	-14
227	0xdb	-37
228	0xe9	-23
229	0xff	-1
230	0xff	-1
231	0xe9	-23
232	0x04	4
233	0xfc	-4
234	0x05	5
235	0x22	34
236	0xf3	-13
237	0xf7	-9
238	0x03	3
239	0x09	9
240	0xf8	-8
241	0xf2	-14
242	0xf2	-14
243	0x18	24
244	0x00	0
245	0xd9	-39
246	0xcf	-49
247	0xe9	-23
248	0x08	8
249	0x0d	13
250	0x59	89
251	0xe1	-31
252	0x4f	79
253	0x29	41
254	0x0d	13
255	0x00	0

onnx::Conv_121_scale f4 [64]
0	0x3c4d3c69	0.01252661
1	0x3c3672d8	0.011135779
2	0x3c84d33c	0.016214006
3	0x3c7b83e8	0.015351273
4	0x3c7b9b4d	0.015356851
5	0x3c67d0a0	0.014148861
6	0x3c05947a	0.008153075
7	0x3c7b7dd3	0.015349823
8	0x3c3c5ed9	0.011497223
9	0x3c28b782	0.010297658
10	0x3c859ec9	0.016311066
11	0x3c78f728	0.015195645
12	0x3ca4cc6e	0.02011701
13	0x3c972c41	0.01845372
14	0x3c4dab5b	0.012553061
15	0x3c20fec7	0.009826369
16	0x3c71eff6	0.014766684
17	0x3c364a55	0.011126121
18	0x3c97685d	0.018482381
19	0x3cbfeecf	0.023429302
20	0x3c2509bd	0.010073123
21	0x3cbc1770	0.022960395
22	0x3c9ae87c	0.018909685
23	0x3c7832b4	0.015148807
24	0x3ca900a7	0.020630194
25	0x3ca45de2	0.020064298
26	0x3cd443d4	0.02591125
27	0x3c7ad6e4	0.015310023
28	0x3c83c54e	0.016085293
29	0x3c31bb1a	0.010847831
30	0x3c1fa6e9	0.009744384
31	0x3c57144a	0.013127396
32	0x3c9752ed	0.01847216
33	0x3c851dd4	0.016249575
34	0x3c879101	0.016548635
35	0x3c80c5f7	0.015719397
36	0x3c8415fd	0.016123766
37	0x3c70dfe2	0.014701815
38	0x3cb4e63b	0.022082439
39	0x3c6d3717	0.0144784665
40	0x3c445aaf	0.011984511
41	0x3c68d4ae	0.014210863
42	0x3c90aa19	0.017659234
43	0x3c5b5f1c	0.013389375
44	0x3ca40667	0.020022584
45	0x3c9d886e	0.019230094
46	0x3caf2abb	0.02138268
47	0x3c9d3148	0.019188538
48	0x3c7d330c	0.015454065
49	0x3c4cd70b	0.012502442
50	0x3c8fa4a7	0.017534567
51	0x3bf3161f	0.0074184085
52	0x3c77e40f	0.015130057
53	0x3bf53609	0.007483248
54	0x3c899043	0.016792422
55	0x3c99ac53	0.018758928
56	0x3c8718b5	0.016491273
57	0x3c108c00	0.008822441
58	0x3c78cb22	0.015185149
59	0x3c8bd931	0.017071338
60	0x3c67efab	0.014156262
61	0x3ca3f7a1	0.02001554
62	0x3c0bce94	0.008533139
63	0x3c4d315b	0.012523974

classifier.weight_quantized i1 [64, 12]
0	0x45	69
1	0xcb	-53
2	0xb9	-71
3	0xe7	-25
4	0x63	99
5	0x6d	109
6	0xc2	-62
7	0xf3	-13
8	0xea	-22
9	0xdb	-37
10	0xef	-17
11	0x2b	43
12	0xef	-17
13	0xee	-18
14	0xd9	-39
15	0xe6	-26
16	0xe4	-28
17	0x7f	127
18	0x0f	15
19	0xe8	-24
20	0xc9	-55
21	0xea	-22
22	0xf8	-8
23	0x59	89
24	0x68	104
25	0xd2	-46
26	0x05	5
27	0x6b	107
28	0xbb	-69
29	0xb1	-79
30	0xc6	-58
31	0x5e	94
32	0x9c	-100
33	0x1e	30
34	0xe2	-30
35	0x23	35
36	0xdd	-35
37	0xc4	-60
38	0x72	114
39	0xf6	-10
40	0xca	-54
41	0xcf	-49
42	0x70	112
43	0xd4	-44
44	0xfd	-3
45	0xd5	-43
46	0x00	0
47	0x42	66
48	0xc4	-60
49	0xb8	-72
50	0xba	-70
51	0xaf	-81
52	0x6e	110
53	0x39	57
54	0xc0	-64
55	0x7c	124
56	0x75	117
57	0xe8	-24
58	0xee	-18
59	0xff	-1
60	0xdf	-33
61	0xb3	-77
62	0xd2	-46
63	0xd4	-44
64	0x7f	127
65	0x6f	111
66	0xd8	-40
67	0xb9	-71
68	0x1e	30
69	0xf5	-11
70	0xec	-20
71	0x3f	63
72	0xef	-17
73	0x0e	14
74	0xf3	-13
75	0x12	18
76	0xed	-19
77	0xef	-17
78	0xf4	-12
79	0xcb	-53
80	0x08	8
81	0xe4	-28
82	0x27	39
83	0x56	86
84	0x32	50
85	0x37	55
86	0xe1	-31
87	0x76	118
88	0xb9	-71
89	0xf8	-8
90	0xc6	-58
91	0x9e	-98
92	0xb9	-71
93	0x67	103
94	0xd9	-39
95	0x27	39
96	0xc9	-55
97	0xb6	-74
98	0x42	66
99	0xd7	-41
100	0xd1	-47
101	0xe3	-29
102	0x72	114
103	0xdb	-37
104	0xf4	-12
105	0x1d	29
106	0xf6	-10
107	0x4e	78
108	0xf7	-9
109	0xd5	-43
110	0xd2	-46
111	0xc6	-58
112	0x09	9
113	0x3f	63
114	0x09	9
115	0xfa	-6
116	0xdb	-37
117	0xf5	-11
118	0xfd	-3
119	0x74	116
120	0xcc	-52
121	0xaa	-86
122	0x68	104
123	0xc7	-57
124	0x17	23
125	0x6f	111
126	0x4b	75
127	0xb3	-77
128	0x14	20
129	0xcc	-52
130	0xf3	-13
131	0x06	6
132	0xd2	-46
133	0x89	-119
134	0x57	87
135	0x48	72
136	0xc7	-57
137	0xda	-38
138	0xb3	-77
139	0x14	20
140	0x7f	127
141	0x28	40
142	0xe2	-30
143	0x03	3
144	0xe2	-30
145	0x6b	107
146	0xd1	-47
147	0xc3	-61
148	0xbd	-67
149	0xda	-38
150	0xe0	-32
151	0x52	82
152	0x75	117
153	0xd7	-41
154	0xf5	-11
155	0x30	48
156	0xb1	-79
157	0x16	22
158	0x62	98
159	0x18	24
160	0xab	-85
161	0xa4	-92
162	0x34	52
163	0xcd	-51
164	0x43	67
165	0x5c	92
166	0xdc	-36
167	0xed	-19
168	0xd4	-44
169	0xb4	-76
170	0x55	85
171	0xcf	-49
172	0xd6	-42
173	0xd3	-45
174	0x7c	124
175	0xda	-38
176	0x0d	13
177	0xe1	-31
178	0x09	9
179	0x4a	74
180	0xf2	-14
181	0xd0	-48
182	0xdd	-35
183	0xce	-50
184	0x09	9
185	0x37	55
186	0x23	35
187	0xdf	-33
188	0xf0	-16
189	0xf0	-16
190	0x01	1
191	0x6a	106
192	0xec	-20
193	0x63	99
194	0xbb	-69
195	0xda	-38
196	0x58	88
197	0x28	40
198	0x48	72
199	0xdb	-37
200	0x29	41
201	0xdb	-37
202	0xed	-19
203	0xb4	-76
204	0xd0	-48
205	0xcf	-49
206	0x62	98
207	0xc9	-55
208	0xad	-83
209	0xc4	-60
210	0x58	88
211	0xfd	-3
212	0x49	73
213	0xfe	-2
214	0x01	1
215	0x24	36
216	0xab	-85
217	0xb9	-71
218	0x55	85
219	0xc5	-59
220	0x36	54
221	0xdb	-37
222	0xbb	-69
223	0x75	117
224	0x40	64
225	0xdc	-36
226	0x33	51
227	0x04	4
228	0x66	102
229	0x77	119
230	0xcf	-49
231	0x5f	95
232	0xc7	-57
233	0xba	-70
234	0xbf	-65
235	0x30	48
236	0xae	-82
237	0xb6	-74
238	0xf0	-16
239	0x2e	46
240	0xf2	-14
241	0xb9	-71
242	0xcb	-53
243	0xcf	-49
244	0xde	-34
245	0xf3	-13
246	0x7a	122
247	0xec	-20
248	0xfd	-3
249	0xf4	-12
250	0xff	-1
251	0x5f	95
252	0x4d	77
253	0xf7	-9
254	0xba	-70
255	0xd9	-39

classifier.weight_scale f4 [12]
0	0x3c07cfcf	0.0082892915
1	0x3bd765ea	0.0065734284
2	0x3bf9d287	0.007623974
3	0x3bdfc6c7	0.006829116
4	0x3be451d7	0.006967764
5	0x3bf204d7	0.007385831
6	0x3c0092ca	0.007847497
7	0x3bf418db	0.007449252
8	0x3be7c61e	0.007073178
9	0x3c1a8260	0.009430498
10	0x3c097273	0.008389103
11	0x3c0ac99f	0.008470922

classifier.bias_quantized u1 [12]
0	0x82	130
1	0x9f	159
2	0x6a	106
3	0x5b	91
4	0x63	99
5	0x6c	108
6	0x49	73
7	0x61	97
8	0xcc	204
9	0x31	49
10	0x00	0
11	0xff	255
