onnx_models/ks_raw.onnx (onnx, 95798 bytes, 20 tensors)

classifier.weight f4 [12, 64]
000000 03 00 12 3f 66 de 0e be 1a 85 5c 3f 17 8b 95 be
       0.5703127 -0.13952026 0.86140597 -0.2920768
000010 8d b3 fd be 6c ee 8c be 4c cd 12 be 80 3b d4 3e
       -0.4955105 -0.2752565 -0.14336127 0.41451645
000020 2d 71 e8 be 5d 66 9f bd 84 2b db be 1d 85 c1 be
       -0.45398846 -0.07783196 -0.42806637 -0.3779687
000030 c9 c4 7c be 4c c7 26 bf 9b 55 b9 be 1a 8a ec bd
       -0.24684443 -0.6514785 -0.36198124 -0.11549778
000040 32 ff 26 be 65 ae cb be dd 1d 35 bf 82 e0 57 3f
       -0.16308287 -0.3978149 -0.7074869 0.84326947
000050 62 7d eb bd a7 8f 23 3f 19 f0 e1 3e c8 06 37 bd
       -0.11498524 0.6389107 0.44128492 -0.0446842
000060 2f c0 86 3f f1 cd 4b bf 3c a9 22 3f 72 3a 05 bd
       1.05274 -0.79611117 0.6353948 -0.03252644
000070 a4 1c aa be e3 0c a7 3d 75 f4 17 bc b3 da 22 be
       -0.33224976 0.08156755 -0.009274592 -0.1590374
000080 85 e9 05 3f 2e 9f 3e 3f d0 f5 ca be 71 f6 d3 be
       0.5230945 0.7446164 -0.39640665 -0.41398957
000090 2c 24 aa be 73 a5 27 bf 04 91 0c bf a6 4e 3c 3f
       -0.33230722 -0.6548683 -0.54908776 0.7355751
0000a0 bc 1e 08 be 6a 8c e2 3e 29 95 1d 3f 35 d5 87 be
       -0.13292974 0.44247752 0.61555725 -0.26529852
0000b0 98 4e 1e be 67 da cd be c7 ac 06 bf 45 62 98 39
       -0.15459669 -0.4020569 -0.5260739 0.00029064916
0000c0 77 ce 7e 3e 70 ff 82 3f fb f6 ea be c9 b2 ae bd
       0.24883448 1.0234203 -0.45891556 -0.08530194
0000d0 df 19 c5 be 69 e1 8e be 62 1f 83 3e 32 26 0e bf
       -0.384963 -0.2790635 0.2560988 -0.5552703
0000e0 a6 f6 11 3f 37 20 bf be 2c 6b 73 3f db d3 e0 be
       0.5701698 -0.37329265 0.95085406 -0.43911633
0000f0 2f ed 0e 3e 9b 52 2a 3f ba c8 62 be 4e 55 84 3e
       0.13957666 0.66532296 -0.22146884 0.25846332
000100 88 28 b2 be f7 81 f6 bd 97 f4 99 be 87 c4 c8 be
       -0.34796548 -0.120365076 -0.3006942 -0.39212438
000110 8c a6 f2 be ec bd 00 bf aa b6 b9 3d c0 ad b7 3e
       -0.4739269 -0.502898 0.090680435 0.35874748
000120 97 5d f8 be cc fd 91 be a2 96 10 bf f5 b4 47 bf
       -0.48508903 -0.28513944 -0.5647985 -0.78010494
000130 84 af 33 3f ee de 13 3e 98 55 ff be a7 06 a2 be
       0.7018969 0.1444051 -0.4986999 -0.316457
000140 8e d2 26 3f a9 26 a4 be 6a e8 ed be c2 d5 47 3f
       0.6516503 -0.32060745 -0.4646638 0.78060544
000150 dd 5e ef be 9a 25 7f bd 66 90 0c be 0d 20 ac 3e
       -0.46752062 -0.06229172 -0.13726959 0.33618203
000160 7f c2 92 be 43 47 fa be bf 07 45 3f b5 04 13 bf
       -0.28664014 -0.48882493 0.76964945 -0.5742906
000170 77 2b 4a 3f cc 8a ca 3c ce 5e 3d be 8b 5b ce 3d
       0.7897257 0.024724387 -0.18493196 0.10076054
000180 e0 36 1f be 9f 8d 4b 3f 5c 86 c6 3d 7a 71 eb 3e
       -0.15548277 0.7951297 0.09693596 0.45985013
000190 d7 03 15 bf 66 e2 2c bf 40 14 ef bd 2a a7 ab be
       -0.58208984 -0.67532957 -0.11673784 -0.33525974
0001a0 83 15 c6 be 0c 54 32 bc 93 51 b3 be 51 f3 c0 3e
       -0.38688287 -0.010884296 -0.35023174 0.37685636
0001b0 c0 6e 44 3e 87 e3 85 be 4b 56 43 3f 9d 33 1c 3f
       0.19182873 -0.26150152 0.7630355 0.61016256
0001c0 24 58 ea be 49 37 be be 1e b7 55 3f 13 d5 90 3e
       -0.4577037 -0.37151554 0.8348254 0.28287563
0001d0 fa 1a 91 3e 0a 5c 2f be f0 4b 40 3f 80 44 1a 3f
       0.28340894 -0.17124954 0.7511587 0.6026077
0001e0 28 43 48 3f 4d 2a a1 be 1c 66 8c 3e fe b4 fd be
       0.7822747 -0.31477585 0.27421653 -0.4955215
0001f0 48 66 35 be ea 93 0f 3f b0 33 b5 be 86 76 33 bf
       -0.17714798 0.56085074 -0.35390997 -0.7010273
000200 d0 9e 09 bf db ce 98 be e2 14 17 3d 11 99 5d 3f
       -0.53757954 -0.29845318 0.03688515 0.86561686
000210 c6 58 08 bf e8 2c b3 be 18 dd cc bd bc 85 71 be
       -0.5326046 -0.34995198 -0.10003108 -0.23586172
000220 ff 1e 00 3f 8f 6c b3 be 0d cd 4a 3f f9 e0 28 3f
       0.50047296 -0.3504376 0.7921913 0.6596828
000230 b4 77 b6 be 1f 66 3e 3f f8 b8 26 3f 75 af 89 be
       -0.356382 0.74374574 0.6512599 -0.26891676
000240 3b 08 06 bf 39 03 3f 3f 73 84 26 3f 2d dd be be
       -0.5235631 0.7461429 0.6504585 -0.3727812
000250 23 fe cf be 56 98 08 bf 3e f6 c4 3e 0b 93 af be
       -0.40623578 -0.53357446 0.38469118 -0.34291872
000260 6c 36 46 3e 07 ea dc 3d 36 15 17 bf 0e 83 58 3f
       0.19356698 0.10786825 -0.5901674 0.84574974
000270 b4 e2 dd be a4 cc 10 3e fa 47 32 be 13 95 00 3d
       -0.43337023 0.14140564 -0.1741027 0.03139217
000280 c0 b2 9c be 08 6c e9 bd d6 f6 7d be 69 b1 44 3f
       -0.30605125 -0.113975585 -0.24801192 0.76833206
000290 9c 3d 3a 3f fe 08 55 3f 9b c2 9c 3e cf 04 c8 bd
       0.7275026 0.83216846 0.30617222 -0.09766542
0002a0 26 0e 19 3f ed 10 04 bf 41 fa 23 3f cf d1 a5 bd
       0.59787214 -0.51588327 0.6405373 -0.080966584
0002b0 68 bd f0 be 0e b8 98 be 07 01 cc be c9 83 bd be
       -0.47019506 -0.29827923 -0.39844534 -0.37014607
0002c0 3d 71 75 be 32 32 d6 be ef 20 02 bf c5 08 ac be
       -0.23968978 -0.4183517 -0.508315 -0.3360044
0002d0 98 35 82 be 8d c9 97 be 52 65 fd be b2 db af 3e
       -0.25431514 -0.2964596 -0.49491364 0.34347302
0002e0 f7 0f 00 bf 02 a7 84 be c2 6c 16 bf 4f 7f 0f 3e
       -0.5002436 -0.25908667 -0.587597 0.14013408
0002f0 4e c1 2d be 7f 77 61 be 49 5b ca bd e2 de 77 3f
       -0.16968271 -0.2201824 -0.098806925 0.9682447
000300 2d 89 2e be 34 62 32 be bc 9f 3b 3f 4a aa 92 bd
       -0.17044516 -0.17420274 0.7329061 -0.07161386
000310 93 25 0e bf a4 b2 99 be 8a 94 ff 3d ea 77 4d 3f
       -0.55526084 -0.30019104 0.124795035 0.802611
000320 8c 19 91 be 80 84 ca be a1 07 c6 be cf 9f fb 3e
       -0.28339803 -0.39554214 -0.38677695 0.49145362
000330 f1 a5 d3 be 9e 30 2a 3e 0e 62 ac be 86 cf ae be
       -0.4133754 0.16620108 -0.3366856 -0.34142703
000340 c3 fb 84 be cb a0 c0 be c8 0a d0 be 1e 92 25 3f
       -0.2597333 -0.37622675 -0.40633225 0.6467608
000350 13 99 ab be 87 0e 87 be 0c c1 8a bc ec d5 39 3f
       -0.33515224 -0.2637827 -0.016937755 0.72592044
000360 84 34 dc be ca 57 02 bf 3c 67 46 3f 54 a1 f5 3e
       -0.43008816 -0.50915205 0.77501273 0.47974646
000370 ea 58 32 3f e7 d9 d5 bd 20 1f 5e be 28 e7 12 bf
       0.6966692 -0.10441952 -0.21691561 -0.57383966
000380 25 96 db be e9 3d 1c 3f ef 62 9a bd ca 45 0f bf
       -0.4288799 0.6103197 -0.07538401 -0.55965865
000390 a7 41 14 3f 66 b8 f1 be 2f e8 26 be 74 7c 19 bf
       0.5791268 -0.47210997 -0.16299509 -0.59955525
0003a0 c8 c8 b3 be f0 94 2e 3f 32 e8 0b bf 71 f9 5b 3f
       -0.3511412 0.6819601 -0.54651177 0.8592749
0003b0 e1 e7 ac be 4e 5d d5 bb a8 1f 5a 3f 96 1f 3e bf
       -0.3377066 -0.006511367 0.85204554 -0.74266946
0003c0 67 c3 e5 3e 36 42 8a be 8b 00 11 3c 65 8e e5 be
       0.44875643 -0.2700364 0.008850227 -0.448352
0003d0 a1 50 e3 be 76 6b ce be 7a a1 19 bf 18 a1 28 3f
       -0.44397452 -0.4031636 -0.6001202 0.6587081
0003e0 15 d8 4f 3f 79 88 b6 be 92 e7 6d be 94 34 c3 be
       0.8118909 -0.35650995 -0.23232868 -0.3812605
0003f0 72 29 ef bd 39 07 5e bf a1 45 9c be 26 e1 2d 3f
       -0.11677827 -0.8672977 -0.30521873 0.67921674

classifier.bias f4 [12]
000000 55 0a 4c 3d fb ce 01 3e 15 c6 7e bc 49 cd 66 bd
       0.04981454 0.12676613 -0.015550156 -0.05634812
000010 cf be 10 bd 4d ea 32 bc a0 2b db bd d8 6b 25 bd
       -0.03533822 -0.0109201195 -0.1070168 -0.04038605
000020 01 12 80 3e 28 cc 2e be 1f 6b 9c be 36 b1 c6 3e
       0.25013736 -0.17070067 -0.30550477 0.38807076

onnx::Conv_97 f4 [64, 1, 10, 4]
000000 37 fa b9 3b 7a 8b 6c ba d3 c8 8e bb 7d be 33 bd
       0.00567558 -0.0009023469 -0.004357436 -0.043882836
000010 f3 36 b1 3c 1c 54 a8 3b d4 41 21 bd 1e c6 0f bd
       0.021632647 0.0051369797 -0.03936942 -0.03510105
000020 9e 01 35 3c b8 a5 8d bb 11 9c 1f bd 68 61 e3 bc
       0.011047749 -0.0043227337 -0.038967196 -0.027756408
000030 c5 a6 34 3c 24 32 28 bc ce 69 59 bd 0c 61 01 bc
       0.011026089 -0.010265861 -0.05307942 -0.007896673
000040 aa c3 5e bc a9 87 88 bc e3 36 19 bd 1b c6 b8 3b
       -0.013596455 -0.01666625 -0.03740586 0.0056388504
000050 b5 e1 89 bc 67 e5 18 bc e0 83 2d ba e0 33 b3 3c
       -0.016831258 -0.0093320375 -0.0006619077 0.021875322
000060 44 7d 05 bc 75 ca 33 3c 13 02 82 3c 76 8d 27 3d
       -0.008147541 0.0109735625 0.01587013 0.040906392
000070 93 c6 ad bb c0 9c b0 3b 05 3c e1 3c ab e2 31 3c
       -0.005303213 0.00538978 0.02749444 0.0108572645
000080 75 c2 45 bb e3 29 8d bb ac 8c b9 3c e4 14 c4 ba
       -0.003017572 -0.004307972 0.022650085 -0.0014959839
000090 59 00 a7 3c f4 6a 44 3b 90 6b ac 3c 85 ab 4c 39
       0.020385908 0.0029970976 0.021047384 0.00019518852
0000a0 69 8f d7 3c fa 27 4d 3b 47 22 d9 3b fb f3 df bb
       0.0263135 0.0031304345 0.0066264006 -0.0068345047
0000b0 6b 19 11 3c a6 b4 2d 3c 67 95 17 3c a0 9d 93 bb
       0.008856158 0.010602152 0.009251929 -0.0045048743
0000c0 9a cc 04 bc a9 ac a6 3c da 7d dc b9 40 ce b2 ba
       -0.008105421 0.020346003 -0.00042055437 -0.001364179
0000d0 cc 60 a4 3b 72 db 71 3c 0c 28 7e 3a 80 c0 28 bb
       0.005016422 0.0147617925 0.00096952985 -0.0025749505
0000e0 68 02 1a bc 32 47 f8 3a 8a d9 8c ba b8 71 9a 3a
       -0.009399988 0.0018942116 -0.0010745984 0.0011783158
0000f0 06 6a 12 bb 61 ef 74 3b e1 1a 30 3a a2 d4 0a 3c
       -0.0022341027 0.0037374126 0.00067178725 0.008473547
000100 2f a4 bd bb fc f9 0d b9 4c 25 06 bc 2d 87 44 3b
       -0.0057873945 -0.00013539934 -0.008187603 0.0029987798
000110 59 5e fe bc a5 f0 61 bc 7e 02 18 bc 3f 8a 5b bb
       -0.031050848 -0.013790284 -0.009277938 -0.003349915
000120 55 1a d9 3b 13 b1 42 bd 55 89 68 bc 5c 6e 8b bb
       0.0066254535 -0.047532152 -0.014192899 -0.004255099
000130 5b 8b 26 3d 6a a0 5b bd d3 e2 92 bb 12 08 1a bc
       0.040660243 -0.05361978 -0.004482606 -0.009401338
000140 da 0c 0e bb 07 2b e1 bc 3f d8 01 bb c9 36 b3 bc
       -0.002167514 -0.027486337 -0.001981273 -0.02187671
000150 f3 d1 67 bb cb e3 52 bd 9b 26 bd ba 80 dd 03 bd
       -0.0035372942 -0.05148677 -0.0014431061 -0.03219366
000160 29 d1 0d 3b 72 51 34 bd ad ed dc 3b dd 47 00 3c
       0.0021639562 -0.044022985 0.0067422003 0.007829634
000170 b1 ac 49 bb b4 6f 1e 3d 1a d9 f2 3c c4 9b 9a 3c
       -0.0030773098 0.038680747 0.029644538 0.018873103
000180 32 ba 66 3c 1d ee ca 3d 77 1b 4f 3c bf 4e 43 3c
       0.014082478 0.09908698 0.0126408255 0.01192063
000190 1d 6e 6d 3c d7 93 49 3d 6e e1 cd bc 2f c0 7c bb
       0.014491585 0.049213257 -0.025131907 -0.0038566699
0001a0 d7 66 18 3b 19 c9 ad bc 88 23 32 bd bb a8 d5 bb
       0.0023254657 -0.021214055 -0.043490916 -0.0065203584
0001b0 04 1b 91 3b e0 8a 18 bd 67 e0 77 bb d0 0a 22 ba
       0.0044282693 -0.037241817 -0.0037822963 -0.0006181421
0001c0 cb 2f 0a bc ac b5 17 bd ae 67 a5 3c e6 d9 2d bb
       -0.008434246 -0.03703849 0.02019104 -0.0026527583
0001d0 29 49 04 3c d8 fc 09 bb fc d0 65 3c ae 50 bb ba
       0.008074083 -0.0021055248 0.014026877 -0.0014291012
0001e0 84 de 3b 3c 2c 29 3f bc d8 3f a8 bb 4e 58 da bb
       0.011466626 -0.011667531 -0.005134564 -0.006663359
0001f0 d6 88 32 bd a9 30 cb bc a8 71 68 bc 5a 29 6e bc
       -0.04358753 -0.024803476 -0.014187254 -0.014536226
000200 fd 97 08 bd 3a a5 24 bd a8 8a f1 bc bd ff 2d bc
       -0.033348072 -0.040196635 -0.029485062 -0.010620055
000210 96 bc e7 ba cf d1 a8 bc 56 da 64 bb ee 80 e3 bb
       -0.0017680104 -0.020607857 -0.0034920177 -0.00694286
000220 34 bc c0 3c 14 48 3d 3c ac 29 be 3b 4a e4 58 ba
       0.023527242 0.011552829 0.0058033075 -0.0008273764
000230 64 34 95 3c 20 4c 81 3c a8 26 88 3c 3b bd 42 bb
       0.018213458 0.01578337 0.016619995 -0.002971484
000240 85 f5 d4 ba f8 ab 70 3c e3 45 a6 3c 15 93 a9 bb
       -0.0016247487 0.014689438 0.020296996 -0.0051750042
000250 80 4e 9f bb df 48 59 3c b1 b1 2f 3c 66 d9 37 3c
       -0.004861653 0.013262003 0.010723517 0.011221265
000260 0d db 70 bb b7 97 04 3c be b9 bf ba 95 b0 b0 3c
       -0.0036751658 0.008092812 -0.0014627499 0.021568576
000270 c4 3b 61 3b d5 34 ac 3c 9f 19 cd bb 39 e4 01 3d
       0.0034367898 0.021021286 -0.006259158 0.03171179
000280 3e 1c 6b ba b8 0d c1 bc 05 2a ec b8 87 90 17 bc
       -0.0008968747 -0.023566112 -0.00011261184 -0.009250767
000290 70 75 2a 3d 1e a2 ca bc b9 b1 8c 3c 07 9a 2d bd
       0.041615903 -0.024735507 0.017174589 -0.04238322
0002a0 ae d0 fb 3c 94 a1 1c bb 13 fa c6 3c b0 b9 d9 bb
       0.030739155 -0.002390002 0.024289167 -0.00664445
0002b0 63 c8 14 bd e8 31 a4 3d cb 5d e1 3c 83 0d 83 3c
       -0.036323916 0.08017331 0.027510544 0.015997654
0002c0 dc 82 c3 bd 24 04 8b 3d de 97 2c bd ca 69 e9 3b
       -0.09546444 0.06787899 -0.04213702 0.0071232067
0002d0 66 b8 9d 3c b3 e5 71 bd a4 83 99 bd e0 42 21 3c
       0.019252967 -0.05905695 -0.074958116 0.009842604
0002e0 34 1f 2a 3d 5a a2 7f bd 8a 78 46 3b 68 e7 dd 3b
       0.041533664 -0.06241069 0.003028425 0.0067719705
0002f0 79 9e e4 bb 59 d8 4d 3c 83 cb b1 3c bd 5d 9d bb
       -0.006976899 0.012563788 0.021703487 -0.0048024342
000300 21 6a 18 3c 14 cb eb ba 81 ce 8a bb 04 44 be bb
       0.009302647 -0.0017989599 -0.004236043 -0.005806448
000310 c6 3a 30 3b af 73 36 bb dd 73 3a 3b 58 54 2e bc
       0.00268905 -0.002783995 0.0028450408 -0.010640226
000320 17 ab 41 bb 3b f6 ab 3c 59 5b 3d bc b5 0a 60 3b
       -0.002955144 0.020991435 -0.0115574235 0.003418607
000330 5d 60 75 3b bb 37 a8 3c a1 aa 6d bc bf 7d fc bb
       0.003744147 0.020534387 -0.014506013 -0.00770542
000340 a0 fc 08 3c 40 a9 09 3d ba f8 c1 bc 5f 71 a4 3a
       0.008361012 0.033608675 -0.023678172 0.0012545994
000350 16 de 63 bc e7 9a 5a 3d b7 11 a1 bc 74 81 a2 bc
       -0.01390793 0.053370383 -0.019661767 -0.019837119
000360 4c f7 b9 ba c6 37 47 3d 9b 18 91 bb b1 f5 c3 bc
       -0.001418808 0.048637174 -0.004427982 -0.023920866
000370 a4 1d 5a bc 46 a1 90 3c d7 3d ba 3c 05 a6 88 bc
       -0.013312731 0.017655026 0.022734566 -0.016680727
000380 d3 35 58 ba 2a b0 6b bc af 22 0c 3d 08 06 19 3b
       -0.00082477665 -0.0143852625 0.034212764 0.0023349542
000390 f3 b6 49 3c 42 59 08 bd 74 dc c7 3c e5 4a d9 3c
       0.012311685 -0.033288248 0.024397112 0.02652497
0003a0 fe f8 91 3c cd b6 66 bd 07 f9 1c 3c 17 ab 88 3c
       0.017818924 -0.056326676 0.009580857 0.016683144
0003b0 58 2a 16 bb 53 c4 2a bd f5 8d 1b 3c 0d a3 17 3c
       -0.0022913422 -0.041691136 0.009494294 0.009255183
0003c0 69 9f b0 bb 7a 10 38 bd 55 6d 0a 3c 17 f5 a2 3c
       -0.005390097 -0.04493759 0.008448918 0.019892259
0003d0 73 1a 80 3b f1 44 3e bd 73 64 1c 3c 47 fd 9a 3c
       0.003909403 -0.046452466 0.009545433 0.0189196
0003e0 63 11 d7 3c b0 a5 0d bd 49 74 30 3c 60 18 82 3b
       0.026253408 -0.03458184 0.010769912 0.003970191
0003f0 80 60 6a 3c b2 f8 a5 bc 8c f8 44 3c 15 ef 41 bc
       0.014305234 -0.020260189 0.012022149 -0.011836787

onnx::Conv_98 f4 [64]
000000 0e 68 ae bd 10 94 c7 3b da 7a 8e bd e0 4f 24 bb
       -0.085159406 0.0060906485 -0.06957026 -0.0025072023
000010 66 e3 c4 bd ec 5d 38 3e 78 23 b5 bb d6 99 b0 3c
       -0.09613685 0.18004578 -0.00552791 0.02155773
000020 ac df 3b 3c 7b 6b ad 3d f5 6b b9 bd 06 34 c1 3c
       0.011466902 0.08467766 -0.09053794 0.023584377
000030 0c a8 71 3d 62 8e 54 3e fe 27 c3 bb 3b 19 09 3e
       0.058998153 0.2075744 -0.005955695 0.13388531
000040 41 1e a6 3d ec 49 21 bc 6c e1 03 bd 00 cf 5e 3b
       0.08111239 -0.0098442845 -0.0321974 0.0033997893
000050 0e 30 06 bd b2 b0 cf 3d d9 52 eb 3c b2 98 c3 3d
       -0.032760672 0.10141124 0.028726028 0.09550609
000060 90 34 b3 bd ee f4 4c bd 5a f2 36 3d e8 32 69 3c
       -0.0875026 -0.05003827 0.04466472 0.014233328
000070 f0 f7 03 3e 21 b4 3d 3d 54 15 42 3d 80 45 4c 3c
       0.1288755 0.046314362 0.04738362 0.012467742
000080 e1 f7 90 3d 67 50 ff bc 4c 9a ac bc c6 59 0f 3d
       0.07078529 -0.031166269 -0.021069668 0.034997724
000090 81 93 f3 3d 00 35 c0 3a ed f3 b7 bd be c4 6d bd
       0.118933685 0.0014664233 -0.08982072 -0.058048956
0000a0 f7 18 8c bd bc ad ff bd ec 40 59 bd b2 63 79 be
       -0.06840699 -0.12484309 -0.05304043 -0.24354437
0000b0 02 26 3f bd 74 72 23 bc a7 91 a8 3d 9b 9c cf 3d
       -0.046667106 -0.009976018 0.08230906 0.10137292
0000c0 1e 40 f1 3d 5a a2 a7 3c c7 73 81 3d 53 0a de bd
       0.117798075 0.020463157 0.06320911 -0.10841813
0000d0 95 5f c4 3d bc b5 81 bc fb 0d 89 3d df 4e 98 bd
       0.09588543 -0.015833728 0.0669212 -0.074369185
0000e0 80 bb c7 3b c5 ff f0 3d da 19 04 bc c9 a9 c5 bd
       0.00609535 0.11767534 -0.008062804 -0.096515246
0000f0 dc 84 a3 3d 78 58 83 be f0 15 09 bc 6a 6d b3 bc
       0.07984325 -0.25653434 -0.008367047 -0.021902759

onnx::Conv_100 f4 [64, 1, 3, 3]
000000 b7 75 0a bf 30 16 87 be a1 b2 46 3e b0 66 2e bf
       -0.5408587 -0.26384115 0.19404079 -0.6812544
000010 ac b3 3d be d6 8c 8e 3f c0 23 04 bf 9a 18 23 3c
       -0.1852557 1.113673 -0.5161705 0.009954596
000020 c7 27 11 be e1 0a 08 3f ca 3d 81 3f 56 8f fc bc
       -0.1417533 0.531416 1.0096982 -0.030830067
000030 48 7f 8b bf 8e 26 43 bf 34 28 14 bf 79 5e 13 40
       -1.0898218 -0.76230705 -0.57873845 2.3026412
000040 d5 77 d1 be 65 4a 63 bf 75 e4 85 be 41 6c 72 3f
       -0.40911737 -0.8878539 -0.2615086 0.9469643
000050 b2 f2 d0 be 09 e6 ba 3f 9b 25 35 bf 39 13 a5 3e
       -0.40810162 1.4601451 -0.70760506 0.32241228
000060 b6 0d 46 bf bc 37 d5 be 27 77 52 3f c3 7d 2f be
       -0.7736467 -0.41644084 0.8221306 -0.17137818
000070 a2 9a 19 bd a4 50 8b 3e 36 ce 93 be a9 73 0b 3f
       -0.037500985 0.2720996 -0.28868264 0.5447336
000080 48 94 79 bd 4a 4d 01 be 54 50 43 3f 90 1b 0b bd
       -0.060932428 -0.1262714 0.76294446 -0.033961833
000090 9d 98 89 bf 11 5d 6a be db a8 38 3e b2 75 64 3f
       -1.0749699 -0.22887065 0.18033163 0.8924209
0000a0 de e6 a4 3e 37 5d f9 3e a5 bd ec 3e fa e6 d1 3e
       0.32207388 0.4870393 0.46238437 0.40996534
0000b0 50 5f 3e bf 30 5e 02 bf ac 9d a9 bc c2 f8 37 bd
       -0.74364185 -0.5092497 -0.020705067 -0.04491497
0000c0 26 5f c0 3f 28 67 70 bb ee 02 cb 3e 47 d4 d5 be
       1.5029037 -0.003668258 0.39650673 -0.41763517
0000d0 8d 9a 14 be 0f 89 7a bc 1b d4 a1 3e 84 da 89 3e
       -0.14512081 -0.015291466 0.31607136 0.26924527
0000e0 46 df f0 3e 70 51 2c bf 68 6c 01 be fe 9f 37 be
       0.47045344 -0.67311764 -0.1263901 -0.17932126
0000f0 25 7f aa 3f 4c 3f 3b be 0e 01 35 bd d0 55 27 bf
       1.3320051 -0.18285865 -0.04419046 -0.65365314
000100 32 88 a8 bc a3 e1 5b be 8e 0d 66 bf 88 4b ce 3d
       -0.020572755 -0.21472792 -0.8986443 0.10073
000110 46 99 ff be 19 99 a4 be 8b c4 e7 3d 1a f0 66 3e
       -0.49921626 -0.32148054 0.113167845 0.22552529
000120 82 55 30 bf af 31 09 3f e3 a5 93 bd 96 41 f0 3f
       -0.68880475 0.53591436 -0.07209375 1.8770015
000130 85 80 48 be 4e 74 1a 3e 03 67 fa be 3f c6 fe bc
       -0.19580276 0.15083429 -0.48906717 -0.03110039
000140 d0 45 2b bd e5 e5 a3 3e 6d 16 3b bf cd c8 60 be
       -0.041814625 0.32011333 -0.73081094 -0.219516
000150 49 01 8e be 93 ee fd be 23 7c 96 bd 55 7a b3 be
       -0.27735355 -0.4959608 -0.07347896 -0.3505427
000160 56 4e ac 3f 2b cb ce bd 4d b4 16 3e b6 b1 02 be
       1.3461406 -0.10097345 0.14717217 -0.12763104
000170 cf be db 3e 9e e5 48 be be d5 ad be 22 60 8d 3e
       0.42919013 -0.19618842 -0.33952135 0.27612406
000180 ae bb 56 be 53 2e 57 3f fb 69 9c 3f b9 58 47 be
       -0.20970032 0.8405506 1.2219843 -0.19467439
000190 9d a6 fd 3e c2 fa ca 3e 25 7c 25 3f 51 97 dc be
       0.49541178 0.39644438 0.64642555 -0.43084195
0001a0 e7 f6 17 3e 39 48 f8 3e 13 0c 9a 3e 0b 69 8a bd
       0.1484028 0.48492602 0.30087337 -0.067583166
0001b0 ce 1d 8b be 0b cb 9a 3e 37 12 2e 3e bf df 88 be
       -0.27171177 0.30233034 0.16999136 -0.26733205
0001c0 f4 62 5f 3f f6 cb 04 bf 29 e7 f1 be 2e b8 b3 3e
       0.87260365 -0.5187372 -0.47246674 0.35101455
0001d0 f9 82 74 bf 29 17 92 be bf 6a 1f bf e6 e2 e2 3e
       -0.9551235 -0.28533295 -0.62272257 0.44313735
0001e0 30 5e ec be c2 e0 bc 3f 24 d7 c5 be 63 38 ed be
       -0.4616561 1.4756091 -0.38640702 -0.46332082
0001f0 8e 95 a7 be 28 36 f8 be 63 97 8a 3e 30 b2 45 bd
       -0.3273129 -0.48478818 0.27068624 -0.048265636
000200 52 43 17 bf 2c c2 a0 3f 34 c5 32 be 12 ec e5 be
       -0.590871 1.2559257 -0.1745804 -0.4490667
000210 e8 b9 20 bf 2a fe 69 bd cf e9 33 be 6c 6d 4f 3f
       -0.6278367 -0.057127155 -0.1756966 0.8102634
000220 d4 3f ba be d9 bd 4a bf 6d ca b3 be 0f 74 4e be
       -0.36376822 -0.79195935 -0.35115376 -0.2016146
000230 28 78 12 bf 45 15 dc be dc 37 c6 bc 04 b0 65 be
       -0.57214594 -0.42984977 -0.024196558 -0.22430426
000240 72 33 00 be 2d 21 15 be 57 aa 0e bf 7d 1c 5c be
       -0.12519625 -0.14563437 -0.5572867 -0.21495242
000250 cf 77 0c 3f a1 f4 1b bf 8e 08 72 be 55 1c 50 be
       0.54870313 -0.6092015 -0.23636076 -0.20323308
000260 2a 83 d9 3f bb 1c f3 3d d3 8a e3 bb be df 4e be
       1.6993153 0.11870714 -0.0069440394 -0.20202538
000270 ca 65 dc be 0e f9 40 bf 6a 8b 96 3f 9b e1 82 be
       -0.4304641 -0.7538003 1.1761296 -0.25562748
000280 1b 2d 4c bf fa a4 03 3f 65 b2 aa be 7b f1 32 3f
       -0.79756325 0.5142361 -0.3333923 0.6989972
000290 bb bf 84 be dc 51 c0 be 5b de f4 3e f6 7f 70 3f
       -0.2592753 -0.37562454 0.47825894 0.9394525
0002a0 08 49 f5 3e 01 25 ca be 7f 38 f4 3e dc 93 d8 3e
       0.4790728 -0.39481357 0.47699353 0.42300308
0002b0 45 84 19 bd 04 f4 35 3f 78 b2 95 3e 14 98 3e bf
       -0.037479658 0.71075463 0.29237723 -0.744508
0002c0 69 2b 4b 3f 73 34 9a 3c b8 7d 52 bf e3 de 79 3e
       0.79363114 0.018823838 -0.8222308 0.24401431
0002d0 df 68 0c bf 1c 13 44 be c0 f6 fe be f2 ef 28 bf
       -0.5484752 -0.19147915 -0.4979763 -0.6599113
0002e0 24 09 1e bf 3a 1d 8d be 37 1e ae 3f 61 38 48 3f
       -0.617327 -0.2756136 1.3602971 0.7821103
0002f0 d2 ab 6c 3f 4b 20 42 bf a4 73 fe bd 55 c2 17 bf
       0.92449677 -0.75830525 -0.124244004 -0.592809
000300 d8 48 15 40 f5 56 03 be 0d 96 87 be 23 a3 03 bf
       2.332571 -0.1282614 -0.26481667 -0.514208
000310 a2 e1 22 be de 12 86 be 55 e6 58 bd ff b2 bd be
       -0.15906385 -0.2618627 -0.052954037 -0.37050626
000320 5d 3f 25 be 31 cd 8a be cc a5 cd 3f 8b 07 2b bf
       -0.16137452 -0.27109674 1.6066222 -0.66808385
000330 10 bc f3 3e f8 6d e1 be 03 54 c2 bd 32 e9 cb 3c
       0.47604418 -0.44029212 -0.0948868 0.02489147
000340 f8 2a e9 bd 60 00 5f 40 2a f6 ab bd 4a 0f b3 3d
       -0.11385149 3.484398 -0.083965614 0.087431505
000350 35 98 77 bf 45 d1 3c be 79 6b 69 be f7 5f 00 3e
       -0.96716624 -0.18439205 -0.22794904 0.12536608
000360 c9 78 80 be df 54 f5 be ea f4 46 3f 5f fb e6 be
       -0.25092152 -0.47916314 0.7771746 -0.45113656
000370 aa fd a8 be 83 bc 0e 40 74 10 dd be 34 d6 2f 3e
       -0.3300603 2.2302558 -0.43176615 0.17171556
000380 e8 c9 ad bf 13 97 c3 3e c8 b7 e8 3e 5a a3 6d 3e
       -1.3577242 0.38201198 0.45452714 0.23206845
000390 28 35 81 3f 6d 8e 50 be 07 52 87 3e bb f1 24 bf
       1.0094347 -0.20366831 0.2642977 -0.6443135
0003a0 ef ce d1 be e5 d2 90 bd 4a b2 81 be d0 07 c3 be
       -0.4097819 -0.07071475 -0.25331336 -0.38091898
0003b0 63 e9 6d 3f 29 d7 32 be 41 b3 8e 3f 64 6b 35 3f
       0.92934245 -0.1746489 1.1148454 0.7086699
0003c0 57 97 06 bd 50 25 ac be 69 80 ca 3e 8c 4f 72 3e
       -0.032859173 -0.33622217 0.39551094 0.23663157
0003d0 63 d2 1b 3f fb 57 6f bf 1f 93 79 bd e8 a0 28 bd
       0.608679 -0.9349362 -0.06093132 -0.041169077
0003e0 fe 63 05 bf 85 e9 40 bf 95 e5 62 be 78 a1 4c 3f
       -0.521057 -0.7535632 -0.22157891 0.7993388
0003f0 07 e9 84 bf 2c c3 ba be b1 bf 0b be f0 ee 81 bf
       -1.0383614 -0.3647703 -0.13647343 -1.0151043

onnx::Conv_101 f4 [64]
000000 cc 7b 9f 3e ff 14 e1 3c db b3 95 3e 24 e2 2b 3d
       0.31149137 0.027475832 0.2923878 0.04196371
000010 10 1e ad 3d d8 86 e1 bc e8 56 61 bc 6c a8 01 3f
       0.084529996 -0.027530119 -0.01375363 0.50647616
000020 76 65 31 bd 6c d7 78 3c d0 e4 d6 bc 48 0c 2c bd
       -0.04330965 0.015188079 -0.026232153 -0.0420039
000030 5a 3b 95 3e 35 ce d0 3d af c9 89 3d d1 43 e8 3e
       0.29146844 0.10195581 0.06727921 0.4536424
000040 1b e1 cd 3d 8c d0 ef 3e 5f 42 05 3e ad e8 59 3d
       0.10052701 0.46838796 0.130136 0.053200413
000050 8b 74 fb 3c 07 04 bd bd ec 21 6c 3c de 51 82 be
       0.03069522 -0.09229284 0.0144123845 -0.25453085
000060 fc 40 86 3e a4 c1 cd 3c 78 22 eb bc 12 4b 01 3f
       0.26221454 0.02511675 -0.02870296 0.50505173
000070 46 20 9a 3e f0 79 41 3e d0 e9 17 3e 05 93 c7 3e
       0.30102748 0.18894172 0.14835286 0.38979355
000080 3a 1b b3 bd 14 c4 9c bc 30 a2 ea 3d ee a5 1b 3f
       -0.087454274 -0.019136466 0.11456716 0.60800064
000090 72 2e 04 3f 84 de 1d 3d 90 be a7 3b f0 bc f7 bb
       0.5163337 0.038542286 0.0051191524 -0.007560365
0000a0 58 7e 0e 3d 64 b8 1a bd 00 71 33 ba 38 70 20 bd
       0.03478846 -0.037773505 -0.00068451464 -0.03916952
0000b0 08 c8 6a bd 30 b0 28 bc 84 c2 87 3e 98 e5 6b 3d
       -0.05731967 -0.010295913 0.2651559 0.057592005
0000c0 6a 34 b7 3e 96 3a 02 3d d2 72 96 3e 63 3c af bc
       0.35782176 0.031794153 0.29384476 -0.0213911
0000d0 f1 6a c7 3e 0c a4 71 bd 15 85 1b bd 20 8c c0 3c
       0.38948777 -0.058994338 -0.037968714 0.023504317
0000e0 46 f8 95 3e 46 d4 6b bd 64 66 02 3e 74 62 17 3f
       0.2929098 -0.057575487 0.12734371 0.591346
0000f0 94 f0 ad 3e 01 cf da bc 30 54 1b 3e 2c 0a 4d 3e
       0.3397261 -0.026710035 0.15168834 0.20023412

onnx::Conv_103 f4 [64, 64, 1, 1]
000000 9b 2d 32 be cf c2 87 bd 43 6c 3f be 3f 64 10 3d
       -0.1740021 -0.06628954 -0.18693642 0.035251852
000010 18 55 9b bd 35 45 dd bb b9 5c fc 3c 44 54 6e 3c
       -0.0758459 -0.006752635 0.030805932 0.014546458
000020 4f 4a 8f 3d 71 cd 71 3e 20 af 59 bd e3 f3 a0 bd
       0.06996595 0.23613526 -0.053145528 -0.07859018
000030 b8 0b e4 3c 84 04 27 be 88 54 62 be 17 cf 75 be
       0.02783762 -0.16310316 -0.22102559 -0.2400478
000040 37 2c c3 bd 41 19 62 be 40 b2 be 3d f0 6c 80 bb
       -0.09529918 -0.22079946 0.09311342 -0.0039192364
000050 32 a6 14 3d e8 9a 8e 3d 0a 9e 78 be 67 04 5b 3d
       0.03629131 0.0696314 -0.24279037 0.053470995
000060 8b 50 f9 3d d1 42 5b bd c4 41 db 3d 54 f9 f8 bd
       0.121735655 -0.053530518 0.10705903 -0.121569306
000070 43 3c 62 3d 15 5c 59 3d d1 22 7c bc d1 07 5c bc
       0.05523325 0.053066332 -0.01538916 -0.013429598
000080 0b cb 96 bd ec d2 09 be 23 61 55 3e 79 9e c6 3d
       -0.07362946 -0.13459367 0.20837836 0.09698195
000090 12 74 78 3d f6 ce 25 be 2a 5a 0b 3e 00 8e ab 3c
       0.06065757 -0.1619223 0.13608614 0.020941734
0000a0 70 f6 75 3d 35 4d f0 3c 93 69 96 bd 05 c2 e7 3c
       0.060049474 0.02933369 -0.073443554 0.028290758
0000b0 c2 2f 33 3e e8 62 c0 3d 5e b8 e2 bd 6a a2 39 3d
       0.17498687 0.09393865 -0.110703215 0.045320906
0000c0 78 8c ea bd 19 c4 88 bc f0 0e 16 3d 02 26 88 bc
       -0.114525735 -0.01669507 0.03663534 -0.016619686
0000d0 44 c1 7c 3e 4e bc a2 3d 58 08 77 bc 56 bd d5 bd
       0.246831 0.079460725 -0.015077673 -0.104365036
0000e0 b3 19 3f be 5e 07 dd 3d bf 43 0a be ec 9d a3 bd
       -0.18662147 0.10792421 -0.13502406 -0.079891056
0000f0 96 b3 86 3c f3 03 56 bc 4e e1 8d 3c 41 e4 27 3d
       0.016443055 -0.013062465 0.017319348 0.040989164
000100 74 c5 0f bd b1 4d b5 bc 89 6f c7 bc 1b 0d 74 bd
       -0.035100415 -0.022131773 -0.024345176 -0.05958281
000110 76 4d 14 3c a6 cc a4 bc ff 15 c2 bc 19 df 21 3d
       0.009051671 -0.020117115 -0.02369213 0.039519403
000120 81 7c a3 3d c4 90 d5 3c 56 14 8d bc a1 f9 93 bc
       0.079827316 0.026070006 -0.017221611 -0.018063368
000130 b3 0e 8b bc 8b fd bf bc a4 00 12 be eb 5c d4 3c
       -0.016974783 -0.023436328 -0.14258057 0.025923213
000140 90 86 9a bc 86 61 34 be 98 f6 8a 3c 74 3a ac bd
       -0.018862993 -0.17615327 0.016963288 -0.084095865
000150 81 f2 73 bd 5f 21 00 be bd 52 6f 3c e4 62 bd bd
       -0.05955744 -0.1251273 0.014607129 -0.092473775
000160 7b f1 f4 bd ee b1 45 bc 29 ce f1 bc 3e 6f 97 bc
       -0.11960121 -0.0120663475 -0.02951725 -0.018485662
000170 cd d3 3f 3d c0 24 73 3d 36 95 e0 bd d3 a5 37 3d
       0.04683285 0.05936122 -0.1096596 0.044835877
000180 12 fd 28 3d 3e dd 13 3d fe 31 0c 3e 65 13 85 bc
       0.04125697 0.036099665 0.13690946 -0.0162446
000190 0c 08 03 be a7 db 31 bd 65 d3 d7 3d ed 60 92 3d
       -0.12796038 -0.043422367 0.10538367 0.071473934
0001a0 9b 9d 86 3b 11 5b 91 bd 36 54 d1 3d 29 97 d0 bd
       0.0041081435 -0.07097448 0.1022114 -0.101850815
0001b0 02 14 dd 3d 8a 1c 92 3b 2e 1c 92 3d 6a a8 c8 bd
       0.10794832 0.0044589685 0.07134281 -0.097977474
0001c0 ee ec d3 3c e7 eb 36 3d 0c fe f6 bd b6 d3 27 bd
       0.025869813 0.044658568 -0.12060174 -0.040973388
0001d0 1a 0e 96 3d fa 15 78 3c e3 19 78 bd d3 88 c4 bd
       0.073269084 0.015141958 -0.060571562 -0.0959641
0001e0 03 60 f5 bd 78 c8 15 3d 34 b4 9f be 58 f8 8b bd
       -0.119812034 0.036568135 -0.31192172 -0.06834477
0001f0 e3 3a b1 3d 07 e2 e5 3d a4 66 0c 3d 99 f5 99 3c
       0.0865381 0.11224752 0.034277573 0.018793868
000200 63 51 f2 3d 3a 9d 68 bc 45 03 86 bc 2a 14 e0 bd
       0.118319295 -0.014197642 -0.01635898 -0.10941346
000210 2a ee a1 bd 66 05 7f be d7 e2 c3 3d d4 c9 a9 3e
       -0.07906754 -0.24904403 0.09564751 0.33161795
000220 9e 49 f2 3c 60 24 4f 3d 48 b5 c5 bd 3c 35 71 3d
       0.029576119 0.0505718 -0.09653717 0.05888866
000230 69 56 b9 bd 0e 55 e8 bd a6 82 9f bc 84 15 55 be
       -0.090496846 -0.11344348 -0.019471478 -0.20808989
000240 c1 90 56 3d 5b 1c ac bd 7f 22 6c bd 3d c8 62 be
       0.05238414 -0.08403846 -0.057650086 -0.22146697
000250 f2 34 bf bb a5 f4 ce 3d c1 98 79 bd 72 bc af bd
       -0.005835169 0.10105256 -0.060936693 -0.08580865
000260 6c 75 ea 3d 25 e2 00 3d ef d8 89 bd d2 87 47 bd
       0.11448178 0.03146567 -0.0673083 -0.048713513
000270 58 6a 3e be a4 46 ea bd 9d 6a a7 bd 1f 37 00 be
       -0.18595254 -0.11439255 -0.08174632 -0.12521027
000280 94 16 9a be 59 e2 43 be c0 d6 cb bd 9a 01 bd 3d
       -0.3009535 -0.19129314 -0.0995307 0.09228821
000290 36 d7 d8 bc 94 ef 6f bc eb a4 1c 3e 97 18 ce 3d
       -0.026469808 -0.014644522 0.15297286 0.10063284
0002a0 e1 5f 3b 3e 36 a5 77 3c e5 b7 29 3d b4 69 30 be
       0.18298294 0.015115073 0.04143514 -0.17227823
0002b0 b9 b5 df 3c 71 9a 41 3d fc e5 13 bd 6a ee e5 3d
       0.027308332 0.047266427 -0.036108002 0.112271145
0002c0 2d 05 08 3d 31 e3 06 bd 58 ac c4 bc fd b2 62 3c
       0.03320806 -0.03293151 -0.024007961 0.013836619
0002d0 3d 03 cb bc 11 15 14 3d 03 ac 77 bc fb 89 da 3d
       -0.024781818 0.036152903 -0.015116694 0.10670849
0002e0 22 09 c0 bd f1 f2 b4 bb 4c f4 83 3d a7 13 bf 3d
       -0.09376742 -0.005522125 0.0644308 0.0932992
0002f0 f5 a0 c4 3c f9 dc fb bd a0 2e dc 3a ef 6c 2f be
       0.024002532 -0.122980066 0.0016798563 -0.17131399
000300 5c af ef bd 39 e3 ab bd fb fa 6e 3d c1 62 bf 3c
       -0.11703369 -0.08392949 0.058344822 0.02336252
000310 53 75 6f be 7e 19 87 bc 26 13 4a 3d 38 c3 75 3d
       -0.233846 -0.016491648 0.049334668 0.06000063
000320 10 d5 f3 3a e6 26 33 be 5c 52 9a 3d 3c 28 b9 3b
       0.0018602926 -0.17495307 0.0753524 0.0056505483
000330 d1 f5 ac bb b8 80 90 3c 7d f8 11 3b be c0 b1 bd
       -0.005278327 0.017639503 0.0022273355 -0.08679341
000340 a0 46 cb bb d3 fc 68 3d bf 20 94 3c c1 6f ae bd
       -0.0062034875 0.056881737 0.01808202 -0.08517409
000350 91 4b 83 bd 15 43 ad 3d b4 f7 f9 3d 30 81 40 bb
       -0.064108975 0.084600605 0.12205449 -0.0029373877
000360 13 04 ae bc 87 d5 91 3c 45 de a1 bc b8 82 e3 3d
       -0.021242177 0.017802013 -0.019759307 0.11108917
000370 83 35 9d 3d 35 58 a0 3d 73 29 a0 3d 21 be 12 3e
       0.07676222 0.07829324 0.07820406 0.14330341
000380 60 10 d0 bb ff 9b c6 bd 66 f7 9f be 15 74 b8 bd
       -0.0063496083 -0.09697723 -0.31243438 -0.09006516
000390 50 ff d0 3c f6 fa cc bd 8b 1a d2 bd ca 82 af bd
       0.025512367 -0.100088045 -0.10258969 -0.08569868
0003a0 aa 96 0c ba d4 30 04 be 76 49 69 3c 1d 89 db bd
       -0.0005363027 -0.12909251 0.014238706 -0.10719512
0003b0 58 58 83 3c 81 c7 06 3d 1e c3 3c 3d 0d 9d c1 3d
       0.016033337 0.032905106 0.046084516 0.09453783
0003c0 3b 69 0f bd 42 b9 77 bd a2 f7 1c 3e 45 80 dd bd
       -0.035012465 -0.06047941 0.1532884 -0.10815481
0003d0 e4 06 56 3c 41 89 a1 bd 01 13 8b bd ae 59 43 be
       0.013063166 -0.07887507 -0.06790734 -0.19077179
0003e0 a9 80 aa 3b 74 5c c1 3c 00 da 10 3d 05 c4 83 3d
       0.0052033258 0.023603655 0.03536415 0.06433872
0003f0 bc 3f 2a bc f8 d7 19 be 3c cf 91 3c a4 d9 01 3c
       -0.010391172 -0.15023792 0.017799012 0.007925425

onnx::Conv_104 f4 [64]
000000 8e 99 b5 3e 5e 61 b4 3e 5c a6 e0 3e 7e c5 c4 3e
       0.35468715 0.35230535 0.43876922 0.38431925
000010 12 8b a6 3e bd b3 17 3f 20 b0 89 bc 18 d2 d6 3e
       0.32527977 0.59258634 -0.016807616 0.41957164
000020 00 45 5f 3e be 85 87 3e fa 42 22 3f 1b c5 0a 3f
       0.21803665 0.26469225 0.6338345 0.5420701
000030 f6 6e ef 3e 35 c9 31 3e a7 55 c8 3d c2 f0 bf 3e
       0.46764344 0.1736191 0.09781962 0.3748837
000040 8a 69 e3 3e 4a 3f f2 3e 6f 85 55 3e d4 84 f0 3e
       0.44416457 0.4731391 0.20851682 0.4697634
000050 95 e2 66 3e e3 28 f4 3e db 4f bd 3d 58 6d ce bb
       0.22547372 0.47687444 0.09243747 -0.006299656
000060 56 88 e0 3e aa 86 01 3f 6a e6 3c 3e 0e d9 94 bd
       0.43854016 0.50596106 0.18447271 -0.072679624
000070 58 fc fa 3e c3 94 3c 3f 9a 45 8e 3e 42 54 18 3f
       0.49020648 0.7366449 0.27787477 0.5950357
000080 7e 33 3e 3f 62 97 1c 3e 24 77 c4 3e d4 1f 31 3e
       0.7429732 0.15292123 0.38372147 0.17297298
000090 a1 8e 09 3f 6a b9 fc 3e 80 e1 17 3f ec a9 25 3e
       0.5373326 0.4936021 0.5932846 0.16178101
0000a0 20 30 0d 3f f2 88 82 3e 42 aa 7e 3f ea 86 df 3e
       0.5515156 0.25495106 0.9947854 0.4365762
0000b0 4c 15 23 3f e5 02 5f 3f bd fd 3b 3e 34 db 50 3e
       0.6370437 0.8711379 0.18358512 0.2039612
0000c0 82 ff 9a 3e ac c5 09 3c f7 f7 dd 3e f9 ac bc 3e
       0.30273062 0.008408945 0.43353245 0.36850718
0000d0 19 34 a3 3e be 2e d2 3d 9b 7f d2 3e bb 5f 75 be
       0.31875685 0.102628216 0.4111298 -0.239623
0000e0 72 14 ba 3e 42 df 73 3e 4c 1c 03 3f 69 9e e1 3e
       0.36343724 0.23815635 0.5121505 0.4406617
0000f0 d0 cc 74 3f 3a 84 c7 3e 58 ac 6d 3f 12 88 65 3e
       0.9562502 0.38968068 0.928411 0.22415188

onnx::Conv_106 f4 [64, 1, 3, 3]
000000 03 47 74 bf 73 15 7e 3e e2 34 89 3f 7a 83 9b 3e
       -0.95420855 0.2481287 1.0719264 0.30373746
000010 8b 00 3e 3f f2 90 b4 be ab 89 d2 3e 76 36 d9 be
       0.7421958 -0.35266834 0.41120657 -0.42424363
000020 9d ec 56 bf 1f 7e f0 3d 7c dc 7c be cc 43 b0 be
       -0.83954793 0.11742806 -0.24693483 -0.34426725
000030 5e 1b 0c 3f 92 f3 3b 3f 34 56 ff be f4 b6 a4 3f
       0.5472926 0.73418534 -0.49870455 1.2868333
000040 d5 24 26 3f 7f 1d e7 bd a8 1b 18 3f 92 a1 f2 be
       0.6489995 -0.11284923 0.594172 -0.47388893
000050 ac 23 67 3f 00 e3 67 3f 3e 3f e7 be 50 2a a3 bd
       0.90288806 0.9058075 -0.45165437 -0.07967055
000060 d6 a8 0e 3f a7 cd 40 3d 71 29 16 bf b1 51 b8 3e
       0.55726373 0.047071125 -0.58656985 0.35999826
000070 3d 36 dd be 86 d7 cc bb 41 50 4c 3f 5b 67 08 bf
       -0.43205443 -0.0062512783 0.7980996 -0.5328271
000080 66 b1 3f bf 69 ed 6a 3f 88 f5 ae 3e 71 74 55 bf
       -0.74880064 0.9176851 0.341717 -0.833808
000090 9c 35 ea 3e 9c 85 f0 bd 2d c2 9c bf f2 ee a8 3f
       0.45744026 -0.11744234 -1.2246758 1.319792
0000a0 57 da 0d bf 0a 6b f6 3b 13 9b 9c bd c1 eb 0d bf
       -0.55411285 0.0075200843 -0.076467656 -0.55437857
0000b0 6a 47 8d 3f b4 87 a7 3b 42 bc 0b 3f de 34 05 3c
       1.1037419 0.0051126126 0.54584134 0.00813028
0000c0 5e 30 78 3e 1e 31 07 3f 49 30 f7 3e 7d 24 93 3f
       0.242372 0.5280932 0.48279026 1.149551
0000d0 a2 8d ea 3f 07 3d d0 3e 3b 46 25 3d ba 6a 0c bf
       1.8324473 0.4067156 0.04035018 -0.5485035
0000e0 6d 45 09 bf 02 21 5e be 85 d8 2e bf 38 f2 3a bf
       -0.5362156 -0.21692279 -0.6829913 -0.73025846
0000f0 60 b1 4f bd e3 87 2d bf 38 50 cc be 5a 9c e3 3e
       -0.050706267 -0.6778547 -0.39904952 0.44455224
000100 e6 c1 b8 3e 3f ea 2c 3e 64 1b 87 3f c8 6b 4f 3f
       0.36085433 0.16886233 1.0555234 0.81023836
000110 e0 47 7f 3e 07 a2 2b 3e 13 f4 fb 3e db e2 66 3e
       0.24929762 0.16761027 0.4920965 0.22547476
000120 93 5a 24 bf 57 6f d8 3f c7 41 4e 3f 9e f6 01 bf
       -0.64200705 1.6908978 0.8056912 -0.5076693
000130 b4 ef 23 3f 03 ad 28 3f 28 82 37 bf c4 bd 03 be
       0.6403763 0.65888995 -0.7168298 -0.12865359
000140 fd 0d 24 3e f0 87 67 3d 77 50 f9 bd e0 bc 1a 3e
       0.16020961 0.056526124 -0.121735506 0.15111113
000150 6e ba 81 3f 09 65 f8 bd bb 00 21 3f 4e 8d d2 3e
       1.0135019 -0.12128646 0.6289174 0.41123432
000160 67 c4 1f be 32 7e 4a 3f 0f 95 dc bd 5d d3 ab 3e
       -0.15602265 0.7909881 -0.10770618 0.33559695
000170 d6 81 d5 be 2a 74 31 3e e8 16 ed 3e 0f 22 35 bf
       -0.4170062 0.1732947 0.4630654 -0.70755094
000180 f3 74 4d 3c d9 63 89 3e 89 f5 0b bf 66 96 14 3e
       0.01254009 0.2683399 -0.5467153 0.14510497
000190 45 2c 4f be f4 0f 03 3f 25 09 c8 be ac a1 46 3c
       -0.20231731 0.5119622 -0.39069477 0.0121235065
0001a0 c9 fc ab 3f 2e aa ca be 63 d6 16 3e 18 da 85 3f
       1.3436519 -0.39582962 0.1473022 1.0457182
0001b0 fb 04 a4 bd 34 2b aa 3d ad a0 dc bd e6 05 5c bf
       -0.080087624 0.083090216 -0.10772834 -0.859465
0001c0 d4 01 1a 3c 47 8b e9 3f e3 6e 13 bf 49 fa 2e 3f
       0.00939985 1.8245629 -0.57591075 0.68350655
0001d0 df 71 97 3e 6c 9c 34 bf 48 4e 49 bf a1 08 86 be
       0.29579064 -0.7055118 -0.7863507 -0.26178458
0001e0 9e 60 4b bf 25 6b f6 3e 1f ad 55 be 6a 1c 26 bf
       -0.794443 0.4812862 -0.20866822 -0.64887106
0001f0 98 d6 2a 3f 7b 3e f7 3e 87 1c df 3d d6 e9 9e be
       0.66733694 0.48289856 0.10894113 -0.31037778
000200 f8 31 31 3f c5 75 24 bf 48 cd ae 3d 73 f6 18 3f
       0.6921687 -0.642422 0.08535248 0.5975105
000210 43 1a d8 be 82 b1 15 3f 04 c4 e5 3e 31 44 11 bf
       -0.42207536 0.5847398 0.4487611 -0.56744677
000220 47 b7 51 bf 70 1b 8f be 1a 61 ae bd 00 c2 2b be
       -0.81920284 -0.2795062 -0.085146144 -0.16773224
000230 9d f9 44 bf 5d 32 a0 be 18 3f 5c bf 7a d7 28 be
       -0.7694338 -0.31288424 -0.86033773 -0.16488448
000240 44 bd 5b 3d 9e d6 a1 be 17 26 02 3f 6d cb 91 3f
       0.053647295 -0.31609052 0.5083937 1.1390206
000250 9d af 50 bf 91 47 57 3f d9 cd ba 3e 4e 1b 7c be
       -0.81517965 0.84093577 0.36485174 -0.24619791
000260 3f f0 a4 bf d5 f9 98 3f 1f 01 fc 3d fc fb 7e 3d
       -1.2885817 1.1951243 0.12304901 0.06225203
000270 1c 90 a3 3f 77 37 4f 3f d5 5a e1 3e 70 6e c6 be
       1.2778354 0.8094401 0.44014612 -0.38756132
000280 01 04 01 3f c5 e7 da 3e 63 8b 0d 3f 3d 11 87 3d
       0.50396734 0.4275495 0.5529081 0.06595085
000290 16 f2 c9 3e 6d 50 7d 3f 24 dd eb bd 3b 8f e3 3e
       0.3944251 0.98950845 -0.115167886 0.44445214
0002a0 02 eb d9 3e 77 de dc be bb 79 da ba 30 6a 46 3e
       0.4256211 -0.43138477 -0.0016668359 0.19376445
0002b0 a6 57 b1 be cb f0 1f bf be 0a 81 3f 21 4e bd 3c
       -0.34637183 -0.62476796 1.0081403 0.023108544
0002c0 2f 98 7e bf 27 51 cb 3e 2b 9e 2b bf db b6 9b be
       -0.99450964 0.39710352 -0.6703822 -0.30412945
0002d0 b4 b5 e3 be 18 25 0d be 30 01 74 be cf f0 aa bc
       -0.44474566 -0.13783681 -0.23828578 -0.02086678
0002e0 4e d5 38 3f dd e8 38 3f 89 71 eb 3c aa 36 1b 3f
       0.7220048 0.7223032 0.028740661 0.60630286
0002f0 c9 a8 80 3f cf 21 b5 3e 5e 3f 2a 3f 3e 54 9e 3f
       1.0051509 0.35377356 0.6650294 1.2369459
000300 4e be d6 bd cc fe 0b 3f f2 12 2a 3f f7 88 31 be
       -0.104855165 0.54685664 0.6643516 -0.17337404
000310 f0 d7 a8 be 98 6b aa 3c 88 c0 ba 3f 96 0d e4 be
       -0.32977247 0.020803258 1.4590006 -0.44541615
000320 fa e2 c5 be c5 d8 38 3f 2b ae 2c bf 4f ef f0 bc
       -0.38649732 0.72205764 -0.6745326 -0.029410986
000330 6c 98 09 bf 98 82 9e 3d 71 8c 21 3e dd 24 26 bf
       -0.537482 0.077397525 0.1577623 -0.649
000340 cd fb e4 be 94 dd ef 3f 71 fb 52 be 03 d6 e8 be
       -0.4472336 1.8739495 -0.2060373 -0.45475778
000350 0f 7d 1f 3f 36 70 fa bd ca 68 06 bf b2 5a c8 be
       0.623002 -0.12228434 -0.52503645 -0.39131695
000360 6f 97 28 3f 95 c6 91 3f 26 29 9e 3f 9c 2c 44 bf
       0.6585607 1.1388727 1.2356308 -0.7663057
000370 79 e9 16 3d b8 a5 b5 3e d9 61 3d bf b5 f2 41 bf
       0.03684375 0.35477996 -0.7397743 -0.75760967
000380 c7 5e d9 be 81 a4 92 bd 48 ec c2 3e f4 1f 2e be
       -0.42455122 -0.07160283 0.38070893 -0.17004377
000390 e1 88 d5 be 07 53 b4 3f da 24 1a be 03 4c 6c 3e
       -0.41705993 1.4087838 -0.1505312 0.23075871
0003a0 d2 fb 11 40 80 a8 94 3e 83 ba 34 3f c1 8e 69 bd
       2.280995 0.29034805 0.70597094 -0.057020906
0003b0 f9 35 8c be 1e dd 55 3f 56 f8 a4 be ee 98 c9 3d
       -0.27384928 0.83540523 -0.32220715 0.09843622
0003c0 be 6f 95 3d 87 03 35 3a 28 33 90 3e fc e0 eb be
       0.07296704 0.00069051277 0.2816403 -0.46070087
0003d0 06 90 65 be 3c e7 13 bf 89 86 b3 be 03 c7 f9 be
       -0.22418222 -0.5777471 -0.3506358 -0.48784646
0003e0 90 90 d5 be dc 58 c9 be fb e2 e9 be e6 84 81 3d
       -0.41711855 -0.39325607 -0.45680985 0.063241765
0003f0 d1 cf bf be 64 6f d7 be 64 3b 91 3f a2 12 9f bc
       -0.3746324 -0.42077172 1.134625 -0.019418065

onnx::Conv_107 f4 [64]
000000 93 19 15 3d e8 81 c5 be c6 28 2d be 00 a2 2c bb
       0.036401343 -0.38575673 -0.16910085 -0.0026341677
000010 c3 45 4d bd d1 16 95 bf 3c 3e 82 3f 2e 1c 9a bf
       -0.050115358 -1.1647588 1.0175242 -1.203985
000020 b0 f1 1b bf f4 0a 27 bd e3 55 94 3e d8 48 ea be
       -0.6091566 -0.04078193 0.28971776 -0.457587
000030 8d a2 9e be ff 43 08 3f 16 e8 bc bd f5 40 8d 3f
       -0.3098339 0.53228754 -0.092239544 1.1035448
000040 1c 8c 22 3c 67 bd 70 bf 73 78 c4 be 66 94 7c 3e
       0.0099211 -0.94039005 -0.38373145 0.24665985
000050 2a 9b e5 be 19 c4 de be 57 1c b3 3b 1e d8 7b 3e
       -0.44844943 -0.43508986 0.005466025 0.24594161
000060 e0 d8 b4 be 08 94 68 bf d0 83 68 be cd 2e 2d 3f
       -0.35321712 -0.9085088 -0.22706532 0.6764954
000070 27 00 49 be 78 0e 8e be 28 fb b1 be de b3 55 be
       -0.19628964 -0.27745414 -0.3476193 -0.20869395
000080 70 74 1f bd 78 ee 2e bf 93 0e e8 be 14 47 b5 be
       -0.038929403 -0.68332624 -0.4532362 -0.3540579
000090 69 42 f4 3d bd c5 16 3f 3f 01 dc bd af fd fa be
       0.11926729 0.58895475 -0.10742425 -0.4902167
0000a0 7a fd 30 bf 58 e3 1f 3f aa d2 2f bf 6c 00 9f be
       -0.69136775 0.62456274 -0.6868082 -0.3105501
0000b0 e5 b4 32 bf 50 38 46 bc 07 64 78 3e 81 a4 3c be
       -0.69807273 -0.012098387 0.24256907 -0.18422128
0000c0 e4 3b 5c 3e 84 ea 10 bd 48 da 9a 3e 68 1f 9a be
       0.21507221 -0.0353799 0.3024466 -0.30102086
0000d0 02 ee 59 3f 12 2a 82 bf 8a c7 3e 3d 9e b1 08 3e
       0.85128796 -1.0169089 0.046577014 0.13349006
0000e0 92 27 19 bd 7c 26 a9 3d 70 13 ba 3d b0 43 d5 be
       -0.037391253 0.082592934 0.09085739 -0.41653204
0000f0 e2 de f3 be 44 7f b0 3c 76 2d 21 3f 47 1b 1e 3f
       -0.47630984 0.02154506 0.6295999 0.6176037

onnx::Conv_109 f4 [64, 64, 1, 1]
000000 0b 59 6f be ba c7 48 bd 55 09 8e bd 8a 40 ac 3d
       -0.23373811 -0.0490186 -0.06935374 0.08410747
000010 04 da a2 3b 5c dc 0e 3d b2 37 2a bd 9f c6 46 be
       0.004969837 0.03487812 -0.04155702 -0.19411705
000020 14 c5 56 3d b1 cc 49 bc 2b 19 3b 3d 45 56 75 be
       0.052434042 -0.012316869 0.0456783 -0.2395869
000030 5a 8e 78 be a2 57 2e be ce 92 ad 3d 44 56 77 3e
       -0.24273053 -0.17025617 0.084752664 0.24154001
000040 b5 9f 21 3e 4e 00 81 3c 31 39 f3 bd b5 fb 81 3d
       0.1578358 0.015747216 -0.11876143 0.063468374
000050 9d 64 8a be c3 51 32 be a1 ae f0 bd 7f 5f bb bc
       -0.27029887 -0.17414002 -0.11752058 -0.022872685
000060 32 7d 18 bd 1e fc f4 3d 62 10 a5 bc 89 fe dc bc
       -0.03722877 0.1196215 -0.020149413 -0.02697684
000070 1c 76 90 3d 24 8e b6 bd f0 32 7f 3d 9b b0 c0 3d
       0.070537776 -0.0891383 0.062304437 0.09408685
000080 89 60 bb 3d 34 22 a4 bd 6f 38 3e 3d 80 59 f3 bc
       0.09149272 -0.08014336 0.046440538 -0.029705763
000090 67 7c f0 bd f7 ed 80 3d e4 b4 cc 3d f5 04 dc 3d
       -0.11742478 0.06295388 0.0999544 0.10743133
0000a0 5d aa fa bd 19 ec 48 3d 45 cd 36 3a 37 7d 08 3e
       -0.122395255 0.049053285 0.00069733366 0.13329016
0000b0 13 68 f7 3d 75 91 5c be ef ff 3b be e1 72 95 be
       0.120803975 -0.21539862 -0.1835935 -0.29189208
0000c0 ad e1 e5 bc 01 ca bb bd 22 23 b1 bd d4 a4 e7 bd
       -0.028061712 -0.091693886 -0.08649279 -0.11310735
0000d0 5f c3 32 bd 8f 96 08 3e 43 da 20 3e f1 5d 2e 3e
       -0.04364335 0.13338684 0.1570826 0.17028023
0000e0 83 bf 1a 3c 61 4a 0f be 84 eb 0a bd 81 36 02 be
       0.009445074 -0.13993217 -0.03391601 -0.12716104
0000f0 d0 95 f7 bd 10 93 0b bd df 22 0e be e9 cb 4b bd
       -0.12089121 -0.034075797 -0.1388049 -0.04975501
000100 27 da 04 3e ea 6a eb 3c 9c 07 45 be 9e 06 3f 3d
       0.12973844 0.028737504 -0.19241184 0.04663717
000110 5c d3 2b be 2f 19 27 be bf f1 7d 3d 44 d2 05 be
       -0.16779846 -0.163182 0.061998125 -0.13068491
000120 c0 44 f7 3d 57 d7 b5 3c b7 58 83 bd 5c 66 c6 be
       0.1207366 0.022197409 -0.064134054 -0.3874997
000130 36 75 c3 bd 13 6e cc 3d 44 42 02 be 20 b8 8e 3d
       -0.095438406 0.099819325 -0.12720591 0.06968713
000140 6e 4e 08 bd 4a ad 77 3d 52 8f 04 3d b7 24 46 bd
       -0.03327792 0.060467996 0.032363243 -0.048374858
000150 60 ae 97 be ea f5 bf 3c 49 f8 94 be 98 ff a5 3c
       -0.29625225 0.02343269 -0.29095677 0.020263478
000160 17 58 ea bc 71 f2 f6 3d a8 09 c1 bd 05 6f 4d bc
       -0.028606458 0.12057961 -0.0942567 -0.012538676
000170 13 7e 02 3d 8a f7 7b 3e 37 76 d9 3e 3d d5 c7 b9
       0.031858515 0.24606147 0.42473003 -0.00038115113
000180 d8 f0 1e 3e 9f df 07 be 2a 9f 12 be d1 31 90 3d
       0.15521562 -0.13268898 -0.14318529 0.07040752
000190 ee 08 1b be 7b 7b 08 3d 22 3e 30 be b0 6d 00 3e
       -0.15140125 0.033320885 -0.17211202 0.12541842
0001a0 32 85 b7 3d 51 ee 41 bd 2f b7 1b 3d fd 32 86 3c
       0.08960952 -0.047346417 0.038016494 0.016381735
0001b0 cb be e3 bd eb b0 01 3d 77 58 cb bd 06 ff 7f 3e
       -0.11120375 0.031662863 -0.09928983 0.24999627
0001c0 57 10 c0 bd c6 ce 30 bb 65 eb 8b 3c 15 b8 39 3c
       -0.093781166 -0.0026978715 0.017080018 0.0113353925
0001d0 d7 43 84 bd a4 0b ba 3c bd d6 8c be a7 70 1e be
       -0.06458252 0.022710629 -0.27507582 -0.15472661
0001e0 df 82 e6 bc 2e 19 02 be 05 d4 65 bd 42 73 8b 3b
       -0.028138576 -0.12704918 -0.0561104 0.004255683
0001f0 5e 25 0c 3e 7f e3 ec bc c9 f8 16 3d f3 67 3e 3e
       0.1368613 -0.028917072 0.036858354 0.18594341
000200 bd d3 63 bd 13 fe ad bc ee 14 80 bd 19 82 07 3e
       -0.05562185 -0.021239316 -0.06253992 0.13233222
000210 02 cc c0 be 50 f7 2e be e3 af 8d be 63 cf cf bd
       -0.37655646 -0.1708653 -0.27673253 -0.10146978
000220 cb f5 b5 bd cf b4 ee 3d 69 db ad 3e bc ba 3c bd
       -0.08884772 0.1165558 0.3395646 -0.04607652
000230 c1 50 3e be be e9 fd bd b7 88 8c 3e db 03 e3 ba
       -0.18585493 -0.123980984 0.27448055 -0.0017319875
000240 da fa a0 3d 9f 9e 6a 3d 0c 10 c9 bd 0e d0 8e 3e
       0.07860346 0.05728018 -0.09817514 0.27893108
000250 74 6e 58 3e dd b7 92 3c a0 b3 3b bd f2 ef e7 bd
       0.21135885 0.017909938 -0.0458256 -0.11325063
000260 4b 33 0f be 0d 9f ae 3d e0 46 2e be 4e 9c e5 3d
       -0.1398441 0.0852643 -0.17019224 0.112114534
000270 99 ee af 3d 02 a1 0f 3e b5 b3 49 3e 7a 79 1c 3b
       0.08590431 0.14026263 0.19697459 0.0023876117
000280 f0 d0 0b be 05 63 16 be 9e a3 0d 3d 7a 7b a5 3d
       -0.13653922 -0.1468621 0.034579866 0.08080192
000290 11 d9 9e bd 38 b8 96 bd 39 2b f0 3c 44 91 ad 3d
       -0.07756246 -0.07359356 0.029317485 0.08474973
0002a0 17 3a 3f 3e e3 2e 5b 3d 4e e9 54 be 09 59 5c bb
       0.18674503 0.05351151 -0.20792124 -0.0033622405
0002b0 1f 1b fa bd 8d cd f6 bd 64 c5 3f 3d 5f d8 78 3e
       -0.12212204 -0.120509245 0.046819106 0.24301289
0002c0 59 da 35 be 63 5a d2 bc b6 ed ed bc de bf 32 bb
       -0.17759074 -0.025677865 -0.029044013 -0.0027275006
0002d0 d9 8b a7 3d f4 68 8d 3d 6f f8 b2 bc f8 0c d9 3c
       0.08180971 0.06904784 -0.021846978 0.026495442
0002e0 27 c0 0c 3e 7f fe 64 bd d2 0e 94 bd 90 86 61 be
       0.13745175 -0.05590677 -0.07229389 -0.22023988
0002f0 0d 32 74 3d 0a 2f 19 be 9c 93 47 be 58 d0 ab 3d
       0.059618045 -0.1495935 -0.19489902 0.08389348
000300 cb 23 9a 39 9b 06 4e bd 69 92 44 be 83 49 0f bd
       0.00029399837 -0.05029927 -0.19196476 -0.034982216
000310 28 71 a2 bc ef be d2 bc 33 f9 82 3e 70 74 eb bc
       -0.019829348 -0.02572581 0.2558075 -0.028742045
000320 ee a4 6b 3d b3 6a 2a be 86 f7 77 3d a0 69 e3 3c
       0.057530336 -0.16642265 0.06053879 0.027760327
000330 63 cb b7 3d 7b 2f 16 bd c2 2e 49 be b8 4c 5d 3d
       0.0897434 -0.036666375 -0.19646743 0.054028243
000340 b1 25 8e be 07 9a 1e 3e 7c c6 b5 3c bb ca bf 3d
       -0.2776313 0.15488444 0.022189371 0.0936484
000350 3e a2 83 bc ae 0a 85 bc 48 6c a5 bd ab 9d 82 bd
       -0.016068574 -0.016240444 -0.08077294 -0.06377729
000360 d3 6c c3 bd 40 89 8d 3d 9e d0 97 3d 59 5d 37 bc
       -0.09542241 0.06910944 0.074128374 -0.011191689
000370 0d 91 c5 3d 45 66 9e 3d 71 a1 ad bd 2a 9c 78 be
       0.09646807 0.0773435 -0.08478058 -0.24278322
000380 d7 7c ac bd aa 69 0b 3d 65 bf b8 3d 91 52 d9 bc
       -0.08422249 0.034036316 0.090208806 -0.026528629
000390 a2 27 14 3e c1 35 ad bb 53 a7 06 be 5e f2 35 3d
       0.14468244 -0.005285949 -0.13149767 0.044420592
0003a0 69 1d 65 3d 56 e3 de 3c 70 96 08 be d1 67 33 3e
       0.05593625 0.027208012 -0.13338637 0.17520072
0003b0 b8 5f 5e 3d 70 8a 2f 3e 2a 4d 29 3d 72 a2 58 be
       0.054290503 0.17142653 0.041333355 -0.21155718
0003c0 72 4a 1f 3d 1f da f5 bd b8 fb a5 bd b2 8b 1f bd
       0.038889356 -0.12004494 -0.08104652 -0.038951583
0003d0 de 08 f1 3c 2c 14 10 3e 7d f6 78 bd aa 6d 05 bc
       0.029423174 0.14070195 -0.060781945 -0.008143822
0003e0 f6 f0 74 3d 11 cc a0 bd d6 d9 01 be fa 46 3c 3d
       0.05980011 -0.078514226 -0.12680754 0.045966126
0003f0 28 e4 d3 bd b6 af 01 3e 87 9d 27 3e 91 d4 07 be
       -0.10346252 0.12664685 0.16368686 -0.13264681
